pretrained_gnns/Amazon-ratings_GraphCL_GCN_1.pth (torch, 222648 bytes, 4 tensors)

conv1.bias f4 [128]
00000000: 49c1 b13c a592 3f3c 16a2 473c 6246 d83a
00000010: 99b0 f3ba 984e a73c 2a05 bcbb c492 8b3c
00000020: 1d7d fb3c 84a2 483c 8972 f23c 2cfa 973a
00000030: a3be 8b3b e5e0 613c c703 c9ba 6280 e5bb
00000040: 30c0 b03c d67c 893c 1506 893c 11a9 b83b
00000050: fb76 ed3c 5109 bf3c 33b5 303c 1a74 c83b
00000060: 0c0f 18bc c4bf e73b e35a c33c 56eb bc3b
00000070: 8171 26bc f90d c03c 22cd b93c b932 783b
00000080: 076b 183c fa60 9d3b 1643 8d3c a688 90bb
00000090: 7b29 ff3c 2d53 123d cbce 3cbb 89b6 f53c
000000a0: 3252 a33c 3239 9d3c d28c 4e3b fd49 833c
000000b0: 1b3a edbb 16a2 84bb 2aa6 a43c 175f 603c
000000c0: 3d7a 333c a12e 1a3c 86d4 cab9 75f5 d43c
000000d0: c01e 2b3c 9182 053b 3327 363c 5341 d33c
000000e0: e24d c53c f7c6 a63c b0e1 ac3c 458e d43c
000000f0: a668 c63c 2dc2 bfbb b53d bd3c 8a94 c53b
00000100: 8fd5 d7bb d6da 103d 06bc a5ba f529 88bc
00000110: 7f9a 403c bf8a 983c 1f25 1d3b 2bc7 3abc
00000120: 7944 bb3b 2add 823c 7f35 44bc 2a7c afbc
00000130: 9ea9 913b 7354 e8bb 70df a9bb 796d 1b3c
00000140: 2c7c 683b 2e25 8c3b c2ce 8a3c d2a9 613c
00000150: d637 e73c 0560 04bd 843a 263c cba1 253c
00000160: 4a11 923c 181a 6b3c 733c 5f3c d955 b13c
00000170: 6272 30bb 4c20 1f3c 4fcf 9b3c 5477 b93c
00000180: b76f 283c 2eff 763c f0c6 8b3c 3ef0 db3b
00000190: b2f5 613c 0f64 0b3b 3a25 cb3b e4ac 7c3c
000001a0: d15f 4f3c 1c00 87bb 6a59 72bb c7f8 663c
000001b0: 61fd 3e3c 99eb 123c fdb4 0e3c 1ebf 7b3c
000001c0: 9922 013c 2e0f 473c 7f42 9d3c 430e 9a3b
000001d0: 2a23 753c e258 abba 2ae4 4e3c 338e d03b
000001e0: fb77 003c 7041 debb 7a2b d0bc f342 123c
000001f0: 19b2 ad3a 705d d33c 9b2e 3f3b c4c3 3dbc
0.02169861 0.011692678 0.01218464 0.0016500468 -0.0018592059 0.020423219 -0.0057379203 0.017037757
0.030699307 0.012245778 0.02959563 0.0011594943 0.004264669 0.013786529 -0.0015336209 -0.00700383
0.021576017 0.01678316 0.016726533 0.0056353887 0.028987398 0.023319872 0.010785389 0.006117356
-0.009280931 0.007072421 0.02384705 0.005765359 -0.010158897 0.023444163 0.022680823 0.003787203
0.009302861 0.0048028203 0.017243903 -0.004410821 0.03114771 0.035723854 -0.0028809782 0.029994266
0.019936655 0.019192312 0.003151704 0.016026491 -0.0072395927 -0.0040476425 0.020098764 0.013694546
0.010954437 0.009410531 -0.00038686785 0.02599595 0.010444343 0.0020372013 0.011117744 0.025787985
0.024084989 0.020358546 0.02110371 0.025946746 0.024219822 -0.005852005 0.023100713 0.00602967
-0.0065867375 0.03536495 -0.0012644536 -0.01662157 0.011755585 0.018620847 0.0023978425 -0.011400024
0.0057149497 0.0159746 -0.011975645 -0.02142151 0.004445269 -0.0070901453 -0.0051841065 0.0094865495
0.0035474403 0.004276893 0.016944293 0.0137733985 0.028224867 -0.032318134 0.010145787 0.010109375
0.01783051 0.014349483 0.013625252 0.02164738 -0.0026923646 0.00971229 0.01901975 0.022639908
0.010280541 0.015075488 0.017062634 0.0067119887 0.0137914885 0.0021269356 0.006199506 0.01542208
0.012657122 -0.004119886 -0.0036979564 0.014097399 0.01165709 0.008967304 0.008710143 0.01536539
0.007881784 0.012149615 0.019196747 0.004701407 0.014961997 -0.0013072754 0.012627641 0.0063646077
0.007841106 -0.006782703 -0.025411356 0.008927095 0.001325193 0.02580139 0.0029172066 -0.011582319

conv1.lin.weight f4 [128, 300]
00000000: d0d0 a73c bd39 df3d 5092 c039 ba41 36bc
00000010: f82b 30bd 43ac c73c af03 f3bd d990 ac3d
00000020: 63c4 983c 997a debd 196c a73d 19e9 adbb
00000030: cbfe 75bc bd64 8bbc a35b 033e d778 4abd
00000040: 4ecd 253d e324 c83b 5bb0 1fbd b1d1 c4bb
00000050: 89f4 323d b354 acbd f363 083a 1bd0 0ebc
00000060: 926f 683d 8e1d 973d 3acf 923c 1b32 e33d
00000070: 76cd aa3d d7ce 92bd 70d5 b13d 766e f5bd
00000080: b4f4 863d a28c e2bd aeff c0bd ddb1 31bd
00000090: fc9f 9c3c 4cab 5b3b de18 e6bc b1ba 0bbe
000000a0: e47c cd3c 5cb5 4abc 0d86 edbc 1289 273c
000000b0: fd17 b8bd 6aa3 1abd 57dc 0a3d 319b 52bd
000000c0: e012 e1bc d4b1 17be 4325 9dbd 4007 e5bd
000000d0: 0eca b9bc d4fa c6bd 3e9a 4c3d 139c aebd
000000e0: 6f11 653d 1d86 b13b f585 593a 8345 003e
000000f0: f75b 533d a9fb 493e 89a8 acbd fb7f 08bd
00000100: c813 d5bd 2772 023d c362 83bc 64c5 acbd
00000110: 78b7 573d 93e2 14be 8f43 2ebd a9b1 00bd
00000120: a19f 49bd e97c fdbc a5b4 103d 4050 9a3d
00000130: adf0 243c 9cd0 bebd d91a 99bd a350 9ebd
00000140: 939a 4bbd 56c6 82bd c1f3 4a3d 3acf 03bd
00000150: dab2 763d e34a 07be 079f 50bd a1e4 af3d
00000160: 564b 3a3d c673 cdbd a664 9dbd 4c4e acbd
00000170: 416a a23d 771c 2c3d ac83 193d 7471 be3b
00000180: d016 1dbc 6090 e43b 3d05 2bba 579b e43b
00000190: e014 79bd 7c6f 9ebd a9ea 883d 63ef 04be
000001a0: 49d3 193e f7a8 a03d d868 ce3d a564 723d
000001b0: ec32 33bd faaf 833d 24ac e13d 411e bfbd
000001c0: 3b8b 9a3c 22ca 613c 48bc 19bd e70f 013e
000001d0: fe58 0cbc 2e16 5b3d 95e7 b83b b9f4 7f3d
000001e0: 63d7 003d 1629 ad3d 41a5 99bc 6b09 b23d
000001f0: bdad 9e3c f568 8fbd bca6 22bc f183 dc3d
00000200: b662 4cbd 414e 373d af50 ed3d 786a efbc
00000210: 59ce d4bd b883 e23b aa5b 97bd 1361 a5bc
00000220: cc9f cc3d 3727 853b 2826 223d c0a6 b73c
00000230: 17c7 4ebd 6b96 f73d 363b b1bd 4b30 dbbd
00000240: a1ed 08be c6cb dcbc 9b3a f839 016e e8bb
00000250: d695 373d dbda 2d3d d93c 3e3d 2f31 cebd
00000260: eca0 81bd 4f6d bd3c 0778 d53d 5457 6bbd
00000270: 6810 34bd 3ede febd ae02 9d3c b259 5cbd
00000280: cb3e cdbd b7e7 683d fc46 0a3d 6686 583c
00000290: 27e6 823d d7ad 333d 11fe ff3d fea0 b8bd
000002a0: efcc 8a3c 148b 9abc d20f af3d 9888 803d
000002b0: 6cd7 b5bd 83bf 693c de2f c33c 2ced 0d3d
000002c0: 3f3d cb3c 6197 acbd 2171 a83d 73ae a43d
000002d0: 4fbc ecbc a4ee ec3d edb8 103e 5503 073e
000002e0: 9c04 6e3c 692c 70bd e2e3 fcbc d37c aebd
000002f0: b1a1 8c3d afb2 033d 44a0 2abd 12f0 35bd
00000300: d88d 263e 21eb eabd a621 95bd 0e14 54bd
00000310: f6d7 28be cfcd c7bd 1a85 cb3c 7267 76bd
00000320: b8f6 9fbd e7b9 36bb 6099 383d bf25 c63d
00000330: 0f85 2d3d 08b2 753d 674e 1ebd 57c2 17bc
00000340: 3517 e13d 5791 6ebd 58ba e3bd 7184 48bd
00000350: b26e 4abd 40c0 d83c 2ba2 933d d659 663d
00000360: 24c2 1b3d 0f18 c0b8 330f 5fbd 709c 963d
00000370: 7c63 23be 116e 0ebd 944e 38bd 646b f43d
00000380: 7dc8 a1bd d744 c0bd 4dce 203d e706 c33c
00000390: cf05 0b3c b24f 843d ebc6 e73a 6050 1fbe
000003a0: c3a1 3d3d 7379 13bc ea2a 63bc 2747 db3d
000003b0: 7d68 fcbc 9257 723d 4bae bdbc af11 333d
000003c0: 8371 7cbd 6dac e23c 1572 e7bc b410 aa3d
000003d0: e73e 523d b1aa aa3b 185f f6bd 231f 573d
000003e0: 842f eebd 5c05 003e 0e51 9a3d e19a e53d
000003f0: 4b1f 0c3d 7e6c a83c 276d 203e 6244 9e3d
0.020485312 0.108996846 0.00036730105 -0.011124069 -0.043010682 0.024374133 -0.11865937 0.08426065
0.018648332 -0.108632274 0.08174915 -0.0053073284 -0.015014361 -0.01701581 0.12827925 -0.049431648
0.040478997 0.006107913 -0.038986545 -0.0060064425 0.04369024 -0.084145926 0.0005202882 -0.008716608
0.056747027 0.07378684 0.017921079 0.11093541 0.0833997 -0.07168358 0.08683288 -0.119839594
0.06589642 -0.1106198 -0.09423767 -0.043382514 0.019119255 0.003351885 -0.02808803 -0.13645436
0.025083967 -0.012372341 -0.028994584 0.010225551 -0.089889504 -0.0377535 0.03390154 -0.051417533
-0.02747482 -0.1481393 -0.07673123 -0.111830235 -0.022679355 -0.097158104 0.049951784 -0.085258625
0.05592483 0.005417599 0.0008297854 0.12526517 0.051601376 0.19724907 -0.08430583 -0.033325177
-0.104041636 0.031847145 -0.016038304 -0.08436087 0.052665204 -0.14539556 -0.042544898 -0.03141943
-0.0492245 -0.03094335 0.035328526 0.07534838 0.010067147 -0.09317133 -0.07475824 -0.07730224
-0.04970796 -0.06385486 0.049548868 -0.03218005 0.06022916 -0.13212161 -0.05093291 0.085885294
0.045482002 -0.10031848 -0.07685213 -0.084133714 0.079304226 0.042019334 0.037479088 0.0058118645
-0.009587958 0.0069752187 -0.0006523913 0.0069765258 -0.060810924 -0.07736108 0.06685383 -0.12981944
0.15022005 0.078447275 0.10078591 0.059178013 -0.043749735 0.06430049 0.11019161 -0.09331942
0.018865218 0.013781102 -0.037533075 0.12603723 -0.008566139 0.05348795 0.005642841 0.062489245
0.03145541 0.08455102 -0.018755557 0.086932026 0.019369954 -0.07002441 -0.009927448 0.10767353
-0.049898826 0.044752363 0.11587655 -0.029225573 -0.1039092 0.0069126748 -0.073905304 -0.02018789
0.09991416 0.0040635127 0.03958717 0.02241838 -0.050482836 0.12089237 -0.08653872 -0.107025705
-0.13371898 -0.026952635 0.0004734591 -0.0070931916 0.04482063 0.042445045 0.046444748 -0.10067975
-0.063295215 0.023123411 0.10423284 -0.05745633 -0.04396096 -0.12444733 0.019166317 -0.053796478
-0.100217424 0.056861605 0.033759102 0.013215637 0.06391554 0.04386696 0.12499631 -0.09015082
0.016943423 -0.018865146 0.08547939 0.06276053 -0.08878979 0.014266851 0.023826536 0.034650013
0.024809478 -0.08427311 0.082247026 0.08041086 -0.028898386 0.115689546 0.14133044 0.13184865
0.014527466 -0.058636103 -0.030870382 -0.08519902 0.06866778 0.032152828 -0.041656747 -0.044418402
0.16265047 -0.114706285 -0.072818086 -0.05177694 -0.16488633 -0.09756052 0.024843741 -0.060157247
-0.0781073 -0.0027881803 0.045068145 0.09675168 0.042363223 0.059984237 -0.03864899 -0.009262643
0.109907545 -0.058244076 -0.111195266 -0.04895443 -0.049421974 0.02645886 0.072086655 0.056238018
0.038026944 -9.159755e-05 -0.054457854 0.07354057 -0.15955919 -0.034772936 -0.044996813 0.11934546
-0.07899568 -0.0938813 0.039259244 0.023807002 0.008485272 0.06460513 0.0017683184 -0.15558004
0.046296846 -0.009001124 -0.013865212 0.107069306 -0.030811543 0.059165545 -0.023154398 0.043718036
-0.06163169 0.02767011 -0.02825264 0.08303967 0.05132952 0.0052083363 -0.120298564 0.05251993
-0.11630157 0.12502044 0.07534991 0.112111814 0.03420953 0.020559546 0.15666638 0.07727887

conv2.bias f4 [128]
00000000: 88ce 143c 3afa 11bc f4d6 c73b 45a0 fbbb
00000010: 70df 4338 6e09 8a3c 1779 833c 61c2 8e3b
00000020: 7457 7b3c ad4c 76ba 4749 07bc 6bb4 1cba
00000030: 7719 eb39 0db8 c0bb 3294 5cbc 6abe 45bc
00000040: 5178 e0bb 822e 503c 71c1 603c 9cd0 11bc
00000050: 906b 2bbb 1a04 053c f1b7 73bb e6fa 013b
00000060: 4a4a 1a3c 05c5 36bb 77f3 7bbb c09c 1bbc
00000070: 52ea f53b 1d81 55bc 3538 79bc 5081 2e3c
00000080: 813f 0cb7 6ab5 4fbc e2de 823c 0616 28bc
00000090: 5360 0a3c 2559 173c 98e4 ce3a b3bf df3b
000000a0: e24b 20bc c50a 293c 3543 663c 4480 9d3c
000000b0: 7951 803c 0382 c3ba 5c9a a03b 3369 03bc
000000c0: 553c bcbb fbde cebb 858b fd3b 406c faba
000000d0: 2c6f e7bb 392c 04bc a72b a53b 6011 833b
000000e0: 71e4 d8bb fcbb 9dbb 4288 ae3b 1a83 0f3c
000000f0: 4083 57bc 40c4 0d3c 62e3 693c 1009 253a
00000100: 2b2d 923b 7e00 f8bb 12f3 49bc 445c 19bc
00000110: 7a42 933c 01f0 8abc fd34 923b eed5 a13c
00000120: 6bc8 ea39 64fb efbb 122a 96bb c1e2 203c
00000130: 3499 2dbc ff0c 82bc 50d1 d83a 3ec8 2e3c
00000140: 6b88 2b3c 8cd7 79ba 5f66 8bbc c9fe 053a
00000150: 29be 2abb 741c 8dbc 6b8f fdbb ae1d 13ba
00000160: 5aa5 a03a c561 323c 659a 8dbc 94a5 30bc
00000170: e65c b9ba 3c4b 8c3a 9a82 64bc 50d5 83bc
00000180: 1f1d 5cbb 19f3 333c b3a9 043c 6787 573b
00000190: ba96 adbb e6da 563c 920c be3b 78fc 96bc
000001a0: 584f 1e3a 1cb6 ef3a d366 c13b 7167 9c3b
000001b0: c8bb aaba 3ae6 3abc e667 9f3b d177 f23b
000001c0: 1c35 083c 05b2 733b 06b7 603b 9b3e f0bb
000001d0: 3ca7 d5b8 4196 693c da71 0e3c 7600 46bc
000001e0: d232 79bc 20c4 7e3c 4337 4c3c 0845 ceba
000001f0: 9b14 babc 0a86 1ebc 8c8b 013c 9f60 0bbb
0.009082444 -0.008909756 0.0060986225 -0.0076790177 4.6699715e-05 0.0168502 0.016048951 0.004356668
0.015340675 -0.0009395581 -0.008257217 -0.0005977812 0.00044841666 -0.0058813156 -0.013463067 -0.012069324
-0.0068502803 0.012706401 0.013717995 -0.008899834 -0.0026156642 0.008118654 -0.0037188495 0.0019833385
0.009417126 -0.002788843 -0.0038444677 -0.009497821 0.00750474 -0.013031271 -0.015211155 0.010650948
-8.359436e-06 -0.01267753 0.01597542 -0.010259157 0.008445817 0.009237562 0.0015784679 0.0068282722
-0.009783717 0.010317509 0.014054109 0.0192262 0.01566385 -0.0014916066 0.0049012136 -0.008020687
-0.005744497 -0.0063132024 0.0077375793 -0.0019105747 -0.0070628133 -0.008067184 0.005040604 0.003999874
-0.006619029 -0.0048136692 0.005326302 0.008759284 -0.013153851 0.008652747 0.014275404 0.0006295601
0.004460951 -0.007568418 -0.012326019 -0.009360377 0.017976034 -0.016960146 0.004461883 0.01975533
0.0004478128 -0.0073236693 -0.004582652 0.009819687 -0.0105956085 -0.015875338 0.0016541872 0.010667859
0.010469536 -0.0009530715 -0.017016588 0.00051115133 -0.0026053286 -0.017225482 -0.007738044 -0.00056120276
0.001225631 0.010887568 -0.017285535 -0.010781664 -0.0014142066 0.0010703574 -0.013947153 -0.016092926
-0.0033586693 0.010983252 0.0080971 0.0032887103 -0.005297509 0.013113713 0.0057998383 -0.018430933
0.0006039045 0.0018288526 0.00590215 0.0047730734 -0.0013025934 -0.011407429 0.0048646806 0.007399537
0.0083134435 0.0037184965 0.0034288778 -0.007331682 -0.00010187781 0.014257015 0.0086941365 -0.012085071
-0.01520987 0.0155496895 0.012464347 -0.0015737126 -0.022714904 -0.009675512 0.007906806 -0.0021267307

conv2.lin.weight f4 [128, 128]
00000000: 554a d23c 641c b43d d1c6 e2bd d849 0bbe
00000010: 5633 dd3d e861 dcbd ebc6 dd3d 1323 2abd
00000020: 1624 0abd 2712 b5bc 3f21 a53c a6c9 2bbd
00000030: eb5e af3d ad22 6d3d 029d 07bd e001 b63d
00000040: cc66 603d 0d30 39bd 9859 32be 99b7 aebd
00000050: 270f ec3d f975 163e 2046 e23d efd3 fc3d
00000060: a619 a03d 5e46 3cbd 5cc2 7bbd 212f 90bd
00000070: 0dcf 013e 365e a9bd fa06 913d 7dd3 ba3d
00000080: eb10 a83d 5b6e 9fbb f439 19bd 5996 5abd
00000090: 8b2f 2e3d 39f9 0e3e a97c d9bd f10e 443d
000000a0: 33cf 10be f84b 013e 95ec 69bd bce3 49bc
000000b0: d9c3 a03d 6d7c 083d d7ab 0f3e e135 1d3c
000000c0: 3a36 993d 5ac3 0cbe 8603 e13d 75d4 2fbd
000000d0: b31e b73d 9de6 013e 6018 273e b7a0 cb3c
000000e0: 3c0c d2bd f481 aa3d 3676 223e ce54 db3d
000000f0: f616 85bd 67e4 1d3e 7ce6 d8bb a8b7 d73c
00000100: 4a8f 223e 58e6 c83d b56b 14bc 893f 1b3e
00000110: faaf 18be 502e 1b3c 08bb 213e 2cf5 14be
00000120: d45b 053e 2d8f 88bd 7b34 ce3a 1017 5dbc
00000130: 514f d1bc d85e 15bc f0c2 2bbe a070 c53d
00000140: ed11 eabd 425a 5cbd 95f1 efbc 3375 08be
00000150: 5cdd adbd 2c51 0b3e 6731 313e 8151 883d
00000160: 4571 c13d 5539 44be 96b8 9ebd c2f7 7cbd
00000170: 1190 49bc c06e ffbc ac8b 21be 426c a73d
00000180: e8ea c8bc c66e 07be e092 31bd aebd cabd
00000190: e78f 453d 3fe5 5dbd 3ebe 01bd 2f40 ce3d
000001a0: c27e d03b 3eb0 0a3e 1011 eabc 0d18 02bc
000001b0: c366 04be e962 583d 6379 393e 8f7e 04be
000001c0: ba01 0dbe c1f3 d6bd 9de2 dcbd d0a6 f03d
000001d0: 0933 e4bd 4247 a23d f1e1 fc3d 636e 22bd
000001e0: ced1 88bd 2f02 16be b02f ccbc eabc 333e
000001f0: f88e 2cbc 4fc9 65bd 69d5 83bc 2b9f 92bb
00000200: 2242 6abd 57e4 18be 2807 99bd 9f0e b5bd
00000210: 2b19 c53d 786d 95bd d2d3 0bbd 4284 093e
00000220: f81f fdbd 9e9c f6bd 77ee 793d 6b4f 62bd
00000230: dee5 e03d b7c1 84ba 3023 773d 5b9a 973c
00000240: 3f24 103e 46b3 5b3d c469 d5bd 7571 b8bd
00000250: 750e 893d ba65 52bd e2d2 c9bc 0044 ce3d
00000260: 00c3 9e3d 3bc2 6ebd a025 acbd e2ae c6bc
00000270: a9fe 033e bcea 03be 4f72 233e d30f bfbd
00000280: 18a1 023e 931f d73d 4ed2 80bd b21e 343d
00000290: 8766 233e 2b21 14be 02e9 c33d 7a54 4b3a
000002a0: 2d6b ae3d 430b 64bd 6880 2c3d 1e3a f23c
000002b0: 380f 193e b9d4 1c3e 79ac a53d 3fac 27be
000002c0: ea8d a8bd c474 443c e709 313d ad78 8c3d
000002d0: 75a6 073d 7308 50bd df9d 2c3d 2e11 1abe
000002e0: ffdc 2e3e 76ac 62ba 59fb 3b3d 9574 23bd
000002f0: c05b 543d 6249 7f3d 4518 e9bd 9abf 153e
00000300: f453 ce3c c445 0abe fb7c c9bc 1978 85bd
00000310: 6f31 e73d 2593 43bd 30be 0abe 3e71 eabd
00000320: a625 1e3e 3913 26be 605f dbbb 8290 f5bd
00000330: 7943 c43c 3a44 983c 82e8 173d bfd0 35bd
00000340: 2ab2 02be e00f 04be 22dd 813d f2ec d6bd
00000350: f871 e1bd b419 813d c853 06be b9bc 85bd
00000360: b4d5 a1bd d9bc 983d cf7a 503b 3e97 1b3d
00000370: a58e f93d f945 1dbe 1366 07be fb24 ff3d
00000380: 9bb4 1c3e 13b4 fcbd 22d6 0ebd b053 e43c
00000390: 6755 36bd bdb6 0fbe 8348 103e fbde a33a
000003a0: eb8f b63d 0af5 253e e25c 0c3e f123 ef3d
000003b0: 7618 c3bd c037 d7bc 5926 84bd f0a7 05be
000003c0: cc80 693d 1aa9 31be a427 973c 2a52 1ebd
000003d0: 31ed a83c fb88 573d 08fe f63d 767f 32bd
000003e0: 5283 7a3c 4644 403d 56fe 95bd 476a 733d
000003f0: 9b0f 9b3d e726 803d c508 443d 78ca 7abd
0.02567021 0.087944776 -0.110730775 -0.13602388 0.10800807 -0.10760862 0.10828956 -0.041537356
-0.03372582 -0.022103382 0.020157455 -0.041940354 0.08563026 0.057894398 -0.03310872 0.088870764
0.054785535 -0.04521184 -0.1741699 -0.08531112 0.115263276 0.1469344 0.110485315 0.123451106
0.07817392 -0.045965545 -0.061464652 -0.07040239 0.1267664 -0.082699224 0.07081409 0.091223694
0.08206352 -0.0048654503 -0.037408784 -0.05336604 0.04252581 0.13962258 -0.1061948 0.04786581
-0.1414154 0.12626636 -0.057110388 -0.0123223625 0.07849855 0.033321787 0.14030395 0.009595365
0.07481046 -0.13746396 0.10987 -0.042927224 0.08941402 0.12685628 0.16317892 0.024856908
-0.1025624 0.08325568 0.15865406 0.107095346 -0.0649852 0.1541916 -0.0066192728 0.026332691
0.15874973 0.098095596 -0.0090588825 0.15160955 -0.1491088 0.009471491 0.15794003 -0.1454665
0.13023311 -0.066679336 0.0015732193 -0.013494268 -0.025550516 -0.009116851 -0.16773582 0.09640622
-0.114292 -0.053797014 -0.02929 -0.13325958 -0.084894866 0.13605183 0.17304002 0.06656171
0.094454326 -0.19162495 -0.07750051 -0.061759718 -0.0123024145 -0.03118074 -0.15775937 0.081749454
-0.024526075 -0.1322585 -0.04335296 -0.0989946 0.04823294 -0.054173704 -0.03167557 0.10070836
0.006362767 0.13543794 -0.02857259 -0.007940304 -0.12929825 0.052828703 0.18112712 -0.12938903
-0.1377019 -0.10495711 -0.107854106 0.11750567 -0.11142547 0.079237476 0.123477824 -0.039656054
-0.06680642 -0.1464927 -0.024925083 0.17552534 -0.010532133 -0.056100186 -0.016092973 -0.0044745407
-0.057191975 -0.14930855 -0.07472068 -0.088406794 0.09623941 -0.0729627 -0.034137554 0.13429359
-0.12359613 -0.12041591 0.061018433 -0.05525152 0.10981344 -0.0010128532 0.06033629 0.01850622
0.14076327 0.053637765 -0.10420564 -0.09006015 0.066922106 -0.051366545 -0.02463669 0.10071564
0.07752037 -0.0582907 -0.08405614 -0.024253312 0.12890114 -0.12882513 0.15961574 -0.0932919
0.12756765 0.10504069 -0.062901124 0.043974586 0.1595708 -0.14465778 0.09565927 0.00077564234
0.08516536 -0.055674803 0.042114645 0.029568728 0.14947212 0.15315522 0.08089537 -0.163743
-0.08230193 0.01199073 0.043222334 0.068589546 0.03311773 -0.050789308 0.042142745 -0.15045616
0.17076491 -0.00086469145 0.045894 -0.039906103 0.051845312 0.062325843 -0.11381582 0.14623871
0.025186516 -0.13503176 -0.024595728 -0.065170474 0.112887256 -0.04774775 -0.13549113 -0.114473805
0.15444049 -0.1621827 -0.006694719 -0.11990453 0.023957955 0.01858722 0.03708697 -0.04438853
-0.12763277 -0.12896681 0.06341006 -0.104944125 -0.11008066 0.063037306 -0.13117898 -0.065301366
-0.07902089 0.07457895 0.003181148 0.037986033 0.121854104 -0.15358724 -0.13222532 0.12458225
0.1530327 -0.12339034 -0.03487218 0.027871937 -0.04451504 -0.14034553 0.14090161 0.0012502366
0.08914169 0.16206756 0.13707307 0.11676777 -0.0952615 -0.0262717 -0.06452627 -0.13052344
0.057007596 -0.17349663 0.01845152 -0.038652577 0.020620914 0.05262087 0.12060171 -0.043578587
0.015290098 0.04694011 -0.07323901 0.059427526 0.07571336 0.0625742 0.047859926 -0.061228245
