pretrained_gnns/Amazon-ratings_EdgePredGraphPrompt_GCN_1.pth (torch, 222744 bytes, 4 tensors)

conv1.bias f4 [128]
-0.058790572 -0.067008816 -0.063920245 -0.045716472 -0.04363545 -0.038890235 -0.05104654 -0.059472922
-0.041381076 -0.047945213 -0.04488505 -0.050665483 -0.03663703 -0.06563806 -0.036598075 -0.06866443
-0.041945044 -0.069772385 -0.032633644 -0.036966674 -0.033033058 -0.063499235 -0.07448218 -0.054262295
-0.06247813 -0.043415878 -0.043669704 -0.035108943 -0.051861458 -0.09852956 -0.06827631 -0.043187775
-0.08780772 -0.07543181 -0.06241055 -0.035977803 -0.026187424 -0.045706578 -0.02392698 -0.046728674
-0.06165236 -0.053709093 -0.063768215 -0.05516746 -0.045955036 -0.055501666 -0.036836997 -0.062400356
-0.05980314 -0.037806977 -0.055616885 -0.078836285 -0.040064737 -0.036767613 -0.036190677 -0.05828981
-0.06921942 -0.051903516 -0.049053524 -0.051485892 -0.045002263 -0.03841364 -0.07725649 -0.05821503
-0.040364727 -0.0597158 -0.05434838 -0.05176152 -0.043970075 -0.03433063 -0.045002643 -0.07752531
-0.03941915 -0.031450268 -0.06751087 -0.06650012 -0.034505796 -0.043516617 -0.041882202 -0.023974493
-0.04146653 -0.052414857 -0.033354882 -0.039237652 -0.036792196 -0.0514432 -0.060532726 -0.04410338
-0.050124977 -0.09266402 -0.051937282 -0.054688394 -0.047349054 -0.031031579 -0.051026795 -0.068762004
-0.031356033 -0.047588088 -0.029845256 -0.060976878 -0.04873365 -0.033909034 -0.03335774 -0.03678274
-0.051545873 -0.055723526 -0.05109742 -0.034311354 -0.046799727 -0.08036768 -0.051218648 -0.047147293
-0.0784538 -0.047156963 -0.05017208 -0.025858715 -0.06064196 -0.06751678 -0.04918268 -0.04166165
-0.051822923 -0.07469664 -0.0528571 -0.06934822 -0.06306435 -0.04292288 -0.022970138 -0.068562195
00000000: 62ce 70bd eb3b 89bd 9ee8 82bd 3241 3bbd
00000010: 16bb 32bd 5e4b 1fbd 2d16 51bd e199 73bd
00000020: 347f 29bd 3362 44bd 63d9 37bd 9c86 4fbd
00000030: b610 16bd 3f6d 86bd dde7 15bd f09f 8cbd
00000040: 91ce 2bbd d3e4 8ebd dbaa 05bd 5e6a 17bd
00000050: ac4d 07bd e30b 82bd 1d8a 98bd 2442 5ebd
00000060: 11e9 7fbd d9d4 31bd 01df 32bd 65ce 0fbd
00000070: ae6c 54bd dec9 c9bd 73d4 8bbd aae5 30bd
00000080: 89d4 b3bd fe7b 9abd 34a2 7fbd 765d 13bd
00000090: 0287 d6bc d236 3bbd 8402 c4bc 9166 3fbd
000000a0: 2f87 7cbd 11fe 5bbd e998 82bd 46f7 61bd
000000b0: 593b 3cbd b755 63bd 64e2 16bd 8497 7fbd
000000c0: 23f4 74bd 7ddb 1abd 88ce 63bd eb74 a1bd
000000d0: ec1a 24bd a399 16bd ad3c 14bd 4cc1 6ebd
000000e0: e9c2 8dbd c898 54bd 59ec 48bd dfe2 52bd
000000f0: 4b54 38bd 9f57 1dbd a738 9ebd e272 6ebd
00000100: 7c55 25bd 8e98 74bd 689c 5ebd e303 54bd
00000110: f719 34bd 469e 0cbd b154 38bd 97c5 9ebd
00000120: fa75 21bd ffd1 00bd 2443 8abd 3731 88bd
00000130: f355 0dbd 7b3e 32bd ac8c 2bbd 2866 c4bc
00000140: cfd8 29bd f6b0 56bd 219f 08bd a9b7 20bd
00000150: 6ab3 16bd 1bb6 52bd 2af1 77bd bfa5 34bd
00000160: d94f 4dbd a2c6 bdbd 30bc 54bd f000 60bd
00000170: 15f1 41bd f035 febc 7901 51bd 18d3 8cbd
00000180: 2f6f 00bd baeb 42bd 0a7e f4bc e4c2 79bd
00000190: f09c 47bd 33e4 0abd 20a2 08bd 80a9 16bd
000001a0: c421 53bd 5a3e 64bd 874b 51bd 108a 0cbd
000001b0: 12b1 3fbd cf97 a4bd a5ca 51bd 851d 41bd
000001c0: 63ac a0bd a927 41bd 3d81 4dbd a8d5 d3bc
000001d0: b463 78bd 3d46 8abd c773 49bd 68a5 2abd
000001e0: 4644 54bd 8dfa 98bd b080 58bd 7106 8ebd
000001f0: e227 81bd e7cf 2fbd df2b bcbc 566a 8cbd

conv1.lin.weight f4 [128, 300]
0.05733167 0.27627212 -0.01472531 -0.0013760474 0.034175042 0.22133686 -0.2607515 0.11862591
0.14418106 -0.2903721 0.064316094 -0.011399548 0.20324384 0.13923009 0.13959725 -0.021644231
0.2765116 0.13997126 -0.054879546 0.14194787 0.029769234 -0.2967856 -0.23872854 -0.04110002
-0.10963214 0.031059375 -0.15571551 0.29812142 -0.14391084 -0.022740562 0.35266283 -0.090564586
0.20386453 -0.12684293 0.022452638 -0.089251146 -0.4070916 0.124654874 -0.12409062 -0.14194313
-0.14240544 0.03959538 0.033308364 0.046280123 -0.10013567 -0.030690763 -0.3171772 -0.27452105
-0.037403446 -0.4237872 0.041240297 0.2784216 -0.079692915 -0.096392274 0.31199542 -0.2414324
-0.023032442 0.09194165 -0.078565195 0.05397447 0.1184795 0.3629012 -0.10557962 -0.047849134
-0.06628194 0.057256978 0.072813876 -0.17681582 0.27933213 -0.28002653 -0.12404376 -0.11437601
-0.27714458 0.090007015 0.11888383 0.068315126 0.25621018 -0.14738292 -0.21056473 0.0055919588
0.28260294 -0.29001322 -0.26969707 -0.11320657 0.105427876 0.02752693 -0.15787086 0.019879157
0.17032613 -0.19914761 -0.0766762 -0.20071316 0.054603837 0.052883692 0.05812595 -0.07345649
-0.117609456 -0.09083671 0.3064227 -0.055176497 0.009612517 -0.41454166 0.007945179 -0.07354507
0.1556905 0.43338767 0.21081573 0.18323337 0.0071814843 -0.15919313 0.051700495 -0.16839518
-0.07685134 0.030815484 -0.3612708 0.31149584 -0.1611233 0.11721295 0.11033433 0.19434917
-0.018946629 0.14158018 -0.19304776 0.31383067 0.07872496 -0.10567758 -0.0876941 0.15361886
-0.32031018 0.031850457 0.17859104 -0.004592043 0.15993619 -0.014126012 -0.008323996 0.0019027028
0.13146888 -0.04436259 0.036413267 0.10159015 0.005440204 0.17860195 0.16771796 -0.08573249
-0.019367423 -0.18765593 -0.0450759 -0.11928926 -0.07826329 0.2582134 0.055622816 -0.02677272
-0.16515104 -0.21852708 -0.06481477 0.44472364 -0.030059068 -0.12444518 0.14914188 -0.08382501
-0.23680001 -0.19139501 -0.041991383 0.13408759 0.06803063 0.053568933 -0.18295042 0.18165585
-0.006374766 0.10498936 0.017384958 0.08269918 0.15503976 -0.0066299997 0.0189817 -0.07183765
-0.1908615 0.058090843 -0.046130717 0.0154661 -0.0356032 0.10211474 -0.005419464 0.025462274
-0.105438456 0.06972576 -0.12549235 -0.03324492 0.09935431 -0.19698939 -0.21541512 -0.05481854
0.14927614 0.08260333 0.017443765 0.13500963 -0.009098249 -0.30771205 -0.012865341 -0.15332817
0.08784853 -0.013673296 0.1840858 0.18592481 0.1492562 0.35282862 -0.040847756 -0.0912475
0.099979445 -0.0022572677 -0.05779786 0.15850547 0.046022 0.25346887 0.6185608 0.00094367703
-0.051699378 -0.028625501 0.052076194 0.20895873 -0.4475955 0.1373666 0.023649134 -0.01114967
-0.17624512 0.095443346 0.1759789 0.12798236 -0.026137173 0.41432023 -0.094144195 -0.006721898
-0.2247029 0.14876722 0.0036546558 -0.0048189578 -0.014418305 0.31874222 0.026633902 -0.14247786
-0.24717347 0.11636216 -0.0136791775 0.06553934 0.07720242 0.20084003 0.012319155 0.11796711
0.11132741 -0.0072190906 0.24217178 -0.013488778 -0.14007324 -0.026387788 -0.08316155 0.3002469
00000000: 9dd4 6a3d 8a73 8d3e 6d42 71bc 7d5c b4ba
00000010: 21fb 0b3d 21a6 623e 3881 85be 24f2 f23d
00000020: 33a4 133e a7ab 94be 28b8 833d 2bc5 3abc
00000030: 271f 503e 5592 0e3e 95f2 0e3e 3e4f b1bc
00000040: ee92 8d3e a054 0f3e 60c9 60bd c85a 113e
00000050: 9cde f33c 48f4 97be 4175 74be 7f58 28bd
00000060: d186 e0bd 3b70 fe3c e373 1fbe 5fa3 983e
00000070: 5d5d 13be 6a4a babc 3990 b43e ed79 b9bd
00000080: ddc1 503e 1de3 01be 98ee b73c 4ec9 b6bd
00000090: 4f6e d0be 0e4b ff3d 3923 febd 8a59 11be
000000a0: bbd2 11be c42e 223d 5a6e 083d 3a90 3d3d
000000b0: ee13 cdbd 326b fbbc 0d65 a2be 068e 8cbe
000000c0: 5b34 19bd a3fa d8be 96eb 283d 478d 8e3e
000000d0: 0a36 a3bd 5069 c5bd ddbd 9f3e 0e3a 77be
000000e0: 88ae bcbc e74b bc3d cae6 a0bd 5514 5d3d
000000f0: 61a5 f23d 30ce b93e 213a d8bd 74fd 43bd
00000100: d3be 87bd 4b86 6a3d 711f 953d 350f 35be
00000110: 9f04 8f3e a35f 8fbe a80a febd f83d eabd
00000120: e5e5 8dbe 9955 b83d 5e79 f33d cde8 8b3d
00000130: fb2d 833e 8ceb 16be 489e 57be c03c b73b
00000140: 55b1 903e 9d7c 94be bc15 8abe d9d8 e7bd
00000150: 92ea d73d 2880 e13c e6a8 21be 9dd9 a23c
00000160: f969 2e3e 5aed 4bbe 6908 9dbd c087 4dbe
00000170: 46a8 5f3d 929c 583d 7a15 6e3d 5b70 96bd
00000180: 3add f0bd 9908 babd 70e3 9c3e c000 62bd
00000190: d27d 1d3c ce3e d4be 7f2c 023c cc9e 96bd
000001a0: 556d 1f3e fde4 dd3e 14e0 573e 87a1 3b3e
000001b0: a852 eb3b 8603 23be e6c3 533d c96f 2cbe
000001c0: 3c64 9dbd c170 fc3c 7cf8 b8be 627c 9f3e
000001d0: 82fd 24be 580d f03d f7f6 e13d 7803 473e
000001e0: f635 9bbc 65fa 103e 50ae 45be 6aae a03e
000001f0: 8d3a a13d 7d6d d8bd f798 b3bd 434e 1d3e
00000200: b2ff a3be a075 023d 92e0 363e d978 96bb
00000210: 50c6 233e ca70 67bc 5f61 08bc 1d64 f93a
00000220: c79f 063e 8cb5 35bd 1426 153d 7f0e d03d
00000230: bd43 b23b 6ee3 363e 42be 2b3e 8494 afbd
00000240: 6ea8 9ebc e028 40be 82a1 38bd ed4d f4bd
00000250: 8148 a0bd 8c34 843e c0d4 633d 7752 dbbc
00000260: 5b1d 29be 90c5 5fbe 9bbd 84bd d1b2 e33e
00000270: 6f3e f6bc 1ddd febd a6b8 183e 72ac abbd
00000280: b47b 72be 0efd 43be 28ff 2bbd 424e 093e
00000290: a553 8b3d 196b 5b3d 5b57 3bbe fe03 3a3e
000002a0: 6ae3 d0bb a904 d73d e66a 8e3c 305e a93d
000002b0: bec2 1e3e 7840 d9bb 837f 9b3c 9e1f 93bd
000002c0: 3271 43be aaf0 6d3d 90f3 3cbd 8665 7d3c
000002d0: a9d4 11bd 8821 d13d c295 b1bb 4296 d03c
000002e0: 1ef0 d7bd 61cc 8e3d 1181 00be d32b 08bd
000002f0: 467a cb3d 96b7 49be c895 5cbe 6889 60bd
00000300: d8db 183e ef2b a93d 3ae6 8e3c f73f 0a3e
00000310: d210 15bc 6f8c 9dbe 27c9 52bc 0f02 1dbe
00000320: eee9 b33d f605 60bc fd80 3c3e 1363 3e3e
00000330: 9ed6 183e f4a5 b43e fa4f 27bd f8df babd
00000340: 06c2 cc3d abee 13bb 73bd 6cbd 424f 223e
00000350: 9181 3c3d acc6 813e 005a 1e3f 1861 773a
00000360: bac2 53bd 0780 eabc d94d 553d 47f9 553e
00000370: 3d2b e5be d4a9 0c3e d4bb c13c 1bad 36bc
00000380: 9a79 34be cd77 c33d d033 343e cf0d 033e
00000390: a01d d6bc c821 d43e acce c0bd 5e43 dcbb
000003a0: 8418 66be 6f56 183e f382 6f3b 59e8 9dbb
000003b0: c13a 6cbc 2e32 a33e 572f da3c b7e5 11be
000003c0: 0b1b 7dbe 494f ee3d a11e 60bc 7d39 863d
000003d0: 4d1c 9e3d 02a9 4d3e 48d6 493c bd98 f13d
000003e0: a0ff e33d 1f8e ecbb e1fb 773e 0900 5dbc
000003f0: 5c6f 0fbe 342b d8bc 9a50 aabd f6b9 993e

conv2.bias f4 [128]
-0.022234088 0.002777416 -0.0024554555 -0.013665709 -0.00058518484 0.041353192 0.018158643 -0.0044052927
-0.0011125838 -0.0018556002 -0.028876718 0.019370204 -0.0015524299 -0.0056723305 -0.010520949 0.012204613
0.014119133 0.0037877853 -0.008921238 -0.0054870043 0.008466781 -0.011511163 0.0028620744 -0.007749375
0.0071800887 0.010874446 -0.0076171868 -0.0027708036 0.0017308698 -0.013942667 -0.0036163365 -0.0053958264
0.014301966 -0.023914436 0.022450704 0.009868002 -0.009321485 0.021798946 -0.006747488 0.013731655
0.00015209001 0.007526013 0.014149096 0.00034014057 0.023463663 -0.003939554 0.0068091815 -0.008096746
-0.006531018 -0.014698851 0.010318014 0.0015302012 -0.0028370759 -0.0042622867 -0.0017349526 0.017103259
-0.006581319 -0.014454634 -0.010075102 0.005164837 0.0041825776 0.004039301 0.010944929 -0.01603145
0.0010270657 0.000777787 -0.000104867264 0.005127812 -0.008674102 0.0070722597 0.0032051497 0.013285876
-0.016135301 0.004710572 0.018376615 0.008651242 -0.022693804 -0.011684579 -0.017117523 0.010141948
0.011647083 -0.011965193 -0.022000268 -0.0015298461 0.0034847828 -0.0032615082 -0.019170173 0.0008805461
-0.0059656226 0.009158963 -0.006853529 -0.009007065 -0.0037232751 -0.0041813767 -0.014843094 -0.020301256
-0.00010663357 0.00777432 0.0021730235 -0.0024710842 0.0096092 -0.006316192 -0.0026069032 0.0055938163
-0.018980244 0.005683252 -0.0012168488 0.017382821 0.0014221332 -0.013190489 0.0054116934 -0.0021682978
-0.0034458146 -0.010894288 -0.012463424 0.0034652227 -0.0122712925 0.015312342 0.009652823 -0.0020807055
0.0040494814 0.012258793 0.013341308 -0.015855724 -0.007186328 0.0011752719 0.0029320517 -0.004345012
00000000: 4324 b6bc 4f05 363b b5eb 20bb 23e6 5fbc
00000010: 1767 19ba f761 293d 6fc1 943c 465a 90bb
00000020: 1ed4 91ba 9c37 f3ba de8e ecbc 43ae 9e3c
00000030: e77a cbba f5de b9bb 0f60 2cbc dbf5 473c
00000040: f053 673c 7e3c 783b 622a 12bc 54cc b3bb
00000050: 41b8 0a3c 5199 3cbc a491 3b3b 78ee fdbb
00000060: f346 eb3b bb2a 323c 9899 f9bb 5f96 35bb
00000070: 5ade e23a c96f 64bc 0f00 6dbb 79cf b0bb
00000080: cb52 6a3c 35e8 c3bc 8aea b73c 66ad 213c
00000090: 24b9 18bc b493 b23c 081a ddbb bcfa 603c
000000a0: 5a7a 1f39 c69c f63b 9cd1 673c e554 b239
000000b0: de36 c03c 6017 81bb 8e1f df3b 37a8 04bc
000000c0: 2602 d6bb 73d3 70bc e30c 293c 0891 c83a
000000d0: 3cee 39bb a7aa 8bbb 5967 e3ba 221c 8c3c
000000e0: 1ba8 d7bb 21d3 6cbc 0a12 25bc cb3d a93b
000000f0: 010e 893b 1d5c 843b 5c52 333c 6354 83bc
00000100: 9b9e 863a 67e4 4b3a 2fec dbb8 3407 a83b
00000110: d21d 0ebc 6abe e73b 7d0d 523b 01ad 593c
00000120: 2e2e 84bc 245b 9a3b 8e8a 963c f0bd 0d3c
00000130: 5be8 b9bc ad70 3fbc 0c3a 8cbc 6a2a 263c
00000140: 68d3 3e3c a809 44bc e839 b4bc 1e85 c8ba
00000150: f460 643b 07bf 55bb c40a 9dbc 73d4 663a
00000160: 457b c3bb 7a0f 163c 9193 e0bb 5e92 13bc
00000170: 3102 74bb ee03 89bb 7330 73bc d24e a6bc
00000180: 76a0 dfb8 b9bf fe3b 4969 0e3b eaf1 21bb
00000190: e86f 1d3c 0ff8 cebb 94d8 2abb 554c b73b
000001a0: 757c 9bbc 933a ba3b ac7e 9fba 6b66 8e3c
000001b0: df66 ba3a ec1c 58bc 9354 b13b 001a 0ebb
000001c0: 2dd3 61bb f57d 32bc 6433 4cbc ca18 633b
000001d0: 880d 49bc 9ee0 7a3c e026 1e3c 725c 08bb
000001e0: 83b1 843b 1bd9 483c 8095 5a3c dde3 81bc
000001f0: 4a7b ebbb 950b 9a3a aa27 403b 9a60 8ebb

conv2.lin.weight f4 [128, 128]
-0.040076084 0.20991184 -0.136075 -0.28308824 0.24383608 0.0064818664 0.24789841 -0.047872223
-0.062358204 -0.04807647 0.10479239 -0.04030719 0.08786595 0.029557062 -0.121170215 0.15404657
0.16763417 -0.13364045 -0.2817255 0.11020535 0.09237066 0.24072231 -0.15939304 0.19908671
0.07734166 -0.11475782 0.10393797 -0.15588784 0.21166185 -0.23074742 0.12523872 0.08443541
0.200198 -0.14754587 0.0064219474 0.01364149 0.023087343 0.15555906 -0.11623676 0.046965655
0.0510905 0.20990823 0.00047252746 0.07496519 0.13645728 -0.077677496 0.23634118 -0.048907492
0.14995947 -0.09518949 0.1381257 -0.1522037 0.12564471 0.270839 0.28796607 -0.12204041
-0.101119325 -0.015089066 0.21448642 0.048997875 -0.17427273 0.20739368 0.15642877 -0.0031673398
0.21920782 0.100378126 0.024263576 0.2673746 -0.18223764 -0.1122152 0.21056288 -0.17535537
0.16587369 -0.24954334 -0.0017470289 -0.08325022 0.017214589 -0.100125626 -0.1033605 0.118094586
-0.06438361 -0.027227761 -0.06133498 -0.15690349 0.031695712 0.17190844 0.43349978 0.2969729
0.11732379 -0.18222177 -0.026512058 -0.009708392 -0.09338719 -0.21599779 -0.096579626 0.11120788
0.06090505 -0.2125857 -0.10257172 -0.11373147 0.05967783 -0.06777031 -0.16413805 0.18839625
-0.11036375 0.12428647 -0.057030287 0.20829487 -0.3815484 0.058305703 0.10930397 -0.32671767
-0.23355095 0.032803603 -0.3203732 0.15863882 -0.016260106 0.22776102 0.069636896 -0.16177924
-0.11469826 -0.08641018 0.025775917 0.3210021 -0.029935764 0.051211245 -0.02648476 0.08082713
0.23226833 -0.21304768 -0.1151293 -0.13318327 0.24722975 -0.20405217 -0.015097652 0.42828998
-0.09742795 0.046493888 0.122938596 -0.07434483 0.18092811 0.048286643 0.282705 0.17457893
0.13536799 0.091212675 -0.08192687 -0.072022855 0.04162337 -0.1329357 -0.24793077 0.39749748
0.15478285 -0.017868651 -0.11819733 0.0036187018 0.1594689 -0.24318999 0.29491717 -0.06848994
0.44919172 0.2337802 -0.052246217 0.117498934 0.13136579 -0.10132981 0.07845196 0.008772887
0.0795461 0.109613486 0.17521912 0.26537475 0.33176354 0.32182777 0.25800848 -0.16153358
-0.09118588 -0.0063886833 -0.07531425 0.12610498 0.05833774 0.06551828 0.09962282 -0.14835607
0.24440524 0.055031534 0.15241821 -0.13780315 0.2130082 0.13369422 -0.049770664 0.18049614
0.038635053 -0.1235913 0.12390933 -0.14630188 0.27962872 0.0044947756 -0.10824627 -0.007811789
0.22133969 -0.3942988 0.11470233 -0.26556128 0.27819735 0.029427916 0.2446122 0.084725276
-0.10220679 -0.08022175 0.15370147 -0.1293817 -0.07877779 0.105109274 -0.21811888 0.07514401
-0.13321276 0.14871888 0.053326946 -0.047111515 0.3255843 -0.034015965 -0.043234702 0.16944651
0.17075841 0.0144932205 -0.09859274 0.01674569 0.024611369 -0.08845538 0.32476234 0.015158644
0.14808923 0.48567384 0.5383562 0.19767077 -0.18507779 0.009256757 -0.02614743 -0.3076166
0.25502738 -0.050452992 0.12474834 0.09028932 0.11251628 -0.06275172 0.032767285 -0.011186697
0.078814365 0.034823995 0.038644817 -0.020318273 0.12733068 0.014509767 0.038361084 -0.016267575
00000000: d226 24bd 21f3 563e 3f57 0bbe f1f0 90be
00000010: 2ab0 793e d665 d43b 15d9 7d3e aa15 44bd
00000020: 516b 7fbd d5eb 44bd 649d d63d 2719 25bd
00000030: 10f3 b33d a721 f23c 1728 f8bd 62be 1d3e
00000040: 4ba8 2b3e 0bd9 08be 533e 90be 58b3 e13d
00000050: d42c bd3d e97f 763e ee37 23be 63dd 4b3e
00000060: 4e65 9e3d 2606 ebbd 6edd d43d 10a1 1fbe
00000070: e2bd 583e 0d49 6cbe 943e 003e 79ec ac3d
00000080: b400 4d3e 4416 17be 336f d23b 8e80 5f3c
00000090: ab21 bd3c e04a 1f3e 8a0d eebd 0f5f 403d
000000a0: 4644 513d 2ff2 563e 90bd f739 5987 993d
000000b0: 75bb 0b3e 6115 9fbd 6c03 723e 3953 48bd
000000c0: fa8e 193e b5f2 c2bd d370 0d3e 49db 1bbe
000000d0: 02a9 003e 69ab 8a3e 4a70 933e 53f0 f9bd
000000e0: a617 cfbd 2138 77bc 54a2 5b3e ffb1 483d
000000f0: 8d74 32be 025f 543e dd2e 203e 2593 4fbb
00000100: 0478 603e 0c93 cd3d 68c4 c63c 53e5 883e
00000110: 819c 3abe 15d1 e5bd cc9d 573e 5c90 33be
00000120: cbda 293e 4a88 7fbe 90fc e4ba 177f aabd
00000130: 9c05 8d3c aa0e cdbd abae d3bd 93db f13d
00000140: 8edb 83bd c10c dfbc 633a 7bbd 4fab 20be
00000150: 5dd3 013d c408 303e aff3 dd3e d50c 983e
00000160: 7547 f03d 5898 3abe d12f d9bc f30f 1fbc
00000170: c841 bfbd 862e 5dbe 8acb c5bd f5c0 e33d
00000180: 9377 793d 11b0 59be 1f11 d2bd 0cec e8bd
00000190: be70 743d 29cb 8abd ce13 28be f2ea 403e
000001a0: 6406 e2bd e889 fe3d 9798 69bd 404b 553e
000001b0: 505a c3be f6d1 6e3d c3da df3d 8a47 a7be
000001c0: fb27 6fbe 125d 063d f507 a4be 3772 223e
000001d0: ea33 85bc 2f3a 693e ca9d 8e3d 75a9 25be
000001e0: ece6 eabd d2f7 b0bd 0428 d33c 635a a43e
000001f0: d93b f5bc e2c2 513d 91f6 d8bc b288 a53d
00000200: c0d7 6d3e 2c29 5abe e9c8 ebbd 3261 08be
00000210: cc29 7d3e 0df3 50be 245c 77bc d348 db3e
00000220: 4e88 c7bd 6070 3e3d 3bc7 fb3d 1a42 98bd
00000230: 3845 393e 37c8 453d b6be 903e d2c4 323e
00000240: e89d 0a3e b6cd ba3d 46c9 a7bd b880 93bd
00000250: 447d 2a3d 4c20 08be 90e1 7dbe ca84 cb3e
00000260: 657f 1e3e 4761 92bc 7111 f2bd be27 6d3b
00000270: d14b 233e cc06 79be 62ff 963e 7444 8cbd
00000280: 75fc e53e 1464 6f3e 2100 56bd 48a3 f03d
00000290: c184 063e 0186 cfbd 6cab a03d 28bc 0f3c
000002a0: 11e9 a23d 097d e03d a46c 333e 33df 873e
000002b0: e9dc a93e 9cc6 a43e b019 843e 0f69 25be
000002c0: aabf babd 2958 d1bb 5c3e 9abd aa21 013e
000002d0: 8ef3 6e3d 732e 863d 0d07 cc3d a7ea 17be
000002e0: 5e45 7a3e bf68 613d 8513 1c3e 451c 0dbe
000002f0: d21e 5a3e 23e7 083e 53dc 4bbd fbd3 383e
00000300: ca3f 1e3d 6f1d fdbd 2dc4 fd3d 29d0 15be
00000310: 7f2b 8f3e e948 933b 38b0 ddbd 09fa ffbb
00000320: dfa6 623e 88e1 c9be 0ee9 ea3d a6f7 87be
00000330: e26f 8e3e d012 f13c 9f7b 7a3e 7284 ad3d
00000340: cb51 d1bd 4d4b a4bd eb63 1d3e a37c 04be
00000350: 4056 a1bd 8843 d73d 8e5a 5fbe 1ae5 993d
00000360: ed68 08be c349 183e 5b6d 5a3d 01f8 40bd
00000370: fcb2 a63e 5354 0bbd df16 31bd 6383 2d3e
00000380: 4bdb 2e3e f974 6d3c feea c9bd 422e 893c
00000390: c89d c93c 1828 b5bd 4047 a63e f65b 783c
000003a0: b4a4 173e 3eaa f83e b6d1 093f 356a 4a3e
000003b0: 0885 3dbe a7a9 173c 2333 d6bc ec7f 9dbe
000003c0: f392 823e cca7 4ebd 0f7c ff3d 9be9 b83d
000003d0: ef6e e63d f983 80bd fd36 063d 6848 37bc
000003e0: 6d69 a13d 9ba3 0e3d 074a 1e3d 8272 a6bc
000003f0: f962 023e 60ba 6d3c 8320 1d3d 9443 85bc
