pretrained_gnns/Amazon-ratings_SimGRACE_GCN_1.pth (torch, 222592 bytes, 4 tensors)

conv1.bias f4 [128]
00000000: 2d8b a63c d4ac 9b3c 6d0d 1a3c 4230 543c
00000010: dbc7 5bba ce00 0f3b b7ed 113b ed28 e43b
00000020: c4d2 f33c 94f2 223c f78d 8b3c f24d 133c
00000030: b8ea 1ebb 8354 923c 05bd db3b a49b 5b3c
00000040: 87c5 9d3c 5cca 0e3c badc 833c f457 5d3b
00000050: 9c66 a63c d98c 2e3c 2be5 4b3b 8737 c03b
00000060: dc1c 75bb e3d4 7c3b 3cce a63c 5193 ba3c
00000070: bcb4 273b cacf e0bc 2af7 243c 5bcc 2e3c
00000080: cbd6 fa3b 9525 b73c b247 5e3c 3754 65bc
00000090: b4fd 883b 3778 643c 70bd 2f3c 1207 5d3b
000000a0: 799c cb3c df8e 7f39 b307 42bb 3c70 813c
000000b0: 14af a33a 3ec5 d93a 9474 b53b 0ed1 d03b
000000c0: 41e2 7fba 3e1b 2f3c 6efc 923c 2a8d 243c
000000d0: cd3e e13b 7849 0a3b 558b 083b a679 843c
000000e0: 8ccb 903c a700 963c b1b3 613c ee9d 3c3c
000000f0: bedc 193c 8c6e 6d3c 9d09 433c 0fa8 413c
00000100: b60e 9ebc 67a9 1e3b 14a0 943b 7d97 04bc
00000110: d6ef 3db9 6848 3c3c 8741 dc3b deb7 68bc
00000120: 3e83 ca3b 2149 153d b37f e53b d0b1 d5bc
00000130: acf0 5f3c 1e72 5b3c e1b7 f93a 7c1b b73c
00000140: f36c 253c 7bab e5ba 5715 583c 80f0 323c
00000150: 16df 853c 4b18 7cbc 7b27 213b 5c0f f03b
00000160: 848b 4c3c b4b5 193c 9c68 873c efc0 823c
00000170: 696f 0f3b b3ea 723c 9b90 5f3c 38b3 823c
00000180: 7fd3 fd3b b7f7 f53b 417b f23b c29e e03b
00000190: 2e11 553b a784 bb3b bc61 8a3b eaa8 ba3b
000001a0: 7ee0 a83c 2c1f 963a 3e0c 363c 4a15 b63b
000001b0: a30d 11bb 6849 8339 1709 213d ed7a b63c
000001c0: 5760 3abd c5e3 f13c f88d 9a3b 1810 893b
000001d0: f69c edba 5f1c 95bc 6061 c1ba e33f b73c
000001e0: c857 dbba 484e e7bb be24 9b3b c0d2 a9bb
000001f0: 5d5b 503b 42a7 c73b 523a 5abc 3a2d ba3b
0.020330036 0.01900331 0.009402615 0.012950959 -0.0008383968 0.0021820548 0.0022266933 0.0069628865
0.029763587 0.00994553 0.017035468 0.008990752 -0.002424879 0.017862564 0.0067058825 0.013403807
0.019259227 0.008715238 0.016096462 0.0033774348 0.0203126 0.010653698 0.0031111937 0.0058659944
-0.0037401235 0.0038579039 0.020362012 0.022775324 0.0025589904 -0.027442832 0.010068694 0.010668839
0.007655 0.022356788 0.013566898 -0.013997129 0.0041806344 0.013944677 0.010726318 0.0033726138
0.024854885 0.00024371919 -0.002960664 0.015800588 0.001248809 0.0016614569 0.005537579 0.0063725775
-0.00097611925 0.010687647 0.017942633 0.010043422 0.0068739415 0.002110092 0.0020835001 0.016171288
0.017675184 0.018310858 0.013775752 0.011512263 0.009391008 0.014491688 0.011904147 0.011819853
-0.019294124 0.0024209858 0.0045356844 -0.008092758 -0.0001811379 0.011491872 0.0067216787 -0.014203994
0.006180196 0.036446694 0.0070037483 -0.026085764 0.0136682205 0.013393907 0.0019051993 0.022351973
0.010096776 -0.0017522419 0.013188682 0.0109215975 0.016341727 -0.015386651 0.0024590183 0.0073260497
0.012484435 0.0093817 0.016529374 0.015961139 0.0021886474 0.0148264645 0.0136453165 0.015954599
0.0077461596 0.0075063366 0.007399947 0.006854863 0.003251146 0.0057226005 0.0042230766 0.0056964057
0.020614859 0.0011453382 0.011111317 0.005556737 -0.0022133372 0.0002504096 0.03931531 0.022275412
-0.045502033 0.029527554 0.004716631 0.0041828267 -0.0018128443 -0.018202005 -0.0014753751 0.02236933
-0.0016734535 -0.0070588924 0.0047346046 -0.005182594 0.0031792738 0.0060929367 -0.013319569 0.005681661

conv1.lin.weight f4 [128, 300]
00000000: f692 9e3d 8708 713a acf5 72bd cd5f a4bb
00000010: c226 ad3a 3bef a73d 8842 1ebe 969b d2bd
00000020: 8caf 88bd 621c e6bd 7c4a d03d ffef 43bd
00000030: becf 893e 735b 053e b125 fc3d a125 91bd
00000040: b6ee 21be 67d1 973d 8f09 edbc b1bd 88bd
00000050: bc4e fa3d b4af b8bd e71f cf3d 34c3 c23d
00000060: c434 073d 30ee 8e3d a71d 0a3c bebf 913d
00000070: 90c7 a13d 754e 41bd def3 d43d 7806 53be
00000080: db0e d0bd 4d4b ecbd 42a0 ce3d 86ea 3dbe
00000090: 6fd2 e7bc b2b4 923d 473d a2bc 4fba f0bd
000000a0: 62ca 35bd 914c 713b 8854 1abd 1b5a a13d
000000b0: d078 05be 5fce a2bd ff76 22bb 4366 21bd
000000c0: 864e 6ebb 1906 2ebe bed0 e63c ae29 2bbd
000000d0: d18e 383d 5cdb 8ebd 353d 383e f581 47be
000000e0: a104 073c 6571 34bd a197 01bd 9330 2b3e
000000f0: 8a06 7f3d dd0e b13c 7788 5dbc 9b9c 87bc
00000100: 40ee afbd a759 1b3e f4f3 d73d f022 b8bd
00000110: d6db bc3d 5d3d c0bd 86a7 ec3a 54f4 0fbe
00000120: 4b99 09be 85d8 92bc 094d a43d 989c 9c3d
00000130: f314 123c e316 00be 4bc6 b5bd bf62 8cbd
00000140: 707a b13d 96b7 dbbd 48fd f9bb 6d5c 9dbd
00000150: 876b ba3d 8cb2 11be daf5 ddbd 21c5 033e
00000160: 88fa febd 0d15 9abe b436 e7bd 9484 01be
00000170: 2e89 ce3d 387b 57bd 8c52 b3bc dc5f 003d
00000180: 5e9e e1bd d8d9 033c dae8 e5bd faea 0abe
00000190: a50e 1dbd 67b6 d8be 6b44 a6bd 0bc1 07be
000001a0: 898c 213e fd5c 1d3e 32a5 54bc bb59 0b3e
000001b0: db2b f3bd 5f8d bf3d 90b1 053e d842 b4be
000001c0: 0d82 633e c3fc 573d ca4a acbd 295f 8b3d
000001d0: b3ac e6bb 6163 723d b2e9 bf3c c56c c63d
000001e0: 8d71 233e e945 573e dd74 543d 8cca 98ba
000001f0: 7c25 80bd 339c d7bd 8db3 0abe e340 d13d
00000200: 23ee 34bd 25a1 e13d 77f5 553e fcd9 113c
00000210: 9643 77bd b22b 733d f907 dcbd 1974 1dbd
00000220: 534e b03d 1b37 803d 7d4b e2bc 7d06 463e
00000230: 5355 30bd 1a6f 0d3e 52a2 15be cd96 6bbc
00000240: badb a1bd d250 19be df5e 50bc 15cb 68bc
00000250: 6315 61be e5ff a83e d738 603d 89d9 38be
00000260: 4647 313d 7d29 013c b810 233e d5eb 7e3d
00000270: 4b31 35bd a976 f4bd f322 803b f9bb c0bd
00000280: 7c22 11be 40a9 0f3e 16c3 a63c aff6 1dbb
00000290: 2c1d 423d 587e f9bb bf36 003e bfd2 d9be
000002a0: 9e49 7b3c ab87 e3bd fb67 c9bd 0a0a 603d
000002b0: 6ca3 1abe 8829 9bbd b6a8 893d df10 d93d
000002c0: 2a9f 9bbd 6097 99bd 8c43 633e 1a69 cb3b
000002d0: 0020 0abe 9cd6 813d db27 753e 0ee8 e83d
000002e0: f46b af3d 3919 25bd f7c9 6f3d c756 69bd
000002f0: 7123 013e 7125 603e 4362 58bd 94dc 75bc
00000300: c474 90b9 022c 47be 06e7 bdbd 7db0 36be
00000310: 378e 1cbe 255f b4bd 9faf 173d a6a0 3bbd
00000320: 9b8f b9bc e179 97bb f14e c4bc 6b07 103e
00000330: 048a bcbd c49a 953e c087 98bd 5124 24bd
00000340: 0dde 0d3e 676f 6ebd 20c2 1ebe 2af4 63bd
00000350: 782e c83c 7fc1 e93d 3e30 803d 0ced b9bc
00000360: e99f d93d dd66 443d 6ad3 75bd 16ef af3d
00000370: bf5e 41be a65e efbd 28ae 553d 7987 daba
00000380: 2601 7cbe 522b dabd 5cb0 723d 7678 133d
00000390: 196d cbbc 8237 b33d 6490 d13d dc5a c0bd
000003a0: 8308 ae3d 29d9 bfbb f13b 42bc 9429 1c3e
000003b0: 669a 95bc cf5c d23b 7587 363d c1ac 8d3b
000003c0: bba1 16bd b6ca b63d 7484 973c 3dd5 9e3d
000003d0: 3b73 713d 1389 493e b7ec 01be bda6 a33c
000003e0: eba0 b7bd bce5 c53d ad2d ce3d 2cff 1a3e
000003f0: f5e1 44bd 4570 2fbe e403 c03d 26ba eb3c
0.07742874 0.0009194691 -0.059316322 -0.005016303 0.0013210403 0.081999265 -0.15455067 -0.10283582
-0.06674108 -0.11235882 0.10170457 -0.0478363 0.26916307 0.13023166 0.123118766 -0.07087255
-0.15813717 0.07412987 -0.028935222 -0.06676806 0.12222049 -0.09017888 0.10113507 0.09509888
0.033009306 0.069790244 0.008429921 0.0711665 0.07899392 -0.047193963 0.103980765 -0.20607936
-0.101590835 -0.115378 0.100891605 -0.18546495 -0.028298585 0.07163371 -0.01980461 -0.117542855
-0.04438246 0.0036819319 -0.03767827 0.078785144 -0.13034368 -0.079495184 -0.0024790165 -0.039404165
-0.0036362722 -0.16994514 0.028175708 -0.041787796 0.045058075 -0.06975433 0.17992099 -0.19483168
0.00824085 -0.044053454 -0.031638745 0.16717748 0.062262096 0.021613533 -0.013521305 -0.016554167
-0.085903645 0.15170918 0.10544577 -0.08991039 0.09221618 -0.09386704 0.0018055297 -0.14058048
-0.13437383 -0.01792551 0.08022506 0.076470554 0.0089161275 -0.1250873 -0.08875712 -0.06854772
0.08665931 -0.107283756 -0.0076290704 -0.076836444 0.091025405 -0.14228266 -0.10837908 0.12868167
-0.12450129 -0.30094185 -0.11289731 -0.12648231 0.10084759 -0.052607745 -0.021889947 0.03134142
-0.11016534 0.0080475435 -0.112260535 -0.13566199 -0.038344044 -0.42326662 -0.081185184 -0.13257234
0.15776266 0.15367503 -0.012978839 0.13608448 -0.11873599 0.09353136 0.13056016 -0.35207248
0.22217579 0.052731287 -0.084127024 0.0680526 -0.0070396303 0.059176806 0.023426864 0.09688715
0.15961285 0.21022762 0.051869262 -0.0011657043 -0.062571496 -0.105278395 -0.13545056 0.10217454
-0.044172417 0.11017064 0.20894419 0.008902069 -0.06036719 0.059367843 -0.10743708 -0.038440797
0.08608689 0.062605105 -0.027623886 0.19338413 -0.04305012 0.13811913 -0.14612702 -0.014379215
-0.07903238 -0.14972237 -0.0127179315 -0.014208575 -0.21980815 0.33007732 0.054741707 -0.18051733
0.043280862 0.007883427 0.15924346 0.062236626 -0.044236463 -0.11936695 0.0039104163 -0.09410853
-0.14173311 0.14029408 0.020356696 -0.0024103334 0.0473911 -0.0076139383 0.12520884 -0.425436
0.015337376 -0.11109861 -0.09834286 0.054697074 -0.15101403 -0.07576281 0.06721632 0.10598921
-0.075987175 -0.074995756 0.22193736 0.0062075974 -0.1348877 0.063397616 0.23940985 0.11372386
0.08565512 -0.040307257 0.058542218 -0.056967523 0.12611176 0.21889283 -0.052828085 -0.015006203
-0.00027552817 -0.19450381 -0.0927258 -0.17840762 -0.15288626 -0.0880721 0.03703272 -0.045807503
-0.022651484 -0.0046226834 -0.023963423 0.1406533 -0.09206012 0.2921964 -0.07447767 -0.040073697
0.13854237 -0.05821171 -0.1550374 -0.055652775 0.02443622 0.114138596 0.062592015 -0.02269604
0.106262036 0.04794966 -0.060016073 0.08590524 -0.18883799 -0.11687975 0.05216804 -0.0016672454
-0.24609813 -0.10652794 0.05925022 0.036003552 -0.024832295 0.08750822 0.102326185 -0.0939233
0.08497717 -0.005854745 -0.011855111 0.15250236 -0.0182621 0.006419755 0.044562776 0.0043235724
-0.036775332 0.08925383 0.018495776 0.07755516 0.058947783 0.19681196 -0.12687956 0.019976968
-0.089662395 0.09662959 0.10067306 0.15136403 -0.048067052 -0.17132671 0.09375742 0.028775286

conv2.bias f4 [128]
00000000: 381e 16bc dd9e ccbc 094b 00bb bb38 303c
00000010: 9baa c03a 973e eb3c e58f fa3b 7992 97bb
00000020: 50a7 9bbc 1d44 073d fa12 dfbc 7a0b 133b
00000030: e7cc 033d c197 8d3c 8e70 a43a 877f a1bb
00000040: 6a2f 8d3b 2bd7 c5bb 958d d5bc 030e 73bc
00000050: 83af c5bb 3270 0ebc c989 35bc fd67 0e3b
00000060: 7fb6 dc3c 5237 183c b4e8 b23a b2a3 adbc
00000070: 068c 363c 2ebc 15bd 3d0c 5e3c 8bf0 b13b
00000080: b0e4 733c 8a3c a4bb e15b e93b 2946 bc3c
00000090: 369b d73c dd8d da3c 968f 983c 53f1 883c
000000a0: dd1a 373c ca48 a23c d840 a03c f955 543d
000000b0: f4bd cc3c 2e28 293c 278c 0abc efe4 9dbd
000000c0: 17d4 61bc 5331 fa3c 00d4 743b 4db5 0dbc
000000d0: fabd 0f3d 68da ba3c 632f 263c f3a9 1f3d
000000e0: 4387 853b 3d9c 9c3b 341b c23b 8ee0 94bc
000000f0: b4d3 abb7 c4c2 01bc d112 5e3c b926 e2bc
00000100: 0c52 d13c 472a 5dbd 228d edbc 3206 5ebc
00000110: 1c37 3f3d c0a4 cf3b 7dbf 3b3d 5004 cb3c
00000120: e2c1 f8bc 6b5a 383d 4299 693c d924 f13c
00000130: 93e6 20bb d173 193c a6c4 ebbb be73 493c
00000140: efb1 ae3c ef5b 803c 101f 55bd 1e00 53bc
00000150: 7c92 403c 0347 f0bc ea72 be3a 2239 a13c
00000160: 4899 d93c 8835 853c 030f 9abc f757 24bc
00000170: f275 de3c 5aa8 993c 5b16 8ebc 34c1 eb3c
00000180: 09cc cebc 9b7e 0b3b 5819 c23c ee0f a03c
00000190: 5f6a 9a3c dc5c 96bc dde3 403d 9b95 4fbc
000001a0: 2381 bebc 1855 9cbc 8e2a 5b3d 5503 e53b
000001b0: 2d93 db3c 72b3 e83b 0804 b8bb cbcb 00bd
000001c0: ba5e c0ba c8aa 15bd 3f90 b33b 4004 6d3c
000001d0: e124 0b3c 979d 6c3c 522f 303c 1aa9 253d
000001e0: 9d27 c2bc 3f21 02bd d678 e6bc 8c63 153d
000001f0: f3ae 73bc a45e 8a3c baa6 a33c 3627 a93c
-0.009162478 -0.024978096 -0.0019575974 0.010755713 0.0014699282 0.028716369 0.007646548 -0.004625615
-0.01900068 0.033023942 -0.027230728 0.002243726 0.032177832 0.017284276 0.0012545751 -0.0049285325
0.0043086307 -0.006037613 -0.026068488 -0.014834884 -0.0060328855 -0.008693742 -0.011080214 0.0021729462
0.02694249 0.009290533 0.0013649673 -0.02119622 0.011141783 -0.036556415 0.0135527225 0.0054302863
0.014886066 -0.0050120996 0.0071215485 0.022982674 0.026319128 0.026678974 0.018623155 0.016716635
0.011175838 0.0198101 0.01956217 0.051839802 0.02499292 0.010324521 -0.0084562665 -0.07709681
-0.013783476 0.030541098 0.0037357807 -0.0086491825 0.035093285 0.022809222 0.010143134 0.038980436
0.0040749623 0.0047793672 0.005923653 -0.018173482 -2.048337e-05 -0.007919971 0.013554291 -0.027606355
0.025551818 -0.053995397 -0.028997961 -0.013551282 0.046683416 0.0063367784 0.045836914 0.02478233
-0.030365888 0.045008104 0.014257731 0.029436516 -0.0024551495 0.009365992 -0.007195073 0.0122956615
0.02132508 0.015668837 -0.052031577 -0.012878446 0.011753675 -0.029330736 0.0014530097 0.019680563
0.026562348 0.016260877 -0.018805986 -0.010030738 0.02715585 0.018757034 -0.017344644 0.02877865
-0.025243776 0.002128518 0.023693725 0.019538846 0.01884955 -0.018354826 0.047092307 -0.012669946
-0.023254937 -0.019083545 0.05350738 0.0069889226 0.026803577 0.0071014697 -0.005615715 -0.031444352
-0.0014676668 -0.036539823 0.005479842 0.014466345 0.008492679 0.014441869 0.01075347 0.04044447
-0.02370053 -0.031769987 -0.028133791 0.03647189 -0.014873254 0.016890831 0.019976962 0.02064858

conv2.lin.weight f4 [128, 128]
00000000: ffa1 013e ff55 243e 6bd3 c8bd 2105 36be
00000010: 368c f43d e549 9abd 18d7 f43d 5a22 c8bd
00000020: b43b 55bd 09a0 163c 5414 753c 4414 8ebc
00000030: 2987 373e 5cda 2f3e e76a c1bd 4552 873d
00000040: 4e5e 013d 5340 e9bc 3d0b e3bc 500a 8dbd
00000050: 42b5 ea3d 7909 333e 9906 953d ed62 d13d
00000060: b6dd ac3c df3b a9bd 1f51 77bb b679 9bbd
00000070: f8a0 ca3d 9a37 bcbd 2315 0e3b 1fd3 233e
00000080: 4e63 8c3d 96fc 11bd e128 c5bd fce7 9dbd
00000090: 9a3a 673d dfdd 863e f184 6ebe 9326 813d
000000a0: 8888 f6bd 19c5 343e 344a ebbd 6b9d 61bc
000000b0: aace 803c c8bc 70bc e30b 073e 7499 bdbc
000000c0: 6b60 d83d bdfe b4bd 26a9 e13d 3233 7bbd
000000d0: 25db 933d 60b5 3b3e 5209 4f3e da2d f33d
000000e0: 0e9d 0ebe 5444 e13d feee 443e d479 c63d
000000f0: d7d7 f8bd 26dd fa3d dbd2 3f3d 9c22 91bd
00000100: 911d 013e 32ba 0c3e cc1a e7bc 7dc9 493e
00000110: 2818 f1bd abc3 2abd 7c0b 263e 96d5 1bbe
00000120: 6ab1 c33d c309 273c c05f a7bc 42e1 32bd
00000130: 790e 49bc 88b6 21bd 7af4 3dbe 2d8f 8b3d
00000140: 1d54 3dbd 0e4c 88bd 25bd 88bd fddf febd
00000150: 795c b1bd 9160 ac3d 6a66 643e 7480 ca3d
00000160: 59ba 393e 295f 30be 8e60 cbbd 5c98 e0bd
00000170: 65f2 18bb e73c bfbd 54a0 88bd 3b25 5f3d
00000180: 5f30 07bd 160d 34be 0f70 b9bd b06a 16be
00000190: 2a3f 723d fd30 2dbd d61e adbd c081 2a3e
000001a0: 1d0a 06bb 20bd d63d 4989 93ba 7eee cbbc
000001b0: 38b9 43be 1f7e 333d efcf 553e d4a4 8cbd
000001c0: 40e9 eabd 1dc8 02be 5913 abbd 546e 2e3e
000001d0: 9b94 0abe f87b a13d b588 113e 33c5 02be
000001e0: bf6e 4dbc 26c1 04be cdfc aabd 4660 343e
000001f0: ab9c 70bc 15ed 8bbd bc57 60bd b7fa ba3a
00000200: 6e53 5bbd 7475 00be a23f 09be 202f cdbd
00000210: 3e2b 913d f27d 52bb d61d 01bd c8d9 143e
00000220: ab95 f7bd 8c1a f9bd 3091 a83c 5f87 d1bd
00000230: e30a 003e 5920 ee3b 23c0 ba3d 5871 a5bb
00000240: 44c6 563e 549e 023e 28c1 a7bd 99ed 24bd
00000250: d24d dc3d 289d 14be 9b37 80bc 2381 fb3d
00000260: 330b 003e a1f3 7ebd a9be 58be 0774 16bd
00000270: 1846 503e 8eea d1bd 91b7 1d3e 0891 eebd
00000280: 0e10 263e f4e5 363e 19b4 98bd f0e9 7d3c
00000290: d99b 9b3d 42e6 2ebe 56e0 9abc b498 04bd
000002a0: ab76 053e a924 e03a 7811 893c 6d9d 12bd
000002b0: 23ae 3e3e 651b 423e 7d5c 633d 31d6 1ebe
000002c0: fcfc 2abe d700 233a e169 433c dfad 133e
000002d0: 4ed3 823c 16d1 ddbb f478 543d 78d9 2abe
000002e0: 4f07 203e 4faa 8c3c dfb2 b13d 2447 d3bd
000002f0: b6e3 203c 45e2 943d 0682 0abe 23c0 0f3e
00000300: 82aa babc 01a0 8abd 2fa2 4f3b abd6 b4bd
00000310: 9b98 ca3d 2490 e9bc 8454 01be 5972 f6bd
00000320: 2978 163e 4bc1 1abe a796 d4bc 28f8 ccbd
00000330: bbb2 6ab9 552e 303d b082 353d f2b6 033d
00000340: 97ad 28be 5aa5 b2bd 636f b63d fdbc 47bd
00000350: e91f f3bd 0857 e13d 976f 2cbe 1c87 d2bd
00000360: 8d7f babd ca9f 1c3e e4b4 de3c 7743 4d3b
00000370: 7f9a 0c3e 6af2 b4bd ddc8 aebd 2608 f43d
00000380: 8a9a 2c3e 44bd e7bd b78e b3bd ea6b 5d3d
00000390: 10c7 b6bc 2dc7 56be 0e19 c23d 0ecc a43d
000003a0: 7ea4 3e3e dbc9 693e 164f 7e3e 136d f43d
000003b0: cf55 0ebe 36b6 cebd ccc9 8cbd 986a 2bbe
000003c0: ea90 033d 97d7 2bbe 0b85 bb3c cb90 df3c
000003d0: 8597 c83b 588f 04bb bc23 9e3d 149b 0bbd
000003e0: 9519 a7bc 89d1 353d 2043 acbd 2acb a53d
000003f0: 2f7e 4d3d 7b5c 413e 11df e53c 5cec edbd
0.12659453 0.1604843 -0.0980595 -0.17775394 0.119408056 -0.075336255 0.119550884 -0.09772177
-0.05205889 0.009193429 0.01495846 -0.017343648 0.17922653 0.17173141 -0.09444218 0.066074885
0.031584077 -0.028473055 -0.02771532 -0.068867326 0.114603534 0.17484082 0.07276649 0.10223947
0.021101814 -0.08263373 -0.003773756 -0.07591574 0.098939836 -0.09190293 0.002168008 0.15998505
0.06854878 -0.035641275 -0.09626938 -0.07710263 0.05645237 0.2634115 -0.232929 0.063061856
-0.1203776 0.17653312 -0.114887625 -0.0137704415 0.015723545 -0.014693446 0.13188128 -0.023144461
0.10565265 -0.0883765 0.11018591 -0.06132812 0.07219533 0.18330908 0.20218399 0.1187398
-0.13927099 0.10999361 0.19231793 0.096912056 -0.12150543 0.12249212 0.046831947 -0.07086679
0.12608935 0.13742903 -0.02821102 0.19705768 -0.117721856 -0.04169051 0.16215318 -0.15218195
0.095553234 0.0101951985 -0.0204314 -0.043671854 -0.012271517 -0.039480716 -0.18550292 0.06814418
-0.046222795 -0.06655131 -0.066767015 -0.12445066 -0.08660216 0.08416856 0.22304693 0.09887782
0.18137492 -0.172238 -0.09930526 -0.1096656 -0.0023337838 -0.09337788 -0.06671205 0.054478865
-0.033005115 -0.17583117 -0.090545766 -0.14689136 0.05914227 -0.042283047 -0.08453147 0.16651058
-0.0020452805 0.104852915 -0.0011256124 -0.024893995 -0.19113624 0.04382145 0.20880102 -0.06867376
-0.1147027 -0.1277165 -0.083533 0.17034274 -0.13533251 0.07884973 0.14212306 -0.12770538
-0.012538611 -0.12964305 -0.08348999 0.1761485 -0.01468579 -0.06832329 -0.05477117 0.0014265393
-0.05354636 -0.12544805 -0.1340318 -0.10018754 0.07088326 -0.0032118526 -0.031522594 0.14536202
-0.12089094 -0.121632665 0.020577043 -0.10230898 0.12504153 0.0072670397 0.091186784 -0.005048912
0.2097407 0.1275571 -0.081911385 -0.040265653 0.107570305 -0.14513075 -0.015651515 0.1228049
0.12504272 -0.06224406 -0.21166481 -0.036731746 0.20339239 -0.10249816 0.15402056 -0.11648756
0.16217062 0.17861158 -0.07456226 0.01549767 0.07598085 -0.17080024 -0.0189058 -0.03237219
0.1303355 0.0017100769 0.016731963 -0.035794664 0.18621115 0.18955763 0.055508126 -0.15511395
-0.16698068 0.00062180817 0.011927099 0.14421795 0.015969899 -0.0067693098 0.051873162 -0.1668452
0.15627788 0.017171053 0.08676695 -0.10316303 0.0098199155 0.0726972 -0.13526163 0.14038138
-0.022786383 -0.067687996 0.0031682362 -0.08830007 0.098923884 -0.028511114 -0.12629896 -0.12033529
0.14694275 -0.15112798 -0.025950743 -0.100082695 -0.00022382561 0.043012936 0.044314086 0.032156892
-0.1647247 -0.087229446 0.08907964 -0.048764218 -0.11871321 0.11002928 -0.16839443 -0.10279676
-0.0910636 0.1529533 0.027185865 0.003132073 0.1373081 -0.08835299 -0.085344054 0.11915617
0.16855827 -0.113153964 -0.08767455 0.054057993 -0.022311717 -0.20974417 0.09477435 0.08046733
0.18617436 0.22830908 0.24834856 0.11934867 -0.13899921 -0.10093348 -0.06874427 -0.16739881
0.032120623 -0.1678146 0.022890588 0.027290722 0.006121578 -0.002022704 0.077216595 -0.03408344
-0.02039794 0.04438928 -0.084112406 0.08095391 0.050169166 0.18882935 0.028060468 -0.116173476
