pretrained_gnns/Amazon-ratings_EdgePredGPPT_GCN_1.pth (torch, 222624 bytes, 4 tensors)

conv1.bias f4 [128]
000000 10 31 b9 3d cc 60 1e 3e 3d 5d c7 3d 6e 0e ab bc
       0.09042561 0.15466613 0.09734581 -0.020880904
000010 1c e0 5d 3b d1 e0 2e 3e 78 71 a5 3d 24 dd bf 3d
       0.0033855503 0.17077948 0.08078283 0.09368351
000020 2e 91 38 bd c4 5c 87 3d 46 38 03 3c c2 3b 87 bc
       -0.04506033 0.066094905 0.008009022 -0.016507987
000030 35 22 a2 3d 09 fb 07 bd 6f 6c bb 3d 42 c4 23 3d
       0.07916681 -0.03319839 0.091515414 0.039982088
000040 e0 17 f2 3d 87 44 8a 3d 54 3e 98 ba 9c eb 2b bd
       0.1182096 0.06751352 -0.0011615255 -0.04197274
000050 56 d6 05 3e 93 b2 d4 3d a1 a0 2c bd 3f 1d 2a 3e
       0.13070044 0.10385623 -0.042145375 0.16612719
000060 ba 5e c1 3d c5 25 13 3e 9f 04 c1 bc 17 a4 aa 3d
       0.09441896 0.14369877 -0.023561774 0.08332079
000070 11 b5 00 3e 24 eb 76 bc 93 79 ce 3d ce ef 17 be
       0.12569071 -0.01507071 0.10081782 -0.14837572
000080 52 31 c6 bc 17 fa 18 3e f8 98 de 3d c7 07 90 3d
       -0.02419344 0.14939152 0.1086902 0.070327334
000090 37 7f aa bb 45 01 ba bc 84 d3 cc 3d 00 12 19 3e
       -0.0052031535 -0.022705683 0.10001281 0.14948273
0000a0 fe 6e 1b 39 53 23 11 3e 30 20 fe bc f1 9c af 3d
       0.000148233 0.14173631 -0.031021208 0.08574856
0000b0 dc 15 18 bd d7 51 69 bd b5 e5 15 3d 6f 69 98 bc
       -0.03713022 -0.056962814 0.03659602 -0.018604962
0000c0 20 c9 4c 3d 53 42 36 bd cb 76 c8 3d 2e 3e 22 bd
       0.049996495 -0.044496845 0.09788283 -0.03961008
0000d0 d7 5a 77 3c 21 75 08 3d f0 37 5f 3d 79 5b 83 3d
       0.0150973415 0.033314828 0.054496706 0.064139314
0000e0 51 bc f1 bc d9 bd 25 bd 2c f8 63 bd 7a cf 4d bc
       -0.029508742 -0.040464256 -0.055656597 -0.012561673
0000f0 b3 fc d0 3d cc 7b 0b 3e df 25 96 bc 72 22 cd 3d
       0.102044486 0.13621444 -0.018328605 0.100163355
000100 f9 29 98 3d 0d c8 25 bc cf 85 a5 3d a1 d0 c9 3d
       0.07429881 -0.010118497 0.080821626 0.09854246
000110 e0 d1 13 3e c7 d5 e4 bb 31 c2 b3 3d 82 82 d0 3d
       0.1443553 -0.006983492 0.087772734 0.101811424
000120 b4 ab e5 bb 58 f8 4b bd 91 0f 9a 3d 7d 55 08 bd
       -0.007008994 -0.049797386 0.075225 -0.033284653
000130 3f 20 3f bd 9f 83 86 bd b7 a3 e9 bc 10 f6 d0 3d
       -0.04666161 -0.065680735 -0.028520448 0.10203183
000140 cf 73 88 bd fd 94 8f 3d a0 50 c3 3d 79 1d 1c bd
       -0.06662714 0.07010839 0.095368624 -0.038114045
000150 dc d5 05 bd 49 ff dc 3b 9b 8d a3 3d 6d 91 eb 3d
       -0.032674655 0.0067442995 0.079859935 0.11502347
000160 e1 df 84 bc 78 1e e9 3d 9b 32 16 3e ee e6 8d bc
       -0.016220035 0.113827646 0.14667742 -0.01732203
000170 da 63 38 bc f6 eb c6 3d e4 9f 54 bd 88 2d 1f 3e
       -0.011254275 0.09712975 -0.051910296 0.15544713
000180 55 84 ac 3d a9 1e d2 3d 33 9b d1 3c 96 bd c7 3d
       0.08423678 0.10259754 0.0255867 0.097529575
000190 57 93 15 bd de 87 f0 3d 0f 39 19 3e f8 90 c0 3d
       -0.036517467 0.117446646 0.14963172 0.094026506
0001a0 08 4e 3b bd e1 7a f8 bc 17 ca 16 3e 80 df 36 b7
       -0.045728713 -0.03033203 0.14725529 -1.0900083e-05
0001b0 81 18 a7 3d e5 2a 25 3e c6 97 14 3e 6a 8f 7d bd
       0.081589706 0.16129644 0.14511022 -0.06190435
0001c0 e7 63 c0 3d 64 89 da bc 96 47 00 3d b9 de 17 3e
       0.09394055 -0.026676841 0.03131827 0.14831056
0001d0 3b b1 08 3e a1 ec 7d bd cd 3f cd bc e0 a8 0c 3e
       0.13348858 -0.061993245 -0.025054837 0.13736296
0001e0 bc 5a 97 3d 2e d0 72 bd f7 80 af 3d 1c 57 bc bc
       0.07390353 -0.059280567 0.0856952 -0.022990756
0001f0 06 8f ab 3d e7 5a 12 3e 81 35 b3 3d 7a 5c 40 3d
       0.08376889 0.14292489 0.087504394 0.046963193

conv1.lin.weight f4 [128, 300]
000000 94 8a 7e 3c cc 04 e3 3d af 0b 82 3c 15 6a f9 bb
       0.015535969 0.11084899 0.015874712 -0.007611523
000010 41 3d cf 3b 0a 36 a3 3c 89 52 c4 bd 35 f5 cb 3c
       0.0063244407 0.019923229 -0.09586055 0.024897197
000020 07 a6 5b bd 67 0d 7f bd 9f a5 70 3d c8 35 35 bc
       -0.053625133 -0.06226864 0.0587517 -0.011060186
000030 06 37 f8 3c 18 28 46 bc 8a 96 ea 3d 48 83 93 bd
       0.030299675 -0.01209452 0.11454494 -0.07202774
000040 7c 67 22 3d 0e 1d 80 bd 5e cd a1 bc ec 73 ce 3c
       0.03964947 -0.06255542 -0.019751247 0.02520176
000050 1b ce 32 3d 7b 98 bc bd 2e 76 27 bc 31 12 a4 3d
       0.04365359 -0.09208771 -0.010221047 0.08011282
000060 55 d0 4e 3d b3 0c 73 3d f9 9b 58 3b 50 20 9c 3d
       0.05049165 0.059338283 0.0033051951 0.076233506
000070 f6 8a 85 3d 9d 1c ae bd 12 69 f7 3d e9 f5 9f bd
       0.06520645 -0.08501551 0.120805874 -0.078105755
000080 98 03 b4 3d a1 31 fd bd e0 7d b2 bd 98 ab 38 bd
       0.08789748 -0.123629816 -0.08715415 -0.04508552
000090 6d 02 c5 3c 35 67 7a bc b2 2b bb bd c8 77 6d bd
       0.024049008 -0.015283396 -0.091391936 -0.05797556
0000a0 52 41 63 3d 41 95 d2 bd be 0b 54 bd 80 c1 0a 3d
       0.055482216 -0.10282374 -0.05176901 0.033875942
0000b0 0b f7 f6 bd 54 18 a7 bd 00 28 66 3c 9e b2 ff bd
       -0.120588385 -0.08158937 0.014047623 -0.124852404
0000c0 8f 4a 90 bb 89 b0 b2 bd 5e 65 92 bd 62 ae 0d bd
       -0.0044034193 -0.08725078 -0.071482405 -0.034590133
0000d0 48 1c 6e bd be 15 fb bd 12 cd 78 3d 7c af f9 bc
       -0.05813244 -0.12260006 0.060742445 -0.030479185
0000e0 b2 44 04 3e 6c 16 ac 3c 34 5d 87 bc 90 2b c6 3d
       0.1291683 0.021006785 -0.016523935 0.09676278
0000f0 b2 bd d4 bb 70 5c 22 3e 77 47 a7 bd ad cf 33 bd
       -0.00649234 0.15855575 -0.08167928 -0.043899227
000100 83 18 ce bd 79 c1 a1 ba 1b e6 2c bc 5f 39 d4 bc
       -0.10063269 -0.0012340985 -0.010552908 -0.025906263
000110 da 4b 2b 3d b5 cd ff bd bb 69 08 bd fa 9e 30 bd
       0.041820385 -0.124904074 -0.033303957 -0.043120362
000120 b9 fb b6 3b 9e 73 db 3c dc 67 9a 3d dd 53 38 3d
       0.005584207 0.026788529 0.07539341 0.045001853
000130 86 e2 e0 3a 81 11 55 bd a2 bc 5e bd 6f 1d 58 bd
       0.0017157353 -0.052018646 -0.054379113 -0.052762445
000140 9f e5 b9 3b 21 ec 17 bd 35 d4 17 3d 52 35 bd bd
       0.005673125 -0.037090424 0.03706761 -0.09238686
000150 5a cf af 3d 30 7b 69 bd 56 19 2a bd bf 79 8f 3d
       0.08584471 -0.057002246 -0.04152807 0.07005643
000160 4b 88 a5 bb 75 18 a5 bd cb 25 d7 bc ce 5d 9f bd
       -0.005051648 -0.080613054 -0.026263138 -0.07781564
000170 06 bb 97 3d 17 20 ba bc 86 8e 81 3d eb d1 da 3b
       0.07408719 -0.02272038 0.06326012 0.006677856
000180 e4 aa 99 3c 09 04 3a bc d4 01 70 bd 82 d9 5a 3d
       0.018758245 -0.011353501 -0.058595493 0.053430088
000190 b3 ef ac bd de 4c cb bd dc 87 91 3d 7a 59 b2 bd
       -0.084441565 -0.09926771 0.07105991 -0.087084725
0001a0 3b fe a6 3d 71 af 9d 3d 13 8e 76 3d 9e 18 4d 3d
       0.08153959 0.076994784 0.060194086 0.050072305
0001b0 e1 e8 b0 bd 5d f7 fa 3d d2 9a b6 3d ee a0 f8 bb
       -0.08638168 0.12254212 0.089162484 -0.0075875437
0001c0 89 09 b0 3d 0b 1c 0c 3c 2d bc 94 bd d7 78 bb 3d
       0.08595569 0.008551608 -0.07262454 0.09153908
0001d0 d6 c0 63 bc 35 30 ac 3d 47 7f dd 3c 34 55 8d 3d
       -0.013900956 0.08407632 0.02703823 0.06901017
0001e0 91 0a c1 3c f6 25 33 3e 11 e1 9c bd 17 89 88 3d
       0.023564609 0.1749495 -0.076601155 0.06666773
0001f0 2a aa f3 3b c9 bc 99 bd 14 9d 8d bd 79 52 b5 3d
       0.0074360566 -0.07506711 -0.06914726 0.08853621
000200 7c c0 90 bd 24 91 cd 3d 73 02 85 3d dc d9 93 bc
       -0.070679635 0.10037449 0.06494608 -0.01804822
000210 28 a2 ea bd 6b 17 61 3d f9 bd dd bd 70 b6 d9 bc
       -0.1145671 0.054953974 -0.1082725 -0.02657625
000220 24 f0 2c 3e b0 32 0c bc c5 26 87 3d 72 84 5e bd
       0.16888481 -0.008557007 0.065991916 -0.05432553
000230 b1 d0 7e bd 5e a7 b6 3d c7 f0 e0 3c d3 f6 9d bd
       -0.062210742 0.089186415 0.027458562 -0.077130936
000240 fb e4 1a be e6 33 af bd 15 77 a7 3b e9 14 6f 3d
       -0.15126412 -0.08554821 0.005110631 0.05836955
000250 a7 f9 15 3b 3e 69 46 3d a7 2a 5e 3d 15 75 8f bd
       0.00228844 0.04844021 0.054239895 -0.070047535
000260 84 b1 69 bd 21 85 1a 3d 44 d4 ad 3d 24 d0 76 bc
       -0.057054058 0.037724618 0.08487752 -0.015064273
000270 af ea 86 bd 70 11 08 be 35 fb 61 bb bd 23 cb bc
       -0.06587731 -0.13287902 -0.0034482006 -0.024797315
000280 a2 aa 3e bd 28 4d 47 3d 12 92 1a 3d 4c 36 91 3c
       -0.046549447 0.048657566 0.03773696 0.017726086
000290 03 72 8a 3d 58 7c 49 3d 4a 08 c1 3d 29 6f 46 bd
       0.06760027 0.04919085 0.09425409 -0.048445854
0002a0 20 f7 3c 3d 3b 5b 89 bd 13 77 d1 bc 04 37 21 3d
       0.046134114 -0.06706854 -0.025569474 0.039359108
0002b0 df 44 52 bc ed e9 4b 3d 6d da 90 3d da b2 d5 3d
       -0.012833803 0.049783636 0.070729114 0.10434504
0002c0 0b 27 8f bd a6 58 6e bd ac 80 69 3d 4f 41 49 3c
       -0.06989869 -0.05819001 0.057007477 0.012283637
0002d0 de fc 99 bc fb a6 87 3d da d8 01 3e b2 46 e0 3d
       -0.018797334 0.06623646 0.12680379 0.10950984
0002e0 7f b1 f6 3c 60 6d 7c bd 70 e8 95 bd 6a ef 9a bd
       0.030113934 -0.061627746 -0.073197246 -0.07565196
0002f0 15 2b 1b 3d bf 0a 7a 3d 40 89 72 bd 0f 4c ce bc
       0.037882883 0.061045405 -0.059212923 -0.025182752
000300 3c d6 7e 3d 0c 9f 09 bd 9b 06 8d bd 4f 01 bd ba
       0.06221603 -0.033598945 -0.068860255 -0.0014419946
000310 77 81 f7 bd 14 ec b6 bd 00 75 40 3c ce ce b5 bd
       -0.1208524 -0.08931747 0.011746645 -0.088773355
000320 ed 80 eb ba e5 52 5b bc 29 8c cd 3d 26 06 d8 3d
       -0.00179675 -0.013386463 0.10036499 0.10548048
000330 a3 d8 23 bd 39 4a c6 3d fc 21 ba bd d5 50 2c bd
       -0.040001523 0.096821256 -0.09088513 -0.042069275
000340 d4 31 1f 3d 9d cc 24 bd 83 d6 06 be 35 66 a9 bd
       0.03886588 -0.040234197 -0.13167767 -0.082714476
000350 9a 7a bf bc f6 47 a3 3d 5f fe 50 3d 1b 21 ab 3c
       -0.02337389 0.0797271 0.051023837 0.02088981
000360 63 6f 43 3d 0b 79 43 bb 0e 0c fe bc 68 26 57 3d
       0.04771365 -0.0029826786 -0.031011607 0.05252686
000370 56 87 ba bd 57 0a 16 bd 40 8a 6c bb f8 c6 cc 3d
       -0.091078445 -0.036630955 -0.0036093146 0.09998888
000380 aa 69 d3 bb 24 45 90 bd e1 81 dc 3c 02 94 99 3c
       -0.006451805 -0.070444375 0.0269174 0.018747333
000390 fe 57 b1 3c bd b3 78 3d 6b 5e d5 3c 8c 80 dc bd
       0.021648403 0.060718287 0.026045999 -0.10766706
0003a0 bd 94 9f 3d cd 9a e1 3b c2 c5 24 bd 4c 1e d4 3c
       0.077920415 0.006884909 -0.04022766 0.025893353
0003b0 a1 30 ab 3c 21 11 4f 3d 0f 42 2c 3c 67 57 9e 3d
       0.020897212 0.050553445 0.0105137965 0.077315144
0003c0 b2 5a 79 bd 89 82 51 3d 0a c5 3e bd 16 93 c3 3d
       -0.06087751 0.05114988 -0.04657463 0.09549539
0003d0 a8 51 14 3d 7d fb 9d 3d f9 8e 49 bd f7 98 21 3d
       0.036210686 0.07713983 -0.049208615 0.03945252
0003e0 6e 23 fb bd 3f 1d 0d 3e 50 51 60 3d 1c fd a1 3d
       -0.12262617 0.13780688 0.054765046 0.07909605
0003f0 a2 75 99 3d 27 01 6e 3d 88 c5 d4 3d 32 54 b6 3c
       0.0749314 0.058106568 0.103892386 0.022256944

conv2.bias f4 [128]
000000 02 02 08 be 03 35 f6 bd 55 09 b9 3d 39 ee 02 be
       -0.13282016 -0.1202183 0.09034983 -0.12786187
000010 dc f1 1a 3e 62 71 12 3e 04 b4 08 3e 4f 74 1b 3e
       0.15131325 0.14301065 0.1334992 0.15181087
000020 80 3d fc 3d e6 0f 21 3e 75 18 44 be 12 41 13 be
       0.12316418 0.15728721 -0.19149955 -0.14380291
000030 c5 a5 0e 3e 8d 9d 01 3e 78 16 0f be 63 41 0f be
       0.13930424 0.12657757 -0.13973415 -0.13989787
000040 87 54 1e 3e ba e6 1e 3e be cf 12 3e 70 0f 21 be
       0.15461932 0.15517703 0.1433706 -0.15728545
000050 3c 8f 02 be 70 c6 26 3e 2a d9 1c be e7 a0 19 be
       -0.12749952 0.16286635 -0.15317217 -0.15002786
000060 ee 60 1b 3e ed a9 19 3e 5d c5 0d be d0 de 16 be
       0.15173694 0.15006228 -0.1384482 -0.14733434
000070 7c 8e 0f 3e 7f 2d 1f be 3c 7c 02 3e db 32 18 be
       0.14019197 -0.15544699 0.12742704 -0.1486315
000080 f7 22 1c 3e a7 d7 02 be 5e f8 e3 bd c9 d6 1c 3e
       0.15247713 -0.12777577 -0.11131357 0.15316309
000090 f3 ad fb 3d 5d 4b f2 3d e4 d9 14 be 41 40 10 3e
       0.122890376 0.11830781 -0.14536244 0.14087011
0000a0 0f 15 0a be 1c ed 25 3e aa 65 2e 3e d1 59 1e 3e
       -0.13484596 0.16203731 0.1703097 0.1546395
0000b0 d9 05 29 3e 5f 39 1d 3e 4b a6 f8 3d 57 75 17 be
       0.16506137 0.15353917 0.12141093 -0.14790855
0000c0 ee e4 fa bd 44 84 1e be ae 25 26 3e d7 90 1f 3e
       -0.12250696 -0.15480143 0.16225311 0.15582596
0000d0 98 fb 1e be 10 78 0b be bb f4 20 3e 4a d2 0e be
       -0.15525663 -0.13620019 0.15718357 -0.13947406
0000e0 f9 7a 13 3e 26 75 11 be 14 df 16 3e f5 fc 14 3e
       0.14402379 -0.14204845 0.14733535 0.1454962
0000f0 04 42 d2 bd a6 af 1f 3e 11 88 25 3e 4b 92 03 be
       -0.10266498 0.15594348 0.16165186 -0.12848775
000100 5d 4b 15 3e 5e 3d 19 be 92 c0 1a be d1 69 1f 3e
       0.1457953 -0.14964816 -0.15112522 0.1556771
000110 2c 63 22 3e 20 bc 09 be d6 12 16 3e 41 59 e9 3d
       0.15858144 -0.1345067 0.14655623 0.11393977
000120 ec 28 2d 3e 42 9e f2 bd 43 0a 17 be d0 8d 24 3e
       0.16910142 -0.118465915 -0.14750008 0.16069722
000130 d5 58 27 be ca e7 02 be 49 88 05 be bb c9 11 3e
       -0.1634248 -0.12783733 -0.1304027 0.1423711
000140 f6 c1 2b 3e 20 4d ef 3d 77 1f 14 be 5a ec 11 3e
       0.16773209 0.11684632 -0.14465128 0.14250317
000150 11 03 2e be 30 ce 26 be 60 23 df 3d a5 ef 1f 3e
       -0.16993357 -0.16289592 0.10895419 0.15618761
000160 6a 59 c7 bd 71 2f 24 be ff a9 1b be a6 47 ff bd
       -0.09733851 -0.16033722 -0.15201567 -0.12464838
000170 5e b3 21 3e b1 9f fa 3d 5b c7 1d be 69 db 12 be
       0.1579108 0.1223749 -0.1540808 -0.14341511
000180 a5 b2 00 be 3b 7c 04 be e1 ce 07 3e cb ba 14 3e
       -0.12568147 -0.12938015 0.13262512 0.14524381
000190 85 73 1d be e5 6c 43 bd f7 ab 26 3e cb d0 26 be
       -0.15376098 -0.04771127 0.16276537 -0.16290586
0001a0 8a f2 03 3e 80 51 ec bd c1 ea 1a 3e 7d bf 01 3e
       0.1288549 -0.115389824 0.15128614 0.12670703
0001b0 3f 2e 1f 3e 1a 36 29 be c0 8f e9 3d ae a3 0a 3e
       0.15544985 -0.16524544 0.11404371 0.13539001
0001c0 ad 4f 05 3e 15 7f 21 3e 0e d5 21 3e 00 5a 04 3e
       0.13018675 0.15771134 0.1580393 0.12924957
0001d0 e2 82 2a 3e 4e 5b 02 3e 0f 11 26 3e 6e 6b 24 be
       0.1665149 0.12730142 0.16217445 -0.16056606
0001e0 21 fa da bd cf e8 0e 3e 52 3c 9a 3d fc 43 1b be
       -0.106922396 0.13955997 0.075310364 -0.15162653
0001f0 2a e5 fb 3d 2c ae 0f be 46 e9 f8 bd 20 a7 0b be
       0.12299569 -0.14031285 -0.121538684 -0.13637972

conv2.lin.weight f4 [128, 128]
000000 19 8d d3 3c 3a 89 2c 3e b1 73 c6 bd ae 6b bc bd
       0.025824117 0.16849223 -0.09690035 -0.09200226
000010 7b ad 93 3e 96 61 3f 3d 95 c7 c7 3d c6 fb 26 bd
       0.28843293 0.046723925 0.09754864 -0.040767454
000020 0c be 1b bb 04 21 39 bc bf c3 e6 3d 96 ff 08 3b
       -0.00237644 -0.011299375 0.11267804 0.0020904294
000030 f4 9b 66 3d d2 cb 67 3d 1f dc 2a bd 1d 91 93 3d
       0.056301072 0.056590863 -0.04171383 0.072054125
000040 99 62 92 3d ce 6c 82 bd 44 fb 84 3b 33 79 06 be
       0.07147712 -0.06368409 0.0040582735 -0.13132171
000050 f5 4e 60 3e 7a e4 06 3e d9 9b 3d 3e 81 07 7f 3e
       0.2190512 0.13173094 0.18516482 0.24905206
000060 0c 56 bd 3d 18 5c 94 3d a2 c4 0a 3d f7 df 6e bc
       0.09244928 0.07244128 0.03387893 -0.014579765
000070 43 a0 76 3e 4c eb fb bd f3 20 42 3d 5e 15 9e 3d
       0.24084572 -0.12300739 0.047394704 0.07718919
000080 62 65 07 3e 12 05 da 3d 88 d5 1f bd cf d7 90 bd
       0.13222268 0.10645498 -0.039022 -0.07072412
000090 e2 dc b8 bc af 78 8b 3e 4e 0c 12 be 41 f3 04 3e
       -0.022566263 0.27240512 -0.14262506 0.12983419
0000a0 9a 32 fc 3b e8 f3 54 3e 0b 22 bf bc 59 55 18 3d
       0.007696462 0.20796168 -0.023331663 0.03719077
0000b0 67 ee 8f 3e 62 3a d1 bc b5 45 13 3e 5d 13 fa 3c
       0.28111574 -0.025540534 0.1438206 0.030526811
0000c0 c8 ae b9 3d d5 a3 dc bd fc 6f 07 3e 01 23 8b 3c
       0.0906654 -0.10773436 0.13226312 0.016984465
0000d0 4d 45 04 3e 41 db 9a 3e 55 8b c2 3d 86 19 23 3d
       0.12917061 0.30245402 0.09499232 0.039819263
0000e0 38 62 18 be 0e 3b e8 3d f6 0f 24 3e c1 35 14 3e
       -0.14881217 0.11339389 0.16021714 0.1447363
0000f0 4c 68 1e 3d fd 65 3a 3e 51 42 76 3e 01 b8 2a bc
       0.038673684 0.18202968 0.24048735 -0.0104198465
000100 dc 74 0c 3e 09 fc ba 3d 63 59 b9 3c 93 c3 1d 3e
       0.13716453 0.09130103 0.02262563 0.15406637
000110 fe 7a 00 3d 46 7a 60 3e 66 1b 28 3e 84 f0 de bd
       0.031367294 0.21921644 0.16416702 -0.108857185
000120 c3 09 47 3e c4 a1 52 bd 37 e3 93 bc 16 58 59 3d
       0.19437318 -0.051423803 -0.01805268 0.05306252
000130 a0 f5 98 3d b5 f0 3a 3d 43 2f 0a be fa b3 f6 3d
       0.07468724 0.045639712 -0.13494591 0.120460466
000140 3e 98 02 be 15 db 29 bd ab c7 d3 bc 8a 1d 49 be
       -0.12753388 -0.0414687 -0.025852045 -0.19640175
000150 c1 aa 03 be a8 db ec 3d 4c 74 06 3e d7 d2 0b 3e
       -0.12858106 0.115653336 0.13130301 0.13654648
000160 bb a3 49 3d 6e ce ab bd 12 b0 cc bc 10 80 b2 bd
       0.04922841 -0.08388983 -0.0249863 -0.08715832
000170 36 8f 35 3e f1 b7 e5 bb 4a f0 97 bd 1e ad 4c 3e
       0.17730412 -0.007010453 -0.074188784 0.19987914
000180 44 93 13 bd 25 84 cd bd 88 f3 32 3e b1 e7 f1 bd
       -0.036029115 -0.1003497 0.17475712 -0.1181177
000190 65 34 17 3e 64 e2 d5 bc 1f e6 a2 3d 2b 82 91 3d
       0.1476608 -0.026108928 0.07954048 0.07104906
0001a0 0a 09 0c 3d e8 07 18 3e f1 79 e4 3c df cd b4 bb
       0.034188308 0.14846766 0.027890177 -0.005517706
0001b0 3b 46 16 be 8f 0c 46 3e f0 6b 4a 3e af 8a b6 bd
       -0.14675228 0.19340728 0.19767737 -0.089131705
0001c0 a9 6d fb bd ec ae 55 bd 8a 76 e9 3d a8 75 95 3e
       -0.122767754 -0.05216877 0.11399563 0.29191327
0001d0 9b a3 5f bc 6a 4c ed 3d 7f c6 e5 3a 9e 80 b5 3d
       -0.013649846 0.115868405 0.001753047 0.088624224
0001e0 ce af 9a bd 81 a2 0b be 91 92 0e bd c8 4a 57 3e
       -0.07553063 -0.13636209 -0.034807745 0.2102462
0001f0 8c b9 40 3b de 68 f7 3d da b6 7d bd 8b 8e f5 bb
       0.002940747 0.12080549 -0.06194196 -0.007493799
000200 50 92 c5 bc 71 a9 3f bd ca 8c f8 bc fb c3 d1 bd
       -0.024117619 -0.04679245 -0.030340571 -0.102424584
000210 14 fa dc 3c 88 95 35 3d f1 78 03 bd dd b3 2a 3e
       0.026974715 0.044332057 -0.03209776 0.16670175
000220 e8 b4 28 be 3b 87 07 be b0 a9 50 bd fb e4 3b bd
       -0.1647526 -0.1323518 -0.050943077 -0.04587267
000230 0e 09 fa 3d a2 b4 36 3d 26 94 b1 3d e1 a8 20 3c
       0.12208758 0.04460586 0.08670835 0.009805889
000240 0b 60 30 3e 12 25 66 3d cf 6c 69 be b7 15 a6 bd
       0.17224137 0.056187697 -0.22795413 -0.081096105
000250 ab a0 f2 3d 77 e9 25 bd 9f 61 58 bd 2a bd 23 3e
       0.11847051 -0.040505853 -0.052827474 0.15990129
000260 16 f1 98 3d 83 38 f8 3c 30 39 51 be 2f 69 96 3c
       0.074678585 0.030300384 -0.20431972 0.018360702
000270 6a 29 f1 3d 76 a8 33 be 09 fa 22 3e 81 eb 6b bd
       0.11775477 -0.17544731 0.15915693 -0.05759764
000280 51 b5 37 3d 8a e3 73 3e 28 13 d5 bc 48 f1 38 3d
       0.04485065 0.23817268 -0.026010111 0.04515198
000290 92 41 31 3d c9 f6 51 be a3 60 cb 3d 1c 0f df 3d
       0.043275423 -0.20504297 0.09930541 0.10891554
0002a0 b7 53 d0 bd e3 ce 02 3c 96 b7 60 bd 99 ea 8e 3d
       -0.10172217 0.007983896 -0.05486258 0.0697834
0002b0 ea 0f fe 3d cf c9 19 3e a0 38 7b 3e 92 94 74 be
       0.12405379 0.1501839 0.2453332 -0.238848
0002c0 08 12 c5 bc 06 47 8a bd ca dd 4a 3d 1a 62 0a 3d
       -0.02405645 -0.06751828 0.04952792 0.033784963
0002d0 3a 95 ba bd 1b 67 7b bd f9 a3 7e 3d f8 ff eb bd
       -0.09110494 -0.061377626 0.062168095 -0.115234315
0002e0 10 01 d8 3d 24 d6 09 bd df db 62 3b a6 93 19 be
       0.10547078 -0.033651486 0.0034615917 -0.1499773
0002f0 e5 fd ea 3d b5 f7 40 3e 71 db cf bd d7 c8 18 3e
       0.11474208 0.18844493 -0.10149277 0.14920364
000300 4b f0 30 3d b8 b1 4c be c3 58 92 3c e3 81 28 bd
       0.04319791 -0.1998967 0.01786459 -0.041139495
000310 69 fa 29 3e 50 17 fb bd dc 22 02 be 1e 8d fc bd
       0.1659943 -0.12260306 -0.1270861 -0.123316035
000320 10 1f f2 3c 45 fc 24 be c2 df 8d bc dc 8e 7b be
       0.029555827 -0.16111858 -0.01731861 -0.24566215
000330 59 b8 35 bc 73 a7 cf bb 92 c1 17 bd 71 e8 47 bd
       -0.011091315 -0.0063371 -0.037049837 -0.048805658
000340 ce 07 0e be 6f 10 ec bd 30 87 7f 3d 4f 65 6b bd
       -0.13870165 -0.11526572 0.062384784 -0.057469662
000350 55 b3 88 bd 65 8e a0 3d fb 9f f7 bd 96 5a c3 b8
       -0.0667483 0.078396596 -0.12091061 -9.3151975e-05
000360 72 ac f6 3b f9 0e 05 3e 00 da ab 3d 04 65 bd bd
       0.0075278813 0.12993993 0.083911896 -0.09247783
000370 ad c2 aa 3d cd 87 f1 bd 62 ce 35 be 25 3d 83 3e
       0.08337913 -0.1179348 -0.1775451 0.25632587
000380 3d 6d 05 3e 5a 61 bc bd 6b 3c 88 bd 74 fd ab 3c
       0.13029952 -0.09198256 -0.06652149 0.02099488
000390 d9 b0 ad bd 7f b2 f7 bd 13 04 41 3e 65 ba ce 3c
       -0.08480997 -0.12094592 0.1884921 0.025235364
0003a0 9c 8d 11 3e ff ea 98 3d 91 23 32 3e 87 88 ee 3c
       0.14214176 0.07466697 0.1739638 0.029117836
0003b0 69 cf b0 bd 1d a1 fc bb 06 2f 9b 3c 8e c7 d9 bd
       -0.0863331 -0.007709636 0.018943321 -0.10633765
0003c0 8c 23 c7 3d 87 8c 37 be 67 fb dc bd 5b 8e 1e 3c
       0.09723577 -0.179247 -0.10790139 0.009677495
0003d0 b4 65 2a 3d f9 80 ac bc f2 d5 83 3d f1 1b 27 3d
       0.041600898 -0.021057593 0.06437291 0.04079813
0003e0 91 c6 3c 3c f7 bd 70 3d cc f3 6e bd ea 66 18 bb
       0.011521951 0.058774915 -0.05833797 -0.00232547
0003f0 ab 3e b5 3d 20 bd 16 3e ec 19 78 3d d4 fe 25 bd
       0.088498436 0.14720583 0.060571596 -0.040526226
