pretrained_gnns/Cora_EdgePredGraphPrompt_GCN_1.pth (torch, 802760 bytes, 4 tensors)

conv1.bias f4 [128]
-0.032134626 -0.10183706 -0.059857752 -0.015989928 -0.08591452 -0.10430987 -0.026655905 0.02062689
-0.080656394 -0.10263678 -0.06249943 -0.048309196 -0.023288673 -0.076942116 -0.0349198 -0.035782266
-0.1198874 -0.019732514 -0.08424454 -0.06520859 -0.032769058 -0.048915576 -0.04415567 -0.07310416
0.02064369 -0.052098934 -0.093833126 -0.12972818 -0.024533514 -0.08811387 -0.11588844 -0.08464502
-0.020239074 -0.022318507 -0.09739781 -0.02079418 -0.01948736 -0.083311625 -0.03964447 -0.051953185
-0.008337973 -0.069459535 -0.06176712 -0.01512607 -0.08817564 -0.029063193 -0.1051913 -0.12220674
-0.008313403 -0.04119275 -0.054160055 -0.0575343 -0.083717614 -0.07534207 0.0074561494 -0.041521825
-0.051013146 -0.06857757 -0.016768396 0.005126781 -0.06554309 -0.054513313 -0.04795278 -0.041515443
-0.059986126 -0.06714062 -0.124604985 -0.02082024 -0.077117875 -0.10717438 -0.06668145 -0.07613754
-0.086183354 -0.09153381 -0.02624313 -0.026504532 -0.02662363 -0.04110068 -0.017195368 -0.044710025
-0.09261899 -0.06577937 -0.18045165 -0.026500348 -0.025682596 -0.026226941 -0.048322663 -0.104310594
-0.11272893 -0.017030636 -0.13983464 -0.056033194 -0.09200121 -0.07663321 -0.070357054 -0.05981646
-0.03959803 0.02049839 -0.04624335 -0.057349704 -0.0053066397 -0.049388327 -0.029164532 -0.015385846
-0.011318555 -0.013996924 0.03270866 -0.030855536 -0.070349 -0.024087474 -0.08511078 -0.08099638
-0.059240818 -0.06607235 0.0075199106 0.006162324 -0.013641175 -0.09814387 -0.09374858 -0.07080712
-0.0141826905 -0.104197025 -0.056742582 -0.044442344 0.045463186 0.036037948 -0.07104419 -0.07319954
00000000: 999f 03bd f38f d0bd 672d 75bd 4ffd 82bc
00000010: f4f3 afbd 6aa0 d5bd 7c5d dabc b9f9 a83c
00000020: 2e2f a5bd 3b33 d2bd 67ff 7fbd dddf 45bd
00000030: e3c7 bebc d493 9dbd 1008 0fbd 6d90 12bd
00000040: 8687 f5bd 15a6 a1bc 6788 acbd 158c 85bd
00000050: d938 06bd b35b 48bd 93dc 34bd a2b7 95bd
00000060: f51c a93c b165 55bd 952b c0bd 77d7 04be
00000070: 82fa c8bc 0b75 b4bd eb56 edbd 5e5a adbd
00000080: 6acc a5bc 4dd5 b6bc 8178 c7bd 8e58 aabc
00000090: f5a3 9fbc 499f aabd 3d62 22bd ddcc 54bd
000000a0: fe9b 08bc cd40 8ebd 85ff 7cbd 56d3 77bc
000000b0: 6e95 b4bd ef15 eebc 896e d7bd 8747 fabd
000000c0: f134 08bc bbb9 28bd efd6 5dbd 16a9 6bbd
000000d0: 2474 abbd f14c 9abd b752 f43b ca12 2abd
000000e0: 29f3 50bd 6672 8cbd e05d 89bc 8efe a73b
000000f0: 753b 86bd 5a49 5fbd 226a 44bd 190c 2abd
00000100: 03b4 75bd 0581 89bd e630 ffbd 358f aabc
00000110: faef 9dbd 3e7e dbbd 4990 88bd 00ee 9bbd
00000120: e680 b0bd 1476 bbbd d5fb d6bc 0820 d9bc
00000130: cd19 dabc 3059 28bd 4ddd 8cbc dc21 37bd
00000140: 06af bdbd 56b7 86bd 51c8 38be 4217 d9bc
00000150: 4f64 d2bc e2d9 d6bc fced 45bd cba0 d5bd
00000160: 6dde e6bd d583 8bbc d030 0fbe 1083 65bd
00000170: 216b bcbd dff1 9cbd 5c17 90bd 1b02 75bd
00000180: 8b31 22bd 3dec a73c ab69 3dbd 86e7 6abd
00000190: 52e3 adbb 6a4b 4abd 75ea eebc ea14 7cbc
000001a0: 7671 39bc 5b53 65bc 84f9 053d c0c4 fcbc
000001b0: 2313 90bd 1853 c5bc 904e aebd 6ee1 a5bd
000001c0: 80a6 72bd f150 87bd 9569 f63b 52ed c93b
000001d0: 3c7f 5fbc a7ff c8bd 41ff bfbd 5303 91bd
000001e0: 845e 68bc 4065 d5bd e96a 68bd 2d09 36bd
000001f0: 9b37 3a3d 879c 133d 9e7f 91bd a4e9 95bd

conv1.lin.weight f4 [128, 1433]
0.075113125 0.07910505 -0.13639867 0.030346446 0.03310222 0.047352217 0.11891157 -0.01594284
0.09599059 -0.15295668 -0.13572171 0.1625233 -0.06403565 -0.066129394 0.036971673 0.19928516
0.06053167 0.40812176 -0.036788516 -0.06280469 -0.08160379 0.022071214 0.19235095 0.038200226
0.00956834 0.11034423 0.20985256 0.18751527 -0.013474852 -0.05571763 -0.17010371 -0.062466532
-0.080526374 0.19393072 0.005228082 -0.11501346 -0.10623504 -0.06701636 -0.07916756 0.013001637
-0.08569504 -0.12589847 -0.07372771 -0.23264603 0.033510175 0.13393974 -0.052239668 0.14606151
0.048532993 0.19177663 -0.03866957 0.019793773 -0.12734331 -0.09734446 0.21537161 0.051323917
0.06923558 -0.14104022 -0.10240356 -0.14108784 -0.08918706 -0.14227384 -0.17072354 0.056731742
0.16816337 0.15350136 -0.14153095 -0.09721878 -0.1413878 0.13606328 0.1128821 0.21836594
-0.022981023 -0.09795807 0.18887235 -0.14113824 0.20745829 -0.01379236 0.05052469 -0.16289067
-0.09143966 0.10366331 0.12037673 0.19280472 0.2249563 -0.35079736 -0.17081875 -0.09022454
-0.020246198 -0.23582782 0.15975986 0.1541566 -0.16668114 0.036620777 0.08507168 -0.012977195
0.10984925 -0.04581521 0.010006817 0.17797905 0.027968282 0.11073603 -0.09307263 -0.17734486
-0.19770047 0.20541954 -0.019102009 0.021427868 -0.22049442 -0.054900516 -0.16249762 0.014815867
-0.09026357 -0.09934655 0.2342418 0.20383221 0.19055495 0.2502055 0.014525724 -0.054410513
-0.038173687 0.0040992624 0.19061075 0.14603704 0.0838266 -0.050714813 0.11653166 -0.047370456
0.012353012 -0.00049836363 -0.002626775 0.020489052 0.08638966 -0.00462624 0.010346627 0.025175402
-0.06612782 0.06285884 0.10842761 0.029146777 0.031891957 -0.031069618 -0.11282057 0.11221763
0.08061575 0.07222955 -0.15836997 0.0041006943 -0.38387752 0.030677559 -0.12583923 -0.005057033
0.21376945 -0.12231278 -0.015992448 0.023505129 0.0039571756 -0.14770937 0.08757613 0.0032009117
-0.11899382 -0.21074706 -0.08172116 0.13359109 0.08253416 0.14252028 -0.0072539137 0.045797452
-0.04500304 0.06220952 -0.21912389 -0.03203971 -0.12168313 -0.07404387 0.05175822 -0.25304717
-0.10600824 -0.020192787 0.28881043 -0.09414741 0.072308965 -0.11212833 0.29466745 0.043709446
-0.048344772 -0.25479612 0.07299442 0.05306543 0.20305939 -0.018843811 0.1471758 0.04485163
-0.09207805 -0.16167577 -0.00948855 -0.057587698 -0.26964703 -0.03169205 0.029552951 0.016481772
0.0059022945 -0.04916684 -0.23907354 0.0950045 0.057914425 0.10112382 0.1792857 0.3283654
-0.0067202733 0.21681279 -0.013766837 0.006929127 -0.07886584 0.09831422 -0.15873414 0.039255884
-0.097046874 -0.01663157 0.010128326 0.09162144 0.103477 -0.14044261 0.19030067 0.07887301
0.20000039 0.05587873 0.117796205 0.07286166 0.019142123 -0.13585463 0.06672562 0.021906322
0.13350046 0.06093912 0.05194507 -0.11711859 -0.16007291 -0.15913376 -0.043329496 0.19308612
0.06411532 -0.08304287 0.38259792 0.19917996 0.014684892 -0.038731918 0.024486857 -0.0072628683
0.041972253 -0.12755716 0.044887245 -0.08974587 -0.08021532 0.0095012225 0.032583874 -0.017970782
00000000: e9d4 993d d401 a23d 18ac 0bbe 1c99 f83c
00000010: 3296 073d 66f4 413d e987 f33d 8f9a 82bc
00000020: b796 c43d ada0 1cbe a2fa 0abe 826c 263e
00000030: 1f25 83bd d96e 87bd 9c6f 173d 6911 4c3e
00000040: 0ef0 773d 56f5 d03e 8eaf 16bd bf9f 80bd
00000050: e31f a7bd b1ce b43c a6f7 443e d777 1c3d
00000060: 87c4 1c3c 28fc e13d 97e3 563e 0104 403e
00000070: a0c5 5cbc 2b38 64bd ab2f 2ebe e8dc 7fbd
00000080: 03eb a4bd c695 463e 5550 ab3b 2d8c ebbd
00000090: c291 d9bd e03f 89bd 9a22 a2bd d104 553c
000000a0: e280 afbd 87eb 00be 8efe 96bd c33a 6ebe
000000b0: f741 093d 8027 093e 43f9 55bd 2691 153e
000000c0: 88ca 463d 1861 443e fc63 1ebd 8d26 a23c
000000d0: 4966 02be 885c c7bd 608a 5c3e 0739 523d
000000e0: 62cb 8d3d d96c 10be f5b8 d1bd 5579 10be
000000f0: b5a7 b6bd 3cb0 11be 27d2 2ebe 8b5f 683d
00000100: 0533 2c3e 762f 1d3e 7ded 10be a41a c7bd
00000110: f7c7 10be 2c54 0b3e bb2e e73d 529b 5f3e
00000120: b342 bcbc 3e9e c8bd c167 413e 8b86 10be
00000130: f26f 543e 5af9 61bc faf2 4e3d d0cc 26be
00000140: b744 bbbd 6e4d d43d 1388 f63d 9a6e 453e
00000150: f25a 663e b69b b3be 1ceb 2ebe a5c7 b8bd
00000160: 5bdb a5bc d97c 71be 1798 233e 3adb 1d3e
00000170: 76ae 2abe abff 153d 103a ae3d 4d9e 54bc
00000180: a5f8 e03d bba8 3bbd a2f3 233c 2440 363e
00000190: bd1d e53c 92c9 e23d dd9c bebd e499 35be
000001a0: fe71 4abe 8059 523e d17b 9cbc 7f89 af3c
000001b0: 4ac9 61be 5ddf 60bd c765 26be 40be 723c
000001c0: 1bdc b8bd 3476 cbbd 15dd 6f3e 64b9 503e
000001d0: d620 433e ef1a 803e 4dfd 6d3c 8fdd 5ebd
000001e0: 035c 1cbd 1b53 863b 772f 433e bc8a 153e
000001f0: 48ad ab3d 56ba 4fbd 27a8 ee3d 8607 42bd
00000200: 4a64 4a3c 9ea4 02ba f925 2cbb a8d8 a73c
00000210: 10ed b03d b797 97bb e684 293c a53c ce3c
00000220: 066e 87bd 23bc 803d 4b0f de3d 39c5 ee3c
00000230: 24a1 023d b685 febc 790e e7bd 5bd2 e53d
00000240: df19 a53d 16ed 933d bd2b 22be 1e5f 863b
00000250: 988b c4be 814f fb3c 00dc 00be 78b5 a5bb
00000260: 61e6 5a3e 1f7f fabd 9802 83bc d48d c03c
00000270: 32ab 813b 2041 17be 1d5b b33d 63c6 513b
00000280: 08b3 f3bd 14ce 57be 6c5d a7bd 1acc 083e
00000290: ab07 a93d d6f0 113e 3db2 edbb 1c96 3b3d
000002a0: 1c55 38bd 69cf 7e3d 0362 60be 123c 03bd
000002b0: 0135 f9bd 50a4 97bd 6d00 543d 668f 81be
000002c0: d91a d9bd 586b a5bc f6de 933e 5bd0 c0bd
000002d0: b916 943d 8aa3 e5bd a7de 963e ad08 333d
000002e0: 2b05 46bd a374 82be 197e 953d 235b 593d
000002f0: cdee 4f3e 565e 9abc 41b5 163e 58b6 373d
00000300: 6b93 bcbd 558e 25be dd75 1bbc 14e1 6bbd
00000310: 2d0f 8abe 86cf 01bd 0819 f23c c804 873c
00000320: 0968 c13b 2b63 49bd b2cf 74be b891 c23d
00000330: ad37 6d3d 011a cf3d ac96 373e 821f a83e
00000340: bd35 dcbb 2c04 5e3e 4d8e 61bc bb0d e33b
00000350: 6a84 a1bd f758 c93d 348b 22be c7ca 203d
00000360: 83c0 c6bd ee3e 88bc 47f1 253c 06a4 bb3d
00000370: c0eb d33d 30d0 0fbe 2ede 423e 2c88 a13d
00000380: e7cc 4c3e 18e1 643d 233f f13d 7e38 953d
00000390: f1cf 9c3c 7a1d 0bbe 71a7 883d e374 b33c
000003a0: 58b4 083e 4c9b 793d 5bc4 543d dfdb efbd
000003b0: 27ea 23be f6f3 22be 457a 31bd 5eb8 453e
000003c0: e54e 833d 6112 aabd e0e3 c33e d5f5 4b3e
000003d0: e798 703c 5ca5 1ebd a998 c83c 5bfd edbb
000003e0: 19eb 2b3d 589e 02be b0db 373d afcc b7bd
000003f0: ee47 a4bd 04ab 1b3c ab76 053d 7637 93bc

conv2.bias f4 [128]
0.0739465 -0.0150922 -0.04221435 -0.12674437 -0.016746119 0.016547456 -0.055862363 -0.19705363
0.09932706 0.10032144 -0.15206769 -0.1501093 0.11300988 0.09155487 0.019066622 0.099927984
0.053112004 -0.006473341 0.00665336 -0.02052959 -0.116256505 0.13952239 -0.04246808 0.042081982
-0.009295291 0.14831392 -0.06300496 -0.013064823 -0.024708796 0.11767928 -0.07270086 -0.1300697
0.049072035 -0.042342115 -0.058620032 0.04614251 -0.054017637 -0.06708697 -0.16699734 -0.1084818
-0.19414833 -0.0883013 0.007697435 -0.035014775 0.0049334313 -0.057703853 0.14915104 0.08256175
0.09978573 -0.063695066 -0.11479265 0.19664948 0.09147607 -0.22931981 0.04004207 -0.20179345
0.054705255 -0.14032578 -0.08925241 0.13236742 -0.19718792 -0.057702314 0.08917581 -0.06406641
0.05347139 -0.15966292 0.04884244 0.12862365 0.062063485 0.12226903 0.14752817 0.051510688
0.06254775 -0.12104676 0.050226435 -0.047710944 0.032415796 -0.08680575 0.0045273597 0.09188085
0.04279886 0.035282303 0.030216949 -0.052393794 0.10885984 0.07791559 -0.14441358 -0.09896633
0.023039006 -0.117365964 0.03746836 0.112500794 0.10369229 0.09324162 0.08634445 -0.0071708537
0.09488334 0.080910295 -0.022407856 -0.008595982 0.12363203 0.035864137 0.15338336 -0.12830682
0.050674368 0.01514749 -0.12268192 -0.026884299 0.11409573 -0.090355955 0.0025521575 0.11179385
0.08663691 0.010370352 0.07143434 0.074227706 0.006386847 0.08075724 -0.014212992 0.02962141
-0.09926688 -0.013594552 -0.064300194 0.11725298 -0.018232523 0.058402024 -0.007334797 0.10731538
00000000: 4371 973d 4645 77bc f4e8 2cbd 47c9 01be
00000010: 282f 89bc 888e 873c efcf 64bd 6dc8 49be
00000020: fc6b cb3d 5475 cd3d a2b7 1bbe 41b6 19be
00000030: b971 e73d 1f81 bb3d 9b31 9c3c 0ba7 cc3d
00000040: f98b 593d 521e d4bb 6e04 da3b ac2d a8bc
00000050: e417 eebd f5de 0e3e 02f3 2dbd 285e 2c3d
00000060: 474b 18bc 9bdf 173e bf08 81bd d70d 56bc
00000070: 1a6a cabc d601 f13d 30e4 94bd fe30 05be
00000080: c2ff 483d ed6e 2dbd 8f1b 70bd eeff 3c3d
00000090: 9941 5dbd e564 89bd 5a01 2bbe b52b debd
000000a0: d2ce 46be 50d7 b4bd c43a fc3b a76b 0fbd
000000b0: 9fa8 a13b e05a 6cbd 0dbb 183e 2316 a93d
000000c0: 765c cc3d 8f72 82bd 6918 ebbd 7b5e 493e
000000d0: ce57 bb3d d0d2 6abe 2703 243d f1a2 4ebe
000000e0: 9e12 603d 90b1 0fbe f8c9 b6bd 538b 073e
000000f0: a1eb 49be 4359 6cbd cfa1 b63d 4035 83bd
00000100: d104 5b3d ad7e 23be 030f 483d ebb5 033e
00000110: 4836 7e3d 2f68 fa3d a011 173e dffc 523d
00000120: 0919 803d 5de7 f7bd 3cba 4d3d 8d6c 43bd
00000130: 6dc6 043d 37c7 b1bd 3f5a 943b 072c bc3d
00000140: dc4d 2f3d 2d84 103d 8989 f73c e09a 56bd
00000150: e8f1 de3d 3592 9f3d 27e1 13be dcae cabd
00000160: 4cbc bc3c 915d f0bd 6c78 193d d166 e63d
00000170: a05c d43d 76f5 be3d 5cd5 b03d 7bf9 eabb
00000180: 3252 c23d 4cb4 a53d ae90 b7bc 29d6 0cbc
00000190: ca32 fd3d 46e6 123d 8710 1d3e dd62 03be
000001a0: ed8f 4f3d 2e2d 783c a940 fbbd 763c dcbc
000001b0: 06ab e93d 8b0c b9bd 1942 273b 2df4 e43d
000001c0: b16e b13d 69e8 293c 2b4c 923d b204 983d
000001d0: c148 d13b 0d64 a53d 9cdd 68bc 99a8 f23c
000001e0: 6f4c cbbd afbb 5ebc d2af 83bd 5522 f03d
000001f0: 5f5c 95bc f636 6f3d bd58 f0bb 2ac8 db3d

conv2.lin.weight f4 [128, 128]
-0.114603296 -0.018648107 -0.128878 0.18056934 -0.14477944 -0.21805114 0.16622716 0.2432047
0.06307882 -0.017247915 0.05553478 -0.042195 -0.13099071 0.020940637 -0.087581106 0.2356348
0.041349813 -0.08724343 0.02758136 0.023859315 -0.10020929 0.013866457 0.03601911 -0.09682902
0.081903644 -0.09637155 0.29496884 -0.24835233 -0.020229466 -0.08763535 -0.18588299 -0.053612787
0.18175413 0.12563154 -0.00635774 0.14686239 -0.12109446 -0.14272995 0.15358034 -0.123061225
0.17326626 -0.020804415 -0.27681148 -0.19275825 0.054538645 -0.050418843 0.2747036 -0.09643065
-0.1239293 0.21490228 0.018110668 0.061826542 0.10112898 0.036691397 -0.022053549 -0.14954285
-0.07525116 -0.24911258 -0.20043142 -0.14605425 0.4437757 0.19723766 0.11124142 -0.14218472
0.12119542 -0.036164716 -0.061439697 0.067702636 -0.18510057 0.15057322 -0.12342078 -0.098553084
0.067806154 -0.0101728365 -0.35561964 -0.047964595 -0.1562908 0.065856695 -0.037696004 -0.17385252
0.15541697 -0.11675496 0.04962311 0.15411074 0.051487748 -0.012449233 0.08374353 -0.10332541
0.24277054 -0.055583492 -0.105376475 0.055993073 0.12667707 0.12010802 -0.21942781 -0.19762567
-0.10795916 0.006351025 -0.19498383 -0.06866675 -0.14848396 -0.1460437 0.14111093 -0.108699016
0.077076115 -0.3065503 0.04123702 -0.3564767 -0.07586245 0.0965196 0.044874042 0.24039583
0.08428353 0.18423179 -0.04628154 0.09269101 0.15693259 0.04772328 0.041137524 -0.11692361
0.23500259 -0.074043654 -0.045252237 0.02978619 -0.11404603 0.047239132 0.0784539 -0.11240991
-0.08668499 0.12931336 0.104320034 -0.25318983 0.06941697 -0.23735592 0.28757656 0.05439151
0.12402943 0.0019232422 0.20439985 -0.2130079 -0.13048322 -0.021054905 -0.24476378 -0.18918282
0.14109181 -0.0012020072 0.19191614 -0.11427214 -0.056258325 -0.015842654 0.3789106 0.2938202
0.28401336 -0.14790659 -0.11068678 0.10624708 0.1333925 -0.033223744 -0.2098701 0.18924175
-0.17201245 -0.006736068 -0.027007569 0.139657 0.0035823814 0.1931753 -0.045602847 0.098346174
-0.084799536 -0.20108536 0.13492666 -0.10283987 -0.0032565317 0.018411433 0.14135374 0.10195709
0.03814119 -0.008237836 -0.10807216 -0.04702733 -0.13591196 -0.05855347 0.16394402 0.1466499
0.15776286 -0.018944548 -0.050456874 0.23811461 0.008320481 0.27400336 0.16203715 -0.25849876
-0.123177946 -0.15457137 -0.10411232 0.18871976 0.018411847 0.03826875 0.18866305 0.07614951
0.13410848 0.20596734 0.2316296 -0.024594877 0.074740954 0.11212795 0.17424332 -0.015468312
-0.1375162 -0.08371352 -0.18068114 -0.069803655 -0.24728501 -0.111685686 -0.056352876 -0.082060695
-0.059308622 0.17108625 -0.23958792 0.2615956 -0.17249371 0.15876994 -0.039827283 -0.16914514
-0.22890334 -0.20242588 0.268181 0.12703325 -0.019092053 0.14008121 -0.13987891 -0.100335516
-0.15624425 0.016190827 -0.17126743 -0.20480582 -0.16174084 -0.10171443 0.2330374 0.37024722
-0.103243224 -0.1521745 0.15687655 -0.040589657 -0.09530566 -0.029709587 0.016499503 -0.042235326
0.14999601 -0.041098073 0.046194002 -0.088278845 0.024011983 0.19566528 0.046866994 0.14025714
00000000: 22b5 eabd eac3 98bc 98f8 03be 2be7 383e
00000010: 1041 14be cc48 5fbe 7437 2a3e a70a 793e
00000020: 782f 813d 804b 8dbc 7078 633d aad4 2cbd
00000030: 6e22 06be b38b ab3c b95d b3bd 404a 713e
00000040: 6c5e 293d afac b2bd 4ef2 e13c 9c74 c33c
00000050: 873a cdbd 2330 633c c688 133d 4b4e c6bd
00000060: 19bd a73d 725e c5bd 2806 973e 1350 7ebe
00000070: 44b8 a5bc 2a7a b3bd 1c58 3ebe 1599 5bbd
00000080: c11d 3a3e 8ea5 003e 9754 d0bb 1863 163e
00000090: 5f00 f8bd cd27 12be 2a44 1d3e 8607 fcbd
000000a0: b66c 313e 056e aabc 3cba 8dbe 6b62 45be
000000b0: ea63 5f3d fd83 4ebd f3a5 8c3e 6f7d c5bd
000000c0: a5ce fdbd 580f 5c3e d35c 943c d43d 7d3d
000000d0: b61c cf3d b849 163d a5a9 b4bc c321 19be
000000e0: 481d 9abd 5e17 7fbe e53d 4dbe 3f8f 15be
000000f0: 9236 e33e abf8 493e 8bd2 e33d df98 11be
00000100: 4e35 f83d 7421 14bd 31a8 7bbd aea7 8a3d
00000110: 018b 3dbe de2f 1a3e 09c4 fcbd 33d6 c9bd
00000120: f4dd 8a3d f8ab 26bc c713 b6be 8676 44bd
00000130: b20a 20be e0df 863d 2067 1abd 6506 32be
00000140: a025 1f3e 391d efbd 9a41 4b3d 35cf 1d3e
00000150: d1e4 523d def7 4bbc ba81 ab3d 469c d3bd
00000160: d798 783e 84ab 63bd 9fcf d7bd fe58 653d
00000170: a2b7 013e 32fb f53d afb1 60be 625e 4abe
00000180: b119 ddbd 421c d03b d7a9 47be 27a1 8cbd
00000190: 2e0c 18be 7b8c 15be 627f 103e 979d debd
000001a0: 15da 9d3d 29f4 9cbe 26e8 283d 1d84 b6be
000001b0: c65d 9bbd 11ac c53d d8cd 373d 532a 763e
000001c0: d89c ac3d 42a7 3c3e b691 3dbd c9d4 bd3d
000001d0: f0b2 203e 7c79 433d d27f 283d a575 efbd
000001e0: 85a4 703e 33a4 97bd 695a 39bd 2b02 f43c
000001f0: f790 e9bd d27d 413d 70ac a03d 2b37 e6bd
00000200: e687 b1bd b96a 043e bea5 d53d 19a2 81be
00000210: 7c2a 8e3d 6e0d 73be 3c3d 933e a2c9 5e3d
00000220: 2403 fe3d 4d15 fc3a 324e 513e be1e 5abe
00000230: 659d 05be 567b acbc 5ba3 7abe 24b9 41be
00000240: 5f7a 103e ab8c 9dba aa85 443e 8307 eabd
00000250: 216f 66bd 74c8 81bc 9200 c23e 9a6f 963e
00000260: 336a 913e d374 17be c0af e2bd 1298 d93d
00000270: 0b98 083e 9f15 08bd 30e8 56be 97c8 413e
00000280: 0824 30be 3cba dcbb fa3e ddbc 3f02 0f3e
00000290: 63c6 6a3b bfcf 453e 0dca 3abd b869 c93d
000002a0: 61ab adbd 52e9 4dbe 372a 0a3e b69d d2bd
000002b0: 896b 55bb 93d3 963c 09bf 103e e1ce d03d
000002c0: f039 1c3d fdf7 06bc f054 ddbd bb9f 40bd
000002d0: 812c 0bbe c3d5 6fbd f1e0 273e 642b 163e
000002e0: 968c 213e 9931 9bbc deab 4ebd 51d4 733e
000002f0: a052 083c 2b4a 8c3e 11ed 253e f359 84be
00000300: b844 fcbd f547 1ebe d738 d5bd c13f 413e
00000310: 71d4 963c b1bf 1c3d e330 413e 46f4 9b3d
00000320: bc53 093e 1ae9 523e 4f30 6d3e 327b c9bc
00000330: c911 993d 57a3 e53d d76c 323e ce6e 7dbc
00000340: 0cd1 0cbe fe71 abbd 7a04 39be 38f5 8ebd
00000350: 4838 7dbe 77bb e4bd 46d2 66bd 700f a8bd
00000360: 99ed 72bd 3c31 2f3e 8956 75be dcef 853e
00000370: 31a2 30be 9694 223e ef21 23bd 6234 2dbe
00000380: a365 6abe bb48 4fbe 054f 893e 0115 023e
00000390: f066 9cbc 7371 0f3e 6b3c 0fbe b57c cdbd
000003a0: 7efe 1fbe a0a2 843c bb60 2fbe 9eb8 51be
000003b0: 649f 25be a84f d0bd 5ba1 6e3e 0b91 bd3e
000003c0: 2f71 d3bd a2d3 1bbe 3fa4 203e 5741 26bd
000003d0: 9d2f c3bd 8561 f3bc f729 873c f3fe 2cbd
000003e0: 8e98 193e 7456 28bd ec35 3d3d 8acb b4bd
000003f0: c7b4 c43c 7b5c 483e 9bf7 3f3d 919f 0f3e
