pretrained_gnns/Cora_GraphCL_GCN_1.pth (torch, 802600 bytes, 4 tensors)

conv1.bias f4 [128]
000000 73 32 90 3b 0c 26 74 3b 2c c4 e7 ba 23 e7 55 3c
       0.0044005453 0.0037254123 -0.0017682365 0.013055596
000010 36 ff 01 3c 32 bd 62 ba 33 bb 03 ba c2 f3 45 3c
       0.007934382 -0.0008649408 -0.0005025148 0.012082042
000020 a7 c2 10 bc 8d 30 b6 bb 9d 4c 91 3b 3e a1 27 3b
       -0.008835471 -0.005559987 0.004434182 0.0025578286
000030 ad 58 54 3c 2e 8b 8d 3b 9f 7d a4 bb 98 40 27 3c
       0.012960595 0.00431957 -0.005019858 0.010208271
000040 20 ed 90 3b b4 d4 9c 3c 86 0b f4 3b 06 cd de bb
       0.0044227988 0.019144394 0.0074476628 -0.006799343
000050 72 ca 3f 3a 3b 54 8a 3b cd b2 96 3b 68 e6 b4 3b
       0.00073162385 0.004221467 0.0045989514 0.0055206306
000060 b8 af 28 3c 6b 36 fd 3b a9 b2 b2 3b 15 44 bb b9
       0.010295801 0.0077274344 0.005453427 -0.00035718144
000070 94 0d b5 3b ac 30 31 3c 87 00 ac 3b 12 16 74 bb
       0.0055253003 0.010814827 0.0052490863 -0.00372446
000080 2c 73 0f 3b 48 be 8c 3c 3d cf 38 bb 65 40 2e 3c
       0.0021888716 0.017180577 -0.0028199696 0.01063547
000090 6d 9a 1a 3c 74 c0 42 3b 17 fe 86 3a 03 bb 54 3a
       0.009436232 0.0029716762 0.0010299113 0.0008115025
0000a0 ce 8e 18 3c 02 2b 6c 3c 0d 84 35 3b 9b 75 41 3c
       0.009311391 0.014414551 0.0027697117 0.0118078245
0000b0 bc 8b ae 3b 60 73 95 3c cf 66 86 3c 82 a5 70 ba
       0.005326716 0.018243492 0.016406445 -0.0009179936
0000c0 25 64 68 3c e3 d8 e1 3b 78 a5 86 3b 9b d7 04 bb
       0.014184033 0.00689231 0.004109081 -0.0020270112
0000d0 0a 00 a2 3b dd f1 31 3a be d9 ce 3b a7 41 10 bc
       0.0049438523 0.00067880546 0.006312578 -0.008804715
0000e0 e1 51 15 3b 72 ad a6 3b 85 d3 0e 39 e2 9c 7e 3c
       0.00227844 0.0050865943 0.00013620972 0.015540333
0000f0 08 9f 92 3c 8c 50 fb 3b 9f 95 37 3c 8a 09 87 3b
       0.017898098 0.007669514 0.011205106 0.00412101
000100 eb cc f5 38 18 02 db 3b 23 58 d6 38 56 65 ea 3b
       0.00011720679 0.006683599 0.00010220732 0.0071531935
000110 d6 8f a6 3a c8 9b c7 3b 43 d0 56 3c 36 98 42 3b
       0.0012707661 0.0060915686 0.013111177 0.0029692776
000120 9a 14 6a bb 4c 90 af 3a ca 1c 4a 3c 3a 4c 9f 3b
       -0.0035717846 0.0013394444 0.012335965 0.004861382
000130 4a 25 14 bb 70 90 bb 3b 59 d7 3f 3c 4e 14 19 bb
       -0.0022605234 0.0057240054 0.011709058 -0.002335805
000140 a2 82 dd ba 34 9c b0 3b a8 08 86 3a 01 a3 d7 3b
       -0.0016899894 0.0053897146 0.0010225968 0.006580711
000150 09 6d ef 3b d9 67 f6 3b 42 a9 4b 3c 6e 41 87 bb
       0.007306699 0.007519704 0.012430491 -0.004127673
000160 26 a2 94 3b fc a9 27 bb a1 30 50 3a 5f 39 69 3c
       0.004535931 -0.0025583496 0.00079418166 0.01423487
000170 4f be d9 bb 7e 31 e9 ba 8c 96 93 3b 7c b7 fe 3b
       -0.006645001 -0.0017791239 0.0045040306 0.007773338
000180 1f 6c 9a 3b 21 65 f0 3a a9 31 c3 ba 5d 36 61 3b
       0.004712596 0.0018340686 -0.0014892119 0.0034364678
000190 de ef d7 ba 85 99 a3 bb 39 ba 79 3c a1 98 1c 3b
       -0.0016474684 -0.004992666 0.015242153 0.0023894685
0001a0 12 ab c1 ba 51 78 a4 3c 00 f0 d1 3b 20 c7 31 3b
       -0.0014775714 0.020076903 0.006406784 0.0027126744
0001b0 6b 7a 44 3c 93 a3 d4 bb a1 6b 4e bb 54 ef ed 3b
       0.011992077 -0.006489226 -0.0031497257 0.007261196
0001c0 4e 4e 28 39 79 be 59 3c 36 49 db 3b 72 03 1e bb
       0.000160509 0.013290041 0.006692077 -0.002411094
0001d0 20 aa 78 3b 84 4b 88 3c d1 c3 d5 3b fc cb 03 ba
       0.00379432 0.016637571 0.0065235873 -0.00050276495
0001e0 92 82 4e 3c 22 4d 5f ba 5f c8 9d 3b df 99 2d 3c
       0.012604373 -0.00085182686 0.004815146 0.010595768
0001f0 c6 b4 5c 3c 64 d0 c9 3b fa 0f b1 3b 29 da b9 bb
       0.013470834 0.0061588753 0.005403516 -0.0056717587

conv1.lin.weight f4 [128, 1433]
000000 c3 d5 8d 3d 0e 28 48 3d 07 ff d8 3b 96 75 23 3c
       0.069255374 0.048866324 0.0066221985 0.009976765
000010 be 05 a9 3c 45 18 04 bc 04 98 56 3c 07 b2 8b 3c
       0.02063262 -0.008062427 0.013097767 0.017052663
000020 6f 27 31 bc d1 64 01 3d 39 0b 60 3d a6 1f aa bb
       -0.010812624 0.031590287 0.054698203 -0.005191761
000030 a8 a8 8c 3d b6 18 81 3d 70 23 bd bc 4b 6d a2 3b
       0.06868106 0.06303541 -0.023088187 0.0049568764
000040 57 ab 4c 3d e2 4f 99 3d 37 a1 71 bd d2 98 69 bd
       0.04996809 0.074859396 -0.058991637 -0.057030506
000050 03 18 27 bd f0 b2 0e 3d c5 7c 0b 3d 14 4a 64 bd
       -0.040794384 0.034838617 0.034054536 -0.05573471
000060 93 b6 63 3d e3 ef 91 3c c0 5d c8 3c 3e 28 89 3d
       0.05559404 0.017814582 0.024458766 0.06697129
000070 81 8e 83 bd 37 3b 5a bd b4 f2 28 bd 9b 8a 07 bd
       -0.06423665 -0.053279128 -0.041247085 -0.03309117
000080 28 3f 66 bd 21 fd 38 bc c0 13 fb 3c 6f 9b 5f bd
       -0.056212574 -0.011290819 0.030649066 -0.054591592
000090 7a 74 7b bc 64 2e 3b 3c 4c 2b 98 bc b9 c2 c9 bb
       -0.015347594 0.011424635 -0.018575333 -0.006157246
0000a0 dc 11 80 bd 2a 46 26 bd 1d f4 b3 3d c5 5d e2 bc
       -0.062534064 -0.040594257 0.08786795 -0.027632603
0000b0 b7 a5 ea bc 70 66 62 3d 95 79 5a bc ba d0 9f 3c
       -0.028643472 0.055273473 -0.0133346515 0.019508708
0000c0 44 a8 c8 bb 65 b5 7b 3d b0 ee e9 3c 67 af 66 3c
       -0.0061235745 0.06145229 0.028556198 0.014079905
0000d0 80 3f b5 bc 60 88 70 3d 6c a5 1a 3d 25 6b fe 3c
       -0.022125006 0.058723807 0.037755415 0.03105695
0000e0 8c 99 49 bc 5c 5f 49 bd 82 5b a9 bc f5 d6 5e 3b
       -0.012304675 -0.049163207 -0.020673517 0.0034002636
0000f0 7b f5 24 bd 66 c7 43 bd 51 5d a5 bb e3 0d 25 3d
       -0.04027317 -0.047797583 -0.0050465246 0.040296447
000100 5a 0a 6e bd 25 f6 2d bc 4e 78 b0 bd b3 03 49 bc
       -0.05811534 -0.010617767 -0.08616696 -0.012268948
000110 f8 51 bd bd dc c9 8e 3d 6e 4c 0e bd db 56 82 3d
       -0.0924415 0.06972095 -0.034740858 0.063642226
000120 b3 0f b5 bc 44 dd a4 3d 80 f9 32 3d 8a 07 3a 3c
       -0.022102213 0.080500156 0.043694973 0.0113543365
000130 74 b4 d1 3c 24 f5 33 bc c5 86 83 bc 48 23 8d bc
       0.025598742 -0.010983739 -0.016055474 -0.017228737
000140 f3 c5 55 bd a9 72 05 3d 47 2e 86 3c d4 10 e7 bc
       -0.052190732 0.03258005 0.016379489 -0.028206266
000150 24 49 7a ba bd 13 92 bd f5 eb f3 3c ea fe a9 3c
       -0.0009547642 -0.07132671 0.029775599 0.020751435
000160 d9 ad cf bc 07 59 0e bd 8e 67 9b bc cd 64 35 3d
       -0.025351452 -0.03475287 -0.018970277 0.044285584
000170 71 70 c0 bc 89 ad ff 3c ab b9 e5 3c 78 34 1d 3c
       -0.023491116 0.031210678 0.028042635 0.009595029
000180 65 c9 ae bb 6b b5 29 bd 8a aa 53 bd 53 0a ca 3c
       -0.0053340667 -0.04143278 -0.05167631 0.024663126
000190 ac ab 8b bb 91 4f 07 bc 0d c7 99 bc 11 f0 e4 bc
       -0.0042624082 -0.008258716 -0.018771673 -0.027946504
0001a0 fb 08 66 bd 9a 6c d6 bb 58 ed cc bb 81 50 01 bd
       -0.05616091 -0.006543708 -0.0062538795 -0.031570915
0001b0 04 b3 4d bd 22 a4 aa 3c fa ac 94 bd f1 36 7d bc
       -0.05021955 0.020830218 -0.07259555 -0.015454994
0001c0 10 93 9f bd ee b4 35 3d 57 7f 1e 3c 72 30 0d bd
       -0.07791722 0.044362 0.009673915 -0.03447003
0001d0 c9 83 94 3d 2d 0b 5c 3b d0 03 31 3d 51 fe 0b bd
       0.072516985 0.0033575997 0.043216527 -0.034178082
0001e0 6a 58 a8 3c c8 04 56 bc c3 fe 74 3c aa a3 5c 3d
       0.020549972 -0.013062663 0.014953318 0.05386702
0001f0 2d 86 a9 bc f7 c1 0a 3d f9 eb 7c bc 5e 09 0e 3d
       -0.020693863 0.033876386 -0.01543712 0.034676902
000200 34 60 c5 3d 85 9f 19 bb b6 9a 3a 3d 36 16 13 3d
       0.0963749 -0.0023441028 0.0455577 0.035909854
000210 9b d9 09 3d 18 72 7c bd 93 52 a5 bc 9a 1a 2d ba
       0.03365479 -0.061632246 -0.020180976 -0.000660339
000220 34 7f 3b bd 7c 86 93 bc 70 31 9d 3d da 8d 3a 3d
       -0.045775607 -0.018008463 0.07675445 0.045545436
000230 39 48 43 3d f1 02 8a bc e1 98 4b bc 32 fc ff bc
       0.0476763 -0.016847106 -0.012426586 -0.031248186
000240 55 b1 93 bc ec c4 96 bc 0d bc 14 bd b1 2e 39 3c
       -0.018028894 -0.018404447 -0.03631215 0.011302636
000250 a4 d7 69 3d 73 75 4d bd 15 0c 68 bd 36 3c a0 bd
       0.057090417 -0.050160836 -0.056652147 -0.07823984
000260 a6 bd 8e 3d 11 81 d0 bc fa 53 b9 3c 82 0d 24 3d
       0.06969766 -0.025452169 0.022623051 0.040051945
000270 8d 76 a8 bb e0 06 39 bd c7 60 98 3d 25 6c 5f 3b
       -0.0051410855 -0.045172572 0.07440334 0.0034091559
000280 6e 51 8b 3b 16 11 70 bd 08 6c 50 bc 28 1b 2a bd
       0.0042516505 -0.058610044 -0.012721069 -0.041529804
000290 77 93 37 3d da c6 27 b9 fc e4 01 bc 17 6d c5 3c
       0.044818368 -0.00016000439 -0.007928129 0.02409987
0002a0 d6 60 91 ba 51 1a 28 3d 04 ea 59 bd 4f 68 6f 3b
       -0.0011091481 0.041040722 -0.05320169 0.0036530679
0002b0 d5 08 c3 bd 53 42 24 3d 50 47 09 3d 83 52 57 bb
       -0.09523169 0.040102314 0.033515275 -0.0032855577
0002c0 26 11 9c bc 8c 0c 07 3d 74 75 8d 3d 0a c5 5a bd
       -0.019051146 0.03297095 0.06907168 -0.053410567
0002d0 a7 9f 85 bd fe 8e 7a bc c0 3d bf 3c 29 85 42 bd
       -0.06524592 -0.015292881 0.023344874 -0.047490273
0002e0 42 76 3f 3c f0 4c 21 bd 33 23 aa 3d 65 68 74 bb
       0.01168591 -0.039380014 0.08307495 -0.003729367
0002f0 e9 33 97 3d 80 8c 82 bd 70 70 22 bd 37 41 1b 3d
       0.07382948 -0.063744545 -0.03965801 0.03790399
000300 3e 80 46 bc 45 9d ec 3d a7 dd f0 3c 3f d6 9c 3d
       -0.012115536 0.11553434 0.029402567 0.07658052
000310 3a a0 33 bd de e0 93 bb 39 99 9a 3c e0 c4 42 bc
       -0.043853976 -0.0045128902 0.01887189 -0.011887759
000320 12 ef 5e 3d b0 3a 0a bd 9f 11 5f bd cf 65 c0 3c
       0.054427214 -0.033747375 -0.054460164 0.023486046
000330 2c 90 c4 3c d5 41 cd bc a7 67 32 bd 11 7f b5 bc
       0.023994528 -0.025055805 -0.04355588 -0.022155317
000340 a7 7a 26 bd d0 11 16 3c c8 b7 27 bd f7 21 81 bc
       -0.040644314 0.00915952 -0.04094675 -0.015763266
000350 5e 08 6c 3d 36 79 55 3d 7b 48 9c bc 01 03 1f bd
       0.057625167 0.05211755 -0.01907753 -0.038821224
000360 86 49 42 3d 7f d3 75 bc 4b d1 e2 3c d5 08 1b 3b
       0.0474334 -0.015004038 0.02768769 0.0023656387
000370 52 65 ac 3d a4 3f 70 bd 8d dc 43 bb 2a 80 02 3d
       0.08417763 -0.058654442 -0.0029886097 0.031860508
000380 48 56 9f 3d 31 66 40 bd b0 2b 6d 3d ba 9a 1a 3c
       0.07780129 -0.046972457 0.05790299 0.009436304
000390 de 7f 30 bd e6 a8 34 bd 4f 21 41 bc c1 59 bc ba
       -0.043090694 -0.044106387 -0.011787727 -0.001437001
0003a0 78 38 46 bd 2d 66 10 bc 19 1e 6d 3b 4f be 44 bd
       -0.048393697 -0.008813423 0.003618127 -0.048033055
0003b0 a1 fd 27 bb cb 72 13 3d e3 a6 03 bd df 97 ce 3c
       -0.0025633352 0.035998147 -0.032141577 0.025218902
0003c0 b6 35 ee 3c c6 7c 2a bd 73 b1 5a 3d d8 59 35 3d
       0.029078346 -0.0416229 0.053391885 0.044275135
0003d0 f1 ce 4a 3c 33 60 bf 3b f5 2a eb bc 94 9a 2e bd
       0.01237844 0.0058403253 -0.028707007 -0.042627886
0003e0 8d 02 76 3d 4d d3 f0 bb 2f 88 6b 3b 72 95 ac 3c
       0.060061026 -0.0073494078 0.0035939326 0.021067355
0003f0 bd cf 2a 3d c0 14 b3 bc 10 66 4c 3d 6b b0 dd 3c
       0.04170202 -0.02186048 0.049902022 0.027061662

conv2.bias f4 [128]
000000 0e 11 88 3b 67 36 9d bb 8a 13 b3 bb fe c4 7f bc
       0.0041524237 -0.004797745 -0.0054649757 -0.015610931
000010 ae d5 20 bc e4 14 00 3c cf af d3 3b 01 54 f8 bb
       -0.00981657 0.007817481 0.006460167 -0.0075783734
000020 5e 8e 07 bc 4a fb 84 3b 1e 63 45 bb 29 a7 66 bc
       -0.008273689 0.0040582763 -0.0030118893 -0.01407794
000030 8b a5 f2 3b 3c 52 2b 3c 29 7e 1a bc 65 9d 15 bc
       0.007404988 0.010456618 -0.009429493 -0.009131764
000040 10 ce b6 3a 05 e7 3c 3c 2e 06 bd b9 9b dc 97 3a
       0.001394691 0.011529689 -0.00036053493 0.0011586131
000050 b6 e1 9f ba d7 2c 9a 3b 2a 1f 40 3c d3 52 3e 3b
       -0.0012198004 0.0047050524 0.01172618 0.0029041066
000060 dc 79 9b 39 8c 61 3b 3a 8d 7f 53 ba 1e 1d 59 bb
       0.00029654696 0.00071480195 -0.0008068018 -0.0033128927
000070 5d a0 24 3c 54 9d 3c 3b 8b ba 07 3c fb e1 04 ba
       0.010047999 0.0028780298 0.008284221 -0.0005069074
000080 46 3e 1e 3c 56 06 9e bb ad 38 40 3b 23 22 f1 bb
       0.009658402 -0.0048225326 0.0029330656 -0.0073588057
000090 b7 47 ba 3b bf 76 0c 3c 3f 7d a7 bb ec e7 67 bb
       0.0056848186 0.008573233 -0.005111366 -0.003538604
0000a0 44 34 35 bc e0 f8 37 3a 44 80 10 3c d6 68 8a bb
       -0.011059824 0.0007017981 0.008819643 -0.004223923
0000b0 de f2 fe 3b b8 61 45 3b da 59 b1 bb 1b 8f a6 3b
       0.007780417 0.003011806 -0.0054123225 0.0050829775
0000c0 9d db d0 3b e8 fa 44 3b ff 3f 63 bb 41 0b b0 bb
       0.006373836 0.0030056778 -0.0034675596 -0.0053724353
0000d0 58 15 b3 3b 30 34 29 bb 63 96 8a bb e1 af 29 bb
       0.005465191 -0.002581846 -0.0042293533 -0.0025892186
0000e0 67 b5 0e 3b 85 4a e1 3b 79 ef f2 bb 22 b2 1a 3c
       0.0021775605 0.0068753385 -0.0074138013 0.009441884
0000f0 38 30 19 3b 1c e6 11 3c 4f bc 2a 3c ba 77 ba 3b
       0.0023374688 0.00890496 0.010420873 0.005690542
000100 c7 21 12 3c cd 72 ac 3b 43 58 af bb ec 85 ed bb
       0.008919186 0.0052627088 -0.005351098 -0.0072486307
000110 fa 42 5c 3c 82 f5 56 bc 2d cc 4a bc 9a 2f 4d bb
       0.013443703 -0.013120057 -0.012377781 -0.003130889
000120 be 38 f4 bb 0f 5b 4f ba f7 52 18 bc 0c d8 7d ba
       -0.0074530533 -0.0007909992 -0.009297124 -0.00096833776
000130 62 dc e0 ba f5 c3 97 3b 67 60 1d 3c c4 38 95 bb
       -0.0017155523 0.004631514 0.009605504 -0.004553886
000140 ec b1 c0 bb e6 89 0c 3c 3c dd 44 bb ee 7c 18 bc
       -0.005880585 0.008577799 -0.0030039093 -0.009307129
000150 9d 66 b4 bb 53 6a df bb 8b 6d 5d bb e6 50 c4 39
       -0.0055053965 -0.0068180948 -0.0033787217 0.00037444307
000160 cf e0 2e 3c 8f e6 87 3b 7f 6a 95 3b 4a 4f 84 bb
       0.010673716 0.004147358 0.0045598145 -0.0040377723
000170 e3 14 4b bc 42 02 dd b9 48 7a 25 bc f9 4c d4 bb
       -0.0123951165 -0.00042154087 -0.010099955 -0.0064789024
000180 5b fa 23 ba a3 2b 19 3c ee 46 13 bc 9d 21 e0 3b
       -0.00062552624 0.009348783 -0.008989079 0.0068399445
000190 b3 70 86 bb 01 b8 0c 3b 30 23 75 bb 5b d8 14 3c
       -0.0041027903 0.002147198 -0.0037405007 0.009084786
0001a0 e5 fa be 3b 43 f0 1e bc f8 e2 c1 bb b7 36 16 3b
       0.005828249 -0.009700838 -0.0059169494 0.0022920796
0001b0 97 19 0b 3b 82 d0 37 bb 1f b7 ec bb a5 53 d4 3b
       0.002122497 -0.0028047864 -0.007223978 0.006479698
0001c0 ff 9f 4d ba 81 c7 03 bc dd 77 20 bc d7 b6 46 bc
       -0.00078439707 -0.008043171 -0.009794203 -0.012128553
0001d0 0b 9c 37 3c 73 85 2c 3b 47 79 00 3c 0d 79 86 3b
       0.011206637 0.002632466 0.007841415 0.004103786
0001e0 b9 8d 88 bb 4a 5d a7 bb d0 6d 03 3c 73 98 d8 3b
       -0.0041672853 -0.0051075565 0.008021787 0.0066099702
0001f0 f2 5b 23 3b 68 fa 77 39 a1 1c 9f ba d3 e9 1e 3c
       0.002492663 0.00023649039 -0.0012139269 0.009699303

conv2.lin.weight f4 [128, 128]
000000 e6 fd bb bd cb 39 67 3d 0c 7c e3 bd af 7e 2f 3d
       -0.09179287 0.0564516 -0.111076444 0.042845424
000010 e6 61 e7 bd c7 67 09 be 9d 66 47 3d 8d f3 b7 3d
       -0.112979695 -0.13418494 0.048681844 0.089820005
000020 64 2e 89 3d 54 9a 25 bd 8d 35 de 3b 0d 7f 8c bd
       0.066983014 -0.040430382 0.006781286 -0.068601705
000030 37 af b3 bd 78 e6 92 bc f9 f4 08 bb 6f 16 21 3e
       -0.08773654 -0.017932162 -0.0020897968 0.15731214
000040 09 8d e0 3d df ef be bd d6 c9 af bb 02 80 3c bd
       0.109644 -0.093230955 -0.005364637 -0.046020515
000050 4b c3 99 bd 74 9f fe 3c 60 2d 25 bc 70 93 a3 bd
       -0.07507952 0.031081893 -0.010081619 -0.07987106
000060 a4 d8 f7 3d 99 7c af bd 98 74 44 3d 27 64 0a be
       0.12101868 -0.08568687 0.047962755 -0.13514768
000070 c3 39 c7 3c 97 a9 c2 bc 87 66 86 bd d5 e5 1e bd
       0.024319535 -0.023762507 -0.06562524 -0.038793404
000080 ed 18 15 3e 69 81 cf 3d db 00 7f bd f4 0d 01 3e
       0.1456029 0.10132105 -0.062256675 0.12602979
000090 7f 84 e1 bd 36 a1 c8 bd 8e 07 a3 3d d6 40 1c be
       -0.110116 -0.097963735 0.07960425 -0.15259108
0000a0 ce f2 a0 3d 3c 7f cf bd 57 36 20 be d9 03 f0 bd
       0.07858811 -0.1013169 -0.15645729 -0.11719484
0000b0 fd 09 80 bd ce 4c eb bd dc 7f 9f 3d 8d 47 07 bd
       -0.06251905 -0.11489259 0.07788059 -0.03302722
0000c0 02 bd 1e be a3 fb 06 3e d8 c5 37 3c 32 db e8 3d
       -0.15501788 0.1318193 0.011216603 0.11369933
0000d0 c5 19 e3 bc cd 3a e8 bc dc 40 17 3c 95 45 cb bd
       -0.027722249 -0.02834835 0.009231772 -0.09925381
0000e0 a9 70 26 3d 91 60 15 be 49 91 21 be ef b4 01 bd
       0.040634785 -0.14587618 -0.15778078 -0.031666692
0000f0 63 d9 11 3e f6 aa ef 3d 4a cb 8d 3d 30 2f c9 bd
       0.14243083 0.1170253 0.0692354 -0.098234534
000100 e1 96 31 3d 65 84 66 3b 82 77 cb bd bd 92 e3 3c
       0.04335678 0.0035174128 -0.09934904 0.027779931
000110 97 9e 09 be 3a 69 d8 3d 10 99 0f be bb 47 df bd
       -0.13439403 0.105669454 -0.14023232 -0.109023534
000120 e3 27 d7 3d c0 a7 70 bd c5 3c 18 be 0e ba 1e bd
       0.10505655 -0.05875373 -0.14866932 -0.038751654
000130 6d f3 2f 3d de e1 20 ba 5e dc 01 bd db de 1b be
       0.04295676 -0.00061371725 -0.0317043 -0.15221731
000140 67 f8 7c 3d ae 83 f1 bd 7c 94 c2 bc e6 8c d8 3d
       0.061760332 -0.11792694 -0.023752443 0.10573749
000150 c5 80 55 3d 50 d5 e6 bc 2c c3 c0 3c 6d ae 80 bd
       0.052124757 -0.028177887 0.023530565 -0.06283269
000160 b7 da 09 3e 38 a9 1a be 50 49 c6 bd 0e 04 fc ba
       0.1346234 -0.15103614 -0.09681952 -0.0019227283
000170 7e 78 10 3e ec 6a 9b 3d 9e 95 d3 bd cc 46 e6 bb
       0.14108464 0.07588753 -0.103312716 -0.0070274826
000180 9d 3c fa bd b9 8b 4d 3d b2 49 08 be 6c 9e d5 bd
       -0.12218592 0.050182078 -0.13309363 -0.10430607
000190 ee d1 c9 bd f9 76 ab bd aa 7c cf 3d bd 0f 09 be
       -0.09854494 -0.083723016 0.101312 -0.1338491
0001a0 44 fb 3c bc 04 d4 03 be 62 6f 08 bd 24 1b a3 bd
       -0.011534516 -0.12873846 -0.033309348 -0.07964161
0001b0 48 f8 93 bd 61 1d da 3c 5d 01 27 3d df 6b ce 3d
       -0.0722509 0.026625337 0.040772785 0.100791685
0001c0 56 39 a9 3d 9e 04 02 3e 0f 73 07 be d6 91 09 3e
       0.08262889 0.12697074 -0.13227485 0.13434538
0001d0 7f f8 9d 3d c7 05 61 3d 48 b7 4b 3d d4 ef ba bd
       0.077134125 0.05493715 0.049735337 -0.09127775
0001e0 d4 e3 22 3e 9b 66 5b bd da 77 c9 3a 14 b1 70 3d
       0.15907222 -0.05356465 0.0015370802 0.058762625
0001f0 05 5c d6 bb 95 44 22 3d 90 d8 8f 3d 55 35 e7 bd
       -0.0065417313 0.039616186 0.07023728 -0.11289469
000200 90 4a c5 bd a5 05 39 3d fc 81 9c 3d d6 60 ee bd
       -0.09633362 0.0451714 0.0764198 -0.11639564
000210 c6 15 0c 3e 94 83 97 bd d4 fa 18 3e 77 95 8a 3d
       0.13680181 -0.073981434 0.14939433 0.067667894
000220 5b c8 65 3d 7a 40 1e 3d b6 ae 04 3e c3 57 ee bd
       0.056099277 0.03863571 0.12957272 -0.11637833
000230 0c 8a 0a bb 39 ae d0 bc a3 1c 93 bd 41 0a dd bd
       -0.0021139411 -0.0254737 -0.071831964 -0.107929714
000240 58 1d 17 3e 1a 5a f7 3c 06 20 34 3d 8e 06 49 bd
       0.14757288 0.030194331 0.043975852 -0.049078517
000250 b8 e4 99 bd 9e a6 f8 bc 32 cc 21 3e ba 79 b2 3d
       -0.07514328 -0.030352887 0.1580055 0.08714624
000260 21 94 e1 3d f5 4b 08 be 5e c8 14 bb f5 c9 62 3d
       0.110145815 -0.13310225 -0.0022702436 0.055368382
000270 8e 6d 9e 3c 52 d3 cd 3c fa 22 83 bd 17 ee a1 3d
       0.01933935 0.02512518 -0.064031556 0.0790674
000280 9b a1 1f be 7f 73 65 bc 97 9e 0e bb 17 e7 35 3d
       -0.15588991 -0.014004587 -0.0021762007 0.044409838
000290 f6 37 05 ba 93 6d cf 3d 7e b5 33 bd d6 17 57 3d
       -0.0005081886 0.101283215 -0.043874256 0.052512966
0002a0 d7 3e 8a bd dc da d4 bd 75 7c e5 3d 15 97 59 bd
       -0.06750267 -0.103933066 0.11205379 -0.0531226
0002b0 9f c4 d1 3c c7 9a d8 3c 85 dd a0 3d 29 10 42 3d
       0.025606452 0.026440991 0.078547515 0.047378693
0002c0 2a 6c c1 3d c8 6d 53 3c dc 5b ca bd ec e7 ce bc
       0.09444459 0.012904592 -0.09880802 -0.025257073
0002d0 c9 db 82 bd 52 13 bf bd 3e 4f f9 3d 4f 16 18 3e
       -0.06389577 -0.09329857 0.121733174 0.1485226
0002e0 67 a5 77 3d bb 72 8f 3c 23 a8 0e be 00 bf 1b 3e
       0.060460474 0.017510762 -0.13931327 0.1520958
0002f0 84 05 67 3d 17 7b 95 3d a3 27 95 3d 2a e6 78 bd
       0.056401744 0.07298868 0.07282951 -0.060766377
000300 e0 68 10 be 90 0c 55 bd 47 66 80 bd 25 8f 13 3e
       -0.14102507 -0.052013934 -0.06269508 0.14410074
000310 49 05 de bd d0 7c 09 3e 50 6f a8 3d f3 13 18 bd
       -0.10840852 0.13426518 0.08224356 -0.0371284
000320 56 c3 90 3d a3 42 ac 3d 5b 7a 91 3c f2 61 59 3c
       0.070685074 0.084111474 0.017758539 0.013267981
000330 7f e6 94 3d 2c f7 eb 3d 6a 61 af 3d b7 b4 6a bb
       0.07270526 0.11521754 0.08563502 -0.003581328
000340 2f 7d e7 bc 24 9b 01 bd b2 5f b6 bd 67 d9 3f bd
       -0.028257934 -0.031642094 -0.08904971 -0.04683819
000350 4b 78 21 be aa 26 77 bd 44 48 1e bd 3d b5 c8 bd
       -0.15768544 -0.060339607 -0.038643137 -0.098001935
000360 e1 80 a4 bb 6c fc 9e 3d 05 52 1b be a0 02 c7 3d
       -0.0050202464 0.077629894 -0.15168007 0.097172976
000370 d0 37 ea bd 0b cc ae 3d 04 b1 9a bd dc 4a ea bd
       -0.11436427 0.08535012 -0.07553294 -0.114400595
000380 9a 15 9c bd aa 93 db bd e1 19 d9 3b c6 ab 13 3e
       -0.07621308 -0.10721524 0.0066253995 0.14420995
000390 a5 02 c3 bd 11 36 a7 3d c3 87 b7 bd 44 97 a1 bd
       -0.09521989 0.08164609 -0.08961441 -0.0789018
0003a0 c1 b3 f2 bd a8 00 de bc 93 35 41 bd 6c ef e3 bd
       -0.118506916 -0.027099922 -0.047170233 -0.111296505
0003b0 28 27 c2 bd a7 0a 24 bd 8b 6b fb 3d ed 60 08 3e
       -0.09480125 -0.04004922 0.122763716 0.13318224
0003c0 db a5 a6 bd 48 7c 3b bd 3e c3 fa 3d 1c 28 73 bd
       -0.08137103 -0.04577282 0.12244271 -0.059364423
0003d0 24 94 b3 bd e7 09 cb bc b0 28 8a 3c ce c3 88 3c
       -0.0876849 -0.024784995 0.016865104 0.01669493
0003e0 81 0a 1d 3e fc 91 76 3d 59 f6 1d 3e 71 51 32 bd
       0.15336038 0.060197815 0.15426005 -0.0435347
0003f0 39 78 cc 3d 4d 56 23 3e 0f 80 25 3c 31 eb 8b 3d
       0.09983868 0.1595089 0.010101332 0.068319686
