pretrained_gnns/Cora_EdgePredGPPT_GCN_1.pth (torch, 802704 bytes, 4 tensors)

conv1.bias f4 [128]
000000 84 e2 84 3e 9b 12 b1 3d f1 17 64 3d 37 3e 5f bc
       0.25954068 0.08646127 0.055686895 -0.013625673
000010 dc 16 6f 3d 70 92 2d 3e d8 2c ee 3d 57 43 92 3d
       0.05837141 0.16950393 0.11629647 0.0714175
000020 86 cc 76 3d fb d0 80 3e 18 ef 0a 3e 91 a7 88 3d
       0.060253642 0.2515944 0.1356777 0.06672586
000030 b4 52 79 3e 3f ce 92 3d d0 41 6c 3d 8f 85 b7 3d
       0.24347955 0.071682446 0.05767995 0.08961021
000040 8b 9d 27 3e e4 3c eb 3d 08 cf f3 bc 2b f3 27 3e
       0.16368692 0.11486223 -0.029761806 0.16401355
000050 6f 29 95 3d 76 23 a5 3d e4 5e 58 3e 4d cd 48 3d
       0.072832935 0.08063404 0.21129948 0.049023915
000060 e1 71 b5 3d 86 ee a6 3d a7 57 9b 3d 3d 39 64 3d
       0.08859611 0.081509635 0.07585078 0.05571865
000070 25 67 1e 3e 5f ce b1 3d e0 e2 b8 3d 1c 4f a2 3d
       0.15469034 0.0868194 0.09027648 0.07925245
000080 27 2d 22 3e 79 cb 7d 3d 50 2e 0f 3e 7b b5 55 3c
       0.15837537 0.061961625 0.1398251 0.013043757
000090 61 7d 78 3d 0d 62 74 3e ff 02 d9 3d 11 aa db 3d
       0.060666446 0.23865528 0.105962746 0.10725797
0000a0 f6 cd 84 3e 16 c8 85 3e df 2f 05 3e b7 75 54 3e
       0.25938386 0.26129216 0.13006543 0.2074803
0000b0 55 77 37 3d ae 06 18 3e 1a ee d0 3d e3 ae 2a 3e
       0.04479154 0.14846298 0.10201664 0.16668276
0000c0 f8 c0 8f 3d 15 e2 8d 3d e2 70 b4 3d 41 cf b1 3d
       0.07019228 0.06927887 0.08810593 0.08682109
0000d0 e4 5d a2 3d 34 f5 53 3d d1 f9 c3 3d 5d 2a 35 3e
       0.079280645 0.051747516 0.09569133 0.17691942
0000e0 83 b5 ab 3d 91 06 e3 3d 49 33 be 3d 3e 3c 5f 3e
       0.0838423 0.11085237 0.092871256 0.21800324
0000f0 3d bb b1 bd fa 01 3e 3e af fc ed 3d 7f b1 e9 3d
       -0.08678291 0.18555441 0.11620461 0.11410808
000100 8d 2a 93 3d 3f bf 3d 3d cf bf a5 3d 2e 95 01 3e
       0.0718585 0.046324965 0.08093225 0.12654564
000110 ae 2c 41 3d c0 66 ba 3d 7c bf 1b 3e b2 df 2d 3e
       0.04716175 0.09101629 0.15209764 0.16979864
000120 3b 7c 47 3e ba 45 ee 3d da 1e 78 3d 92 47 05 3e
       0.19480984 0.11634393 0.060576297 0.13015583
000130 dc 01 b1 3d 00 ea fb 3d 34 3c b0 3d 1f 32 f8 3d
       0.08642933 0.12300491 0.08605233 0.12118935
000140 43 fb 26 3d 40 4f a1 3d f0 d9 25 3e 06 7f 24 3e
       0.040766966 0.07876444 0.16196418 0.1606408
000150 0a ee 3e 3d 27 88 3a 3e 6a 67 87 3d 77 5f 81 3e
       0.04661373 0.18216 0.066115215 0.25268146
000160 5b cd a1 3d 39 fb 2b 3e ab 3e 84 3d bd 13 56 3d
       0.079004966 0.16795053 0.064572655 0.052264918
000170 94 16 87 3d dd e8 dd 3d 8b 8b b7 3d ab 45 fd 3d
       0.06596103 0.10835431 0.089621626 0.12366804
000180 be df 39 3d ed 61 19 3e 4f 25 66 3e ba 08 21 3e
       0.045379393 0.14978762 0.2247517 0.15725985
000190 9e 1f dc 3d 4e 5a e2 3d 2e b2 cc 3d 1d df a4 3d
       0.10748218 0.110523805 0.099949226 0.08050368
0001a0 39 89 47 3e 91 d5 09 bd a7 59 85 3d b5 d0 8c 3d
       0.1948594 -0.03365094 0.065112405 0.06875745
0001b0 45 19 80 3e 4b 86 91 3d 1b c2 43 3d 6b a2 39 3d
       0.2501928 0.071056925 0.047792535 0.04532091
0001c0 d0 df ad 3d eb e9 01 3e 9d b1 e1 3d 9b e4 cc 3d
       0.084899545 0.12686889 0.11020205 0.100045405
0001d0 50 21 be 3d d9 8d 64 3e c0 9d f1 3d 2e 63 41 bd
       0.092836976 0.22319736 0.117976665 -0.047213726
0001e0 79 3f a4 3d 76 b5 68 3e 1e a7 ef 3d 7d 77 b9 3d
       0.08019919 0.22725472 0.11701797 0.09055994
0001f0 63 c3 8f bd f7 de bd 3d c1 81 0b 3e 6e 6f 48 3d
       -0.07019689 0.09271043 0.13623716 0.048934393

conv1.lin.weight f4 [128, 1433]
000000 05 46 4b 3d d0 6a 57 3d b8 17 53 bd d7 25 8b bc
       0.049627323 0.0525921 -0.05153629 -0.016985817
000010 ba 06 c3 3d b4 98 45 bd 72 0a 0b 3d 7e 53 9b 3d
       0.09522767 -0.048241332 0.03394551 0.07584284
000020 1a bd 89 bd c1 96 4f bc ff 11 88 3c 81 c7 81 bc
       -0.067255214 -0.01267022 0.016610144 -0.015842201
000030 45 d2 8e bc 42 cc 90 3d 74 6d 72 3b 03 cf 19 3c
       -0.017434249 0.07070209 0.0036991509 0.009387734
000040 fa 2b 1d 3b 26 9f 15 3d c2 59 b6 bc d1 4d 00 bd
       0.002398251 0.03652873 -0.022259597 -0.03132421
000050 f2 af df 3c 2d 4b 5a 3d eb a6 28 be df bb 30 bd
       0.027305577 0.05329435 -0.16469924 -0.043147918
000060 6e 48 a2 3d 59 3b a7 3d 31 d0 73 3d 6d a9 e0 3d
       0.07923971 0.081656165 0.05952472 0.109698154
000070 e6 05 ef bc b1 2f cd 3d 10 e3 8b bd b2 e5 ba 3d
       -0.029177617 0.10018862 -0.06830418 0.09125842
000080 82 34 fb bc e5 9e 41 bd 2c a3 45 3c cc d7 2d bc
       -0.030664686 -0.047270674 0.012062829 -0.010610532
000090 96 cb 2e 3c 59 43 98 bd e8 68 29 bd 0a d0 7e 3c
       0.010668656 -0.074347205 -0.041359812 0.01555253
0000a0 c0 f0 d6 bd af 25 db bc 4d 8e 97 3d 98 15 4b bd
       -0.10495138 -0.026751367 0.074001886 -0.04958114
0000b0 28 b2 8c bd d7 f6 a8 3d 49 22 82 3d af f0 33 3c
       -0.06869918 0.08250206 0.063541956 0.010982676
0000c0 ab 09 8a 3d 60 67 18 3d 1c cf a3 3d a7 a7 42 3d
       0.06740125 0.03720796 0.07998487 0.047523167
0000d0 1a dd 59 3c f9 47 44 bd 1c 5d eb bc 79 ad be 3d
       0.013297344 -0.0479202 -0.028730921 0.09310431
0000e0 26 97 50 3d d7 1d 54 3d 7f 48 6b bd f8 23 d5 bd
       0.050925396 0.05178627 -0.057442185 -0.10407251
0000f0 bc 0e a2 bc 21 e8 c1 bc e5 2d cf 3c fd d4 2f 3d
       -0.019782417 -0.023670258 0.025290439 0.04292773
000100 a7 b5 96 bd f5 cc a0 3c aa a8 ff bc 0a b3 89 bd
       -0.07358866 0.019628981 -0.031208355 -0.06723602
000110 2b c4 d6 bd 91 68 f5 3c f8 b8 dc bd 83 29 c6 3d
       -0.10486635 0.029957088 -0.107774675 0.096758865
000120 62 1d 8e 3d 19 a9 c0 3d 34 e0 06 bd 3d b8 dd 3d
       0.06939198 0.09407253 -0.03292866 0.10826156
000130 b5 5a 9e bc 47 fa aa 3d 26 72 a6 3d 40 23 cc bd
       -0.019330362 0.08348518 0.08127241 -0.09967661
000140 c9 19 48 bd f8 e4 c5 3c cd 5b 8e bc 3b 7f b4 bd
       -0.048852716 0.024157032 -0.017377758 -0.0881333
000150 d9 7b 67 bd 45 b7 53 be e2 8f 7d bc 77 43 12 3e
       -0.056514595 -0.2067538 -0.015476199 0.14283548
000160 e0 1c ac bc 01 6b 8c bd 44 9c cf bd 43 f4 4e 3d
       -0.021009862 -0.06856347 -0.10137227 0.050525915
000170 60 34 e3 3c e3 1a 9d 3d 33 ef 60 bd d7 f5 26 bc
       0.027734935 0.07671144 -0.05491562 -0.010190449
000180 2f ae 43 3d 8e 48 9e bd 04 fd 5e 3d 0a c2 52 3d
       0.047773536 -0.077286825 0.054440513 0.05145458
000190 aa 8b 18 bd 22 2b 7a bc 3f 1f 8f bd 82 12 e1 3c
       -0.03724257 -0.015269073 -0.069883816 0.027474646
0001a0 3a 62 b4 bc 8e 59 a9 3c 84 26 cf bd e5 fc 8e 3d
       -0.022019494 0.020672586 -0.10114768 0.069818296
0001b0 55 6a f3 bc af d3 54 3d 2b ae 52 3d b4 26 a2 3c
       -0.029713789 0.05195969 0.05143563 0.019793846
0001c0 d1 79 56 be 1a dd 8a 3c 8b 5c 10 bd ac ab e4 3c
       -0.20944907 0.016951133 -0.035244506 0.02791389
0001d0 a3 0d 97 bd 4b 47 c8 bd 45 c8 41 bb 7d a2 1c 3d
       -0.07375648 -0.09779223 -0.0029568833 0.0382409
0001e0 b8 50 ec bb 5a 81 74 bd 58 ad 86 bd e4 f4 22 bd
       -0.007211771 -0.05969367 -0.065760314 -0.039784327
0001f0 1b 4f 61 bd 60 4d 32 bc 76 42 ca bd 8a 92 13 3d
       -0.05500708 -0.010882705 -0.09875958 0.036028422
000200 df 08 02 3e 53 9a 5f bc e2 15 3b 3c 81 09 88 3c
       0.12698697 -0.013647634 0.0114187915 0.016606094
000210 2a 35 21 3b cf 03 e4 bc d7 80 45 3c cf 5a a8 3d
       0.0024598339 -0.027833847 0.012054644 0.08220445
000220 e7 58 a4 bd 88 71 c6 3d 98 8e 9a bb d4 48 11 3c
       -0.08024769 0.09689623 -0.0047167055 0.008867461
000230 02 ff 14 bc 05 c9 35 bd 73 5f a9 bd d4 db 6b 3c
       -0.009094002 -0.04438116 -0.082701586 0.014395673
000240 43 1b b7 3d 87 39 52 3c 4e c8 05 be 4c 5e e6 bd
       0.08940747 0.012831098 -0.13064691 -0.112484545
000250 ba e3 1e 3d b6 0c eb bd c9 0c 92 bc 51 a3 a1 3d
       0.038791396 -0.11477034 -0.017828362 0.07892478
000260 79 f8 42 3e 32 4c 25 bd af 3c 8f 3d b2 eb 78 3d
       0.19040097 -0.04035587 0.06993996 0.06077165
000270 50 e6 85 bc 01 4d 90 bb f3 7b b4 3d b7 fb 40 3c
       -0.016345173 -0.004403711 0.08812704 0.0117787635
000280 2f e7 36 3d 6e 3b 72 bd 7f b2 c0 3d b3 40 ef 3c
       0.044654068 -0.059138708 0.094090454 0.029205656
000290 cf 42 6d 3d 7c d5 5c 3d 76 5a 1f bd 60 32 22 3c
       0.05792504 0.053914532 -0.03890463 0.009899706
0002a0 3f 34 79 bc 72 bb 34 3d f1 d5 81 bd c9 e9 dd 3b
       -0.01521021 0.044124074 -0.06339634 0.006772254
0002b0 fe 8c 77 bd 1e 02 e4 3c 9e a8 91 3c 2b 6f 68 bd
       -0.060437195 0.02783304 0.017780598 -0.056746643
0002c0 92 16 b9 bc 05 4a 84 3d 9c 6e 46 3c b9 8b c6 bc
       -0.02259377 0.064594306 0.012111332 -0.024236547
0002d0 ef 3f 8f bd 63 9d 76 bd 1b 38 f1 3c ea 53 12 be
       -0.06994616 -0.06020869 0.029445698 -0.14289823
0002e0 ad 8a 0d 3e 30 cf e5 bd 0a 06 9f 3d 08 67 3e bc
       0.13822432 -0.112211585 0.07764824 -0.011621244
0002f0 08 1f 30 3d 8e 09 92 bd a0 22 e3 bd 67 12 14 3d
       0.042998344 -0.07130729 -0.110905886 0.036150362
000300 f0 f9 c8 bc 41 4e 87 3d 16 8c ac bc 44 cc 00 3c
       -0.024533242 0.066067226 -0.021062892 0.007861201
000310 78 fe 47 bd 50 d1 f6 bd 9a 4c 48 bc 23 6c a2 bd
       -0.048826665 -0.12051642 -0.0122252945 -0.07930782
000320 12 ec 55 3d f6 5d 14 be ed 42 eb bd 0a 7a 16 bd
       0.052227087 -0.14488968 -0.114873745 -0.03673748
000330 5d ee 89 3c a7 2c a8 bc 83 81 ff 3c 2d 27 a3 3d
       0.016837293 -0.020529104 0.031189686 0.079664566
000340 28 9e 0c be 23 69 5b bc f8 c4 8b bd 02 61 a5 bc
       -0.13732207 -0.013391766 -0.06824678 -0.020187858
000350 26 57 04 3d 12 8f 33 3e 9a 45 21 3c f0 58 2b 3d
       0.032309674 0.17535046 0.009843254 0.041832864
000360 65 e2 a2 3d 4d 67 05 bd 1b 1f b7 3d 29 a0 8d bc
       0.079533376 -0.03256922 0.0894148 -0.017288284
000370 6e 55 80 3d b9 11 73 3d 75 e1 e5 bb 62 14 3b 3d
       0.062662944 0.059343074 -0.007015402 0.045673735
000380 85 a2 c4 3d 17 29 00 bd e5 59 37 3d d8 15 83 3c
       0.09601311 -0.031289186 0.044763464 0.016001627
000390 80 2e 74 bd ce ee bb 3c 1c f2 ff 3c 09 86 09 bc
       -0.05961466 0.02294102 0.031243376 -0.008393773
0003a0 6b ac 46 be f8 4e df bd 7b 5c 47 bc b0 c6 a0 bd
       -0.1940171 -0.10903734 -0.012168045 -0.07850397
0003b0 cd 3e 30 bc e9 4d 65 3d 6b 4a b3 bc 03 48 33 3d
       -0.01075716 0.055982504 -0.021886071 0.043769848
0003c0 0f 34 46 bd a9 cf 98 bc 0a c9 36 3d 0e 98 33 3a
       -0.04838949 -0.018653708 0.04462532 0.0006850966
0003d0 f8 f7 3c bd 7d c7 aa bb b5 72 02 bd 9a 84 8c bd
       -0.04613492 -0.005211769 -0.031847674 -0.06861229
0003e0 b5 cb 8e bd a9 ab 7d bd 70 80 2a 3d 34 60 83 3c
       -0.06972448 -0.061931286 0.041626394 0.016037084
0003f0 e2 a3 50 bd 15 f2 08 be a4 ff 37 bd 87 14 8e 3d
       -0.05093754 -0.13373597 -0.044921532 0.06937509

conv2.bias f4 [128]
000000 64 b7 29 3e 85 a4 2c be 68 1e 15 be 2e 45 44 be
       0.16573864 -0.16859634 -0.1456238 -0.19167015
000010 b6 f9 ef bd 2b f6 34 3e 8b a3 09 be ad 88 34 3e
       -0.117175505 0.1767203 -0.13441293 0.17630263
000020 01 70 0e 3e 96 12 00 3e 80 2c 02 be 7f cc 21 3e
       0.13909914 0.1250709 -0.12712288 0.15800665
000030 ec 64 3d be 39 f5 3f 3e bc c6 27 be 45 07 61 be
       -0.1849553 0.18745889 -0.16384405 -0.2197543
000040 9f 46 a7 3e 2c 56 ed bd 17 6e 2c 3e bb 81 39 3e
       0.32671067 -0.115887016 0.16838871 0.18115894
000050 05 bc da bd 54 2a 10 3e dd 49 30 3e ec aa 26 be
       -0.10680393 0.14078647 0.17215677 -0.16276139
000060 a0 79 93 bd 59 6a 06 3e eb 6c fc bd a0 87 3c 3e
       -0.072009325 0.13126506 -0.12325462 0.18411112
000070 9e a1 3b 3e c2 10 3b be 22 f0 e1 3d 5b 69 51 be
       0.18323371 -0.18268111 0.1103213 -0.20450346
000080 60 0a 04 3e 9c c6 50 3e 57 92 6b 3e 5d cf 22 be
       0.12894583 0.20388263 0.23005043 -0.15899415
000090 4a 38 e0 bd 37 a1 d8 3d 50 3b 1c be bc 94 2f 3e
       -0.10948236 0.10577624 -0.15257001 0.17146581
0000a0 3f 4d b8 bd b1 65 03 be 3a db df 3d 41 bb 33 be
       -0.089991085 -0.12831761 0.10930486 -0.175519
0000b0 06 45 fe 3d d5 34 06 be 58 66 14 be 7c 64 34 be
       0.12415509 -0.13106091 -0.14492166 -0.17616457
0000c0 11 01 12 3e 7e 4b 1f be 81 7f 9f 3d 55 59 3a 3e
       0.1425822 -0.15556142 0.07787991 0.1819814
0000d0 e5 15 44 3e d5 b0 0a be 13 45 8e be d6 41 38 3e
       0.19148977 -0.13544019 -0.27787074 0.17993864
0000e0 44 4d 14 3e 6c 8d 3c 3e 51 9e 1f 3e dd f0 1f 3e
       0.144826 0.18413323 0.15587737 0.15619226
0000f0 cd 9e 03 be d9 4a 07 be 55 ff dc bd bf c3 87 bd
       -0.12853546 -0.13212146 -0.10790888 -0.066291325
000100 33 6c 89 bd f5 dd 05 3e b8 99 48 be 49 2e 41 3e
       -0.067100905 0.13072951 -0.19589889 0.18865313
000110 70 1a 32 be f4 db 2b 3e 6e 99 00 be b4 d3 35 be
       -0.17392898 0.16783124 -0.12558529 -0.1775654
000120 2f 2b 1b be 7a 0a c0 bd 8c cf 1b 3e a1 c8 33 3e
       -0.15153192 -0.09376998 0.15215892 0.17557003
000130 08 84 1f be 4f f8 19 be 8d 16 f5 3d fd 3e bf 3d
       -0.1557771 -0.15036128 0.11967192 0.09338186
000140 ae c4 0d be 9b c1 5c 3e 84 c7 4a bd 69 27 23 be
       -0.13844559 0.2155823 -0.04950668 -0.15933003
000150 76 76 14 3e ad e8 38 be bf dc 27 be 3b 63 8e be
       0.14498314 -0.18057509 -0.16392802 -0.27810082
000160 1d 7d 29 be 34 8c 74 3d 86 79 21 3e 85 9e 1d be
       -0.16551633 0.05970402 0.15769014 -0.15392502
000170 6e 8a 17 be cc 79 14 3e 50 2a 3a 3e 21 1f 6c 3b
       -0.147989 0.14499587 0.18180203 0.0036029296
000180 d7 b6 2f 3e 21 98 3b 3e e9 60 33 3e 7b 13 17 3e
       0.17159592 0.18319751 0.17517437 0.14753525
000190 9a 3f 25 3e 49 44 e1 3d f7 29 86 3d 09 cc 0d 3e
       0.16137543 0.109993525 0.06550973 0.13847364
0001a0 b6 80 4b be d8 7f 0b be 3a f8 85 bd 3f 9d 21 3e
       -0.19873318 -0.13622987 -0.06541486 0.15782641
0001b0 21 2c 26 3e db 73 0e be 0c df 3b be eb c0 1c be
       0.16227771 -0.13911383 -0.18346804 -0.15307967
0001c0 c5 8e b8 3d f7 11 ea 3d c3 ce 08 be f7 2b 08 be
       0.09011606 0.11429208 -0.13360123 -0.13298021
0001d0 b6 c2 d2 bd 9c b8 23 be 95 61 0e be 40 d5 09 3e
       -0.102910444 -0.15988392 -0.13904412 0.13460255
0001e0 4e 5c 20 be 37 15 26 be fc f0 15 be 12 98 0c 3e
       -0.15660211 -0.1621903 -0.1464271 0.13729885
0001f0 b8 05 d5 3d 75 13 e5 3d 3c 40 7e be ef 88 c6 3d
       0.104014814 0.11185352 -0.24829191 0.09694087

conv2.lin.weight f4 [128, 128]
000000 22 8d c2 bd bd d0 fa 3c 7b de 9a bd d1 96 7d bc
       -0.09499575 0.030617112 -0.07561966 -0.015477852
000010 7f 67 98 bd c9 fc cf bd be 11 66 bc d5 bb 90 3d
       -0.07441615 -0.10155637 -0.014042316 0.07067076
000020 28 7d e9 3c 07 88 65 bd b3 f7 12 3c cc b1 e8 bd
       0.028502062 -0.05603793 0.008970189 -0.11362037
000030 a0 63 03 be 3b e5 da bc 83 52 33 3c c8 47 20 3e
       -0.12830973 -0.026720634 0.010944965 0.15652382
000040 a0 86 94 3d d2 66 d2 bd bd a1 2f 3d 68 cd a8 bd
       0.0725224 -0.10273518 0.042878855 -0.08242303
000050 56 55 95 bd 4c f4 ff 3c 4b dd 63 bd 8c 5b aa bd
       -0.07291667 0.03124442 -0.055630963 -0.083182424
000060 bc 2e 65 3d 11 c4 ef bd fa 0d 6c 3d f4 58 26 be
       0.055952772 -0.117073186 0.057630517 -0.1624487
000070 5f f5 fe 3c 25 90 70 bd 88 af 83 bd cc 0b 5a bd
       0.031122861 -0.058731217 -0.06429964 -0.053233907
000080 ed 53 73 3d 04 3e 29 3e cb c8 5b bd 04 04 ee 3d
       0.05940621 0.16527563 -0.053658288 0.1162186
000090 05 25 0d be 50 69 f7 bd d7 8f 86 3d 41 0e 33 be
       -0.13783653 -0.12080634 0.06570404 -0.17485906
0000a0 71 86 77 3d b1 c1 00 be 69 ef 33 be 05 d3 11 be
       0.060430948 -0.12573887 -0.17571796 -0.14240654
0000b0 d7 8e 09 bd cf d6 e6 bd d8 2a 00 3e 6b 36 eb bd
       -0.03358349 -0.1127144 0.12516344 -0.11484989
0000c0 ee 1d 11 be ba f3 04 3e 5a 53 91 3c 61 46 d8 3d
       -0.14171574 0.129836 0.01773994 0.10560299
0000d0 d1 dd ad bc e6 56 3b bc d2 6b 0e 3d 12 43 3b be
       -0.021223934 -0.011434292 0.034770794 -0.18287304
0000e0 b7 98 3b 3d 8d 56 32 be 1e 01 3c be aa bb a3 bd
       0.045799937 -0.17415829 -0.18359801 -0.079947785
0000f0 c2 b3 09 3e 90 c9 e6 3d f6 5d be 3d ad ec 91 bd
       0.13447478 0.11268914 0.092952654 -0.071252204
000100 4e f8 91 3d eb 58 2d 3d 26 c7 96 bd a2 7c f9 3a
       0.071274385 0.042321127 -0.07362203 0.0019034336
000110 21 da 18 be a1 d5 08 3e cc 83 36 be 4c 2d 38 be
       -0.1492696 0.13362743 -0.17823714 -0.1798603
000120 44 66 67 3d 39 55 52 bc 18 e3 1e be 87 59 b4 bd
       0.056494012 -0.0128377015 -0.15516317 -0.088061385
000130 94 40 02 3d 51 f9 ae 3b ee f0 42 bd 10 30 00 be
       0.031799868 0.0053397794 -0.04759305 -0.12518334
000140 df d0 87 ba f6 51 cd bd 6b be 03 bd f3 df 97 3d
       -0.0010361931 -0.100253984 -0.03216402 0.07415762
000150 83 1b cf 3d fe 62 a8 bd 1f b1 e0 bd 83 35 8e bd
       0.10112669 -0.08222006 -0.10971283 -0.069438
000160 7d fb 60 bc 75 a1 18 be 17 42 01 be e3 3e da bb
       -0.0137318345 -0.14905341 -0.12622868 -0.0066603287
000170 80 b9 18 3e 45 45 b0 3d d6 a6 94 bd 89 6c 25 bc
       0.14914513 0.08606962 -0.07258384 -0.010096678
000180 bb 69 28 be 89 88 4f 3d 6f 19 31 be be 5a db bd
       -0.16446583 0.05066732 -0.17294858 -0.10710667
000190 0e d8 0e be 79 c2 99 bd e8 fc f5 3d 58 ae 1a be
       -0.13949606 -0.07507796 0.12011129 -0.1510557
0001a0 15 4e d8 bc af 63 50 be a1 40 1d bd 62 0c 20 bd
       -0.02640442 -0.20350526 -0.038391713 -0.03907431
0001b0 34 21 ab bd 8b 80 0a 3d ea a5 91 3d 72 79 da 3d
       -0.08355942 0.033813994 0.07111724 0.10667695
0001c0 fa d3 5b 3d 98 bc ed 3d be a4 1f be 9e 9c 0b 3e
       0.053668953 0.11608237 -0.15590188 0.13633963
0001d0 b0 68 89 3d f6 43 62 3b 29 e6 51 3d f8 b3 3b be
       0.06709421 0.003452537 0.05124489 -0.18330371
0001e0 43 e3 4a 3e d2 5a a0 bd 37 ec e8 bc 0d f8 52 3d
       0.19813256 -0.078298226 -0.028432949 0.05150609
0001f0 e1 3e 10 bd dc 46 22 3c b5 ca 5d 3d aa 99 17 be
       -0.035216216 0.0099045895 0.054148395 -0.14804712
000200 53 72 db bd d3 88 fd 3d 63 e6 c9 3d 68 1e 31 3d
       -0.10715165 0.12379613 0.09858396 0.04324189
000210 c8 aa 13 3e ed 16 cf bd ce ad 3e 3e 54 e4 47 3e
       0.14420617 -0.101117946 0.18620989 0.19520694
000220 ea 7f 2e 3d 3b 9b 16 3d ae 1f bc 3d f0 6c e6 bd
       0.042602457 0.036769133 0.0918573 -0.11251247
000230 56 84 67 3d a2 5d e2 bb 73 3b 5e bd c7 cb ea bc
       0.05652269 -0.0069081346 -0.054255914 -0.028661622
000240 77 58 2d 3e 18 63 1c 3e 23 1b e4 3d 82 1a ae bc
       0.16928278 0.15272176 0.111379884 -0.021252874
000250 ca 24 5a bd c6 85 b5 3b ab 34 0c 3e 9d 36 14 3e
       -0.05325774 0.0055396287 0.13691966 0.14473958
000260 c0 30 8a 3e e6 af 6f bd 55 29 3c 3d 80 ed e2 3d
       0.26990318 -0.05851736 0.045937855 0.11080456
000270 f2 bc 9d 3d 9b ff 2e 3e 11 91 45 bd 8e 31 dd 3d
       0.07702054 0.17089693 -0.04823405 0.108004674
000280 14 89 c8 bd c1 bd 5f bd fa 68 45 bc ea 6e 21 3e
       -0.097917706 -0.054624323 -0.012048954 0.15764967
000290 56 94 b3 3d 35 24 ed 3d 68 76 c7 bc b3 02 22 3e
       0.08768527 0.115791716 -0.024348453 0.15821342
0002a0 ed 20 72 bd 93 7d 8b bd 57 1d 8c 3e 78 c8 3c bd
       -0.05911343 -0.06811061 0.27366135 -0.04608962
0002b0 31 b3 e6 3c bf c3 6b 3d e1 29 17 3e 1b f6 fc 3d
       0.028161617 0.057559725 0.1476207 0.123516284
0002c0 39 75 b8 3d 9a 15 29 3c f5 74 e9 bd e1 14 07 bd
       0.090067334 0.010320092 -0.11399261 -0.032978896
0002d0 f3 08 95 bd c0 62 3d 3d dc f9 16 3e b5 4a 2f 3e
       -0.072770976 0.046236753 0.14743751 0.17118342
0002e0 5f 78 01 3e 36 6a 3b 3e c1 34 d7 bd 7f 18 35 3e
       0.12643574 0.18302235 -0.10508109 0.17685126
0002f0 33 bc 85 3d b8 22 9d 3d 52 b1 d9 3d e4 eb 9a 3c
       0.06530037 0.07672638 0.10629524 0.01891131
000300 2f 52 c9 bd 0d 40 6a bb 21 73 b7 3b 52 d9 5d 3e
       -0.098301284 -0.0035743744 0.005598441 0.21664932
000310 9f 23 df bd 08 36 32 3e 0b 30 0e 3e d5 5a e2 3c
       -0.10895466 0.17403424 0.13885514 0.027631203
000320 bb cb 8c 3d b4 c7 cd 3d 4e 6d be 3d 1e cc a2 3d
       0.06874796 0.10047856 0.09298192 0.079490885
000330 db c1 02 3e 9b 58 bc 3d 77 92 e8 3d 96 24 dd bc
       0.12769262 0.09196588 0.11356061 -0.026994985
000340 b0 3a f4 3d 15 ad e9 bb 9e 83 e4 bd ff ca b5 bc
       0.11925256 -0.0071312287 -0.111579165 -0.022191523
000350 68 af ff bd 78 bc c2 bc a2 33 4a 3e 61 6d b6 bd
       -0.12484628 -0.02377151 0.19746259 -0.08907581
000360 22 f7 f6 3d b6 aa 7d 3d c4 06 1e be 34 cf fc 3d
       0.120588556 0.06193038 -0.15432268 0.12344208
000370 f6 a1 a6 bd d1 23 35 3e 89 23 00 bd dc 0c 76 bd
       -0.0813636 0.17689444 -0.03128389 -0.060070857
000380 94 92 8e bd cb ad cd bd 09 8c 7a 3d c5 fa 16 3e
       -0.06961551 -0.10042914 0.061168704 0.14744098
000390 cb b1 71 bd d0 9d 75 3d 61 5a a8 bd 4e 5e c9 3d
       -0.059007447 0.059964955 -0.082203634 0.0983244
0003a0 4b f6 c3 bd fc 0b a9 3d bc a4 82 bd 3d 96 ea bd
       -0.09568461 0.08254239 -0.06379077 -0.11454437
0003b0 ea c1 bb bd b9 ea d5 bc 7a f7 04 3e 5a 6e 4d 3e
       -0.091678455 -0.026112901 0.1298503 0.20061627
0003c0 bf 40 8e bd d6 ef 31 bd da f5 72 3e f4 ba e1 bc
       -0.06945943 -0.043441616 0.23726597 -0.027554967
0003d0 d4 8a 20 bd a3 28 df 3b 41 3d 3d 3d 0f dc bb 3d
       -0.039194897 0.006810264 0.046200994 0.09172832
0003e0 37 fd 60 3e f9 50 90 3d d6 c5 2d 3e d2 f0 3d 3d
       0.21971594 0.07046694 0.1697 0.046372242
0003f0 b9 65 24 3e 1a 0e 1c 3e 37 c4 fc 3d 14 ef 73 3e
       0.16054429 0.15239754 0.123421125 0.2382167
