pretrained_gnns/Cora_SimGRACE_GCN_1.pth (torch, 802608 bytes, 4 tensors)

conv1.bias f4 [128]
0.056781296 0.05229833 0.02515283 0.056178216 0.06270239 0.05307529 0.04274127 0.06103301
0.03687683 0.09009109 0.08350668 0.058113206 0.04105685 0.075848594 0.045273814 0.08094545
0.06768274 0.077907816 0.025866874 0.05888285 0.05058082 0.06687957 0.055313367 0.035091594
0.047662966 0.060603693 0.07241828 0.053804085 0.051326074 0.081875145 0.05208081 0.040502302
0.061220594 0.06619271 0.04419273 0.033288624 0.06243818 0.04891816 0.07575297 0.04018121
0.040993415 0.052336104 0.040344927 0.05191799 0.07599833 0.057344474 0.0712323 0.058084816
0.055338606 0.05972584 0.06907293 0.0492634 0.072013825 0.041578196 0.05398778 0.060658872
0.03515605 0.07063923 0.051770817 0.05107624 0.061498675 0.057929546 0.065724276 0.074246734
0.07782054 0.06591651 0.071956575 0.034915518 0.05874582 0.059632894 0.062273957 0.054013263
0.06291714 0.044575337 0.05650094 0.04678303 0.039709713 0.058814097 0.059303273 0.052518405
0.0540001 0.060412202 0.062643886 0.04961846 0.07727515 0.07062326 0.065107115 0.05224319
0.04790232 0.06620085 0.043267947 0.07186297 0.06527022 0.05781419 0.035549417 0.051842913
0.043147024 0.065111026 0.046680477 0.060798828 0.052783407 0.05636398 0.04708029 0.033264242
0.05855415 0.043737613 0.057589173 0.06060994 0.044861145 0.05682786 0.044908043 0.0441365
0.059465364 0.056713264 0.03960836 0.06549589 0.06516375 0.0588146 0.062252574 0.05337798
0.06403829 0.038903054 0.049492132 0.052778 0.04291569 0.05360362 0.037298538 0.07370279
00000000: 8193 683d c636 563d 4f0d ce3c 211b 663d
00000010: 1c6a 803d 7a65 593d 7811 2f3d c0fd 793d
00000020: 290c 173d ad81 b83d 8d05 ab3d 1d08 6e3d
00000030: 3a2b 283d 8256 9b3d 0971 393d bac6 a53d
00000040: 409d 8a3d 228e 9f3d c4e6 d33c 252f 713d
00000050: d52d 4f3d 28f8 883d 4590 623d 34bc 0f3d
00000060: 3e3a 433d 943b 783d 0950 943d ac61 5c3d
00000070: 4a3b 523d 28ae a73d b052 553d bee5 253d
00000080: 72c2 7a3d 0b90 873d 7003 353d a759 083d
00000090: 2dbf 7f3d 695e 483d 6024 9b3d 0d95 243d
000000a0: b6e8 273d 625e 563d b940 253d f5a7 543d
000000b0: 03a5 9b3d 0ae2 6a3d 3de2 913d 58ea 6d3d
000000c0: bcaa 623d 15a3 743d 1c76 8d3d 6bc8 493d
000000d0: fc7b 933d e64d 2a3d 4a22 5d3d 7075 783d
000000e0: caff 0f3d 4dab 903d a30d 543d 5235 513d
000000f0: 09e6 7b3d 8847 6d3d 739a 863d ac0e 983d
00000100: 6060 9f3d 3cff 863d f85d 933d 9303 0f3d
00000110: 759f 703d 9f41 743d fa12 7f3d 033d 5d3d
00000120: b4da 803d a194 363d 886d 673d 909f 3f3d
00000130: a7a6 223d 0de7 703d fde7 723d 8a1d 573d
00000140: 352f 5d3d c972 773d 704b 803d ba3c 4b3d
00000150: 6f42 9e3d eea2 903d e156 853d f5fc 553d
00000160: 3935 443d 5094 873d bb39 313d e52c 933d
00000170: 65ac 853d 92ce 6c3d 449c 113d 3c59 543d
00000180: efba 303d ee58 853d 0734 3f3d 3108 793d
00000190: 6a33 583d ebdd 663d 43d7 403d 1640 083d
000001a0: 7ad6 6f3d 3626 333d a0e2 6b3d 2142 783d
000001b0: 52c0 373d 55c4 683d 7ff1 373d 7ac8 343d
000001c0: f491 733d 2b4c 683d 603c 223d b622 863d
000001d0: 9274 853d 94e7 703d 8efc 7e3d dea2 5a3d
000001e0: 8226 833d cf58 1f3d 43b8 4a3d be2d 583d
000001f0: 5dc8 2f3d 788f 5b3d 5ac6 183d 7df1 963d

conv1.lin.weight f4 [128, 1433]
0.13271143 -0.008305596 0.02051858 -0.02964814 0.025098747 0.10105265 0.03147929 -0.027049113
-0.13717508 -0.03513186 0.0059385644 0.03760939 -0.021457966 0.0573123 -0.051203135 -0.004654563
-0.010490893 0.059279926 0.058024853 -0.048230607 0.05509231 -0.024384873 0.055530835 -0.035161328
-0.010957459 -0.011042368 0.017428441 0.04050173 -0.11472069 -0.07222285 -0.052257672 -0.06269411
-0.021360092 -0.12075889 -0.13776931 -0.09017113 0.028938027 0.117592454 -0.02167737 0.011144441
-0.031317674 -0.086784475 0.08515016 -0.020023065 -0.06950662 0.08233402 -0.0019025039 0.008971885
0.08237229 0.13165171 -0.017085595 0.014074641 0.002579086 -0.07237635 0.0022679598 -0.05578483
-0.105465226 0.04959331 0.048997715 0.043521192 -0.010272783 0.015201271 0.033449374 0.0055715246
-0.096466936 0.0059386515 -0.16986953 -0.09695255 -0.06428158 0.0009665823 -0.13274023 0.054783706
0.018991644 -0.05981305 0.038077608 -0.043445006 -0.039962616 0.06756206 -0.00840058 0.0062738424
-0.036488846 -0.027257333 0.012499243 -0.0804379 0.0069382046 -0.036618877 -0.06983792 0.094483286
0.04370621 -0.0033567618 -0.05889414 -0.043145686 -0.031588774 0.0023292862 0.0019367493 0.08516049
-0.013062736 -0.035266627 -0.016985992 0.063026264 0.043954708 -0.11104523 0.011698192 -0.02885858
-0.016864873 0.02299136 -0.12821531 -0.15574309 -0.05379579 -0.0531113 -0.17969628 0.04080154
-0.05992735 -0.065826185 0.0100325765 -0.031485956 -0.013552551 -0.0359374 0.030318793 0.08067732
-0.12172495 -0.009756089 -0.013375606 -0.019326124 -0.08870877 -0.02785872 -0.09798759 0.029394517
0.1407347 0.056241766 0.0073979786 0.026154302 0.013524597 0.029929101 -0.13162325 -0.0036515042
-0.10707451 0.023646116 0.022025133 0.08336093 0.056417994 -0.047734663 -0.07087567 0.07326016
0.024568127 -0.0062225224 0.05376508 -0.021236746 -0.035926156 -0.1482706 -0.12671843 -0.041786496
-0.010229679 -0.097834006 0.02441275 -0.09018907 -0.124219835 -0.09879244 0.05876978 0.0012445411
0.010102489 -0.037748624 0.07932858 -0.1289724 -0.0076124677 0.04548037 -0.0988176 -0.0035861603
0.014316999 0.05706118 -0.13548563 0.018188613 -0.11837933 -0.004653027 -0.015775163 0.06073238
-0.0781474 0.028347438 -0.12602 -0.05466354 -0.1143425 -0.120810084 0.03479949 -0.0983865
0.057973478 -0.08565226 0.066635996 7.467547e-05 -0.00689983 -0.0021548106 -0.115651555 0.05237273
-0.1022937 0.12085381 0.02459296 0.02202749 0.033841744 -0.09902336 -0.027056297 -0.032848947
0.05226392 -0.087630056 -0.113098815 -0.037772592 -0.017362703 -0.057558086 -0.032097615 -0.048298895
-0.033088833 -0.07455368 -0.0445072 -0.019367814 0.13154541 0.12338973 0.01634368 -0.077298164
0.037170473 0.054337583 0.09011901 0.022670424 0.050877087 -0.08073718 -0.028089155 -0.06838953
0.16103217 -0.07560541 0.02085131 0.104973964 -0.07366405 -0.09712147 0.03404889 -0.022755176
-0.061172802 -0.08293519 0.09792553 0.09115933 -0.022922773 0.04855796 -0.0018429876 0.040123753
0.11133004 -0.06729653 0.17429681 0.050153203 0.0870857 -0.032890834 0.0022368701 0.042974096
-0.016638149 -0.014592055 0.054305654 -0.004437456 -0.08583891 0.027263952 0.07261132 -0.030269498
00000000: 81e5 073e 3214 08bc 9516 a83c a8e0 f2bc
00000010: e39b cd3c b1f4 ce3d 6ef0 003d 1a96 ddbc
00000020: a077 0cbe 6de6 0fbd 4a98 c23b 4e0c 1a3d
00000030: 9ec8 afbc 4dc0 6a3d 61ba 51bd 4e85 98bb
00000040: ffe1 2bbc 82cf 723d 78ab 6d3d 758d 45bd
00000050: 79a8 613d c9c2 c7bc 4d74 633d 5305 10bd
00000060: ea86 33bc 0ceb 34bc 17c6 8e3c 24e5 253d
00000070: aef2 eabd 93e9 93bd 240c 56bd c565 80bd
00000080: 5cfb aebc 7050 f7bd 6613 0dbe a4ab b8bd
00000090: 710f ed3c 50d4 f03d bd94 b1bc 2c97 363c
000000a0: f646 00bd 0fbc b1bd 3563 ae3d 6907 a4bc
000000b0: 7d59 8ebd bd9e a83d 705d f9ba d0fe 123c
000000c0: ceb2 a83d b5cf 063e 17f7 8bbc 5399 663c
000000d0: e205 293b 0d3a 94bd 0da2 143b a27e 64bd
000000e0: 27fe d7bd 5b22 4b3d d4b1 483d 4743 323d
000000f0: 2d4f 28bc c00e 793c 3602 093d 5691 b63b
00000100: 7590 c5bd 0599 c23b 47f2 2dbe 0f8f c6bd
00000110: 10a6 83bd 3d62 7d3a 0eed 07be e164 603d
00000120: 5d94 9b3c 87fe 74bd 44f7 1b3d 64f3 31bd
00000130: d7af 23bd fa5d 8a3d 96a2 09bc ce94 cd3b
00000140: 5475 15bd c54a dfbc a0c9 4c3c a0bc a4bd
00000150: e159 e33b adfd 15bd 2f07 8fbd 7480 c13d
00000160: 4805 333d 1efd 5bbb fb3a 71bd 88b9 30bd
00000170: 3b63 01bd f0a6 183b 86da fd3a 9f68 ae3d
00000180: 1605 56bc bd73 10bd 3526 8bbc ea13 813d
00000190: da09 343d ae6b e3bd c6a9 3f3c d468 ecbc
000001a0: 3428 8abc 6058 bc3c e04a 03be 1e7b 1fbe
000001b0: f958 5cbd 3c8b 59bd 4d02 38be 841f 273d
000001c0: 6276 75bd e1cf 86bd ad5f 243c 6bf7 00bd
000001d0: 850b 5ebc 1833 13bd 1e5f f83c 273a a53d
000001e0: ee4a f9bd 01d8 1fbc 5c25 5bbc d251 9ebc
000001f0: f2ac b5bd f837 e4bc b8ad c8bd c5cc f03c
00000200: c21c 103e c45d 663d be6a f23b 8c41 d63c
00000210: 4596 5d3c e02d f53c 3fc8 06be 134e 6fbb
00000220: e149 dbbd 80b5 c13c 0d6e b43c 23b9 aa3d
00000230: 8e16 673d 6c85 43bd 4327 91bd 6c09 963d
00000240: 1943 c93c 4de6 cbbb c638 5c3d aff8 adbc
00000250: 4e27 13bd 40d4 17be 7ac2 01be 5128 2bbd
00000260: 629a 27bc 325d c8bd 3ffd c73c 0cb5 b8bd
00000270: f866 febd b153 cabd 95b8 703d df1f a33a
00000280: e984 253c 4d9e 1abd 0677 a23d 5711 04be
00000290: 0272 f9bb a049 3a3d e260 cabd c905 6bbb
000002a0: d991 6a3c fcb8 693d bfbc 0abe 4900 953c
000002b0: dd70 f2bd 6b78 98bb ea3a 81bc 84c2 783d
000002c0: be0b a0bd e338 e83c 630b 01be e0e6 5fbd
000002d0: 672c eabd 476b f7bd e989 0e3d dc7e c9bd
000002e0: 9975 6d3d 746a afbd 7478 883d 169b 9c38
000002f0: f817 e2bb b937 0dbb b9da ecbd ca84 563d
00000300: 5c7f d1bd 3482 f73d 2d77 c93c ff72 b43c
00000310: a49d 0a3d c2cc cabd 2ba5 ddbc 9e8c 06bd
00000320: b112 563d 6377 b3bd 5aa0 e7bd 6fb7 1abd
00000330: 3a3c 8ebc 07c2 6bbd ca78 03bd 10d5 45bd
00000340: 2888 07bd 9aaf 98bd 2f4d 36bd 40a9 9ebc
00000350: d7b3 063e c1b3 fc3d 2ee3 853c 804e 9ebd
00000360: 1140 183d 1691 5e3d 5190 b83d 53b7 b93c
00000370: 7e64 503d 8959 a5bd 3a1b e6bc cf0f 8cbd
00000380: 9ee5 243e 02d7 9abd 5ed0 aa3c 97fc d63d
00000390: 2ddd 96bd 9fe7 c6bd d976 0b3d 1069 babc
000003a0: 5590 7abd edd9 a9bd 2e8d c83d beb1 ba3d
000003b0: 8ac8 bbbc b6e4 463d 6790 f1ba ce58 243d
000003c0: 0101 e43d c3d2 89bd dd7a 323e 726d 4d3d
000003d0: fd59 b23d 8ab8 06bd 7498 123b 9b05 303d
000003e0: ba4c 88bc 8413 6fbc 9b6f 5e3d 1468 91bb
000003f0: 4fcc afbd a758 df3c 3eb5 943d bdf7 f7bc

conv2.bias f4 [128]
0.025007414 -0.02426007 0.0024270385 0.019726947 0.011982099 0.007039284 -0.019896131 -0.019738298
-0.007583581 0.023581587 -0.015555196 -0.01305067 -0.006199406 -0.00030554796 -0.0014822365 0.013070871
-0.0458834 -0.046408456 0.0007674308 -0.0046945093 0.020344334 -0.0059471787 0.014323044 0.038124535
0.023040222 0.020469321 0.014584846 0.027338216 -0.020223629 0.018792102 -0.0039863973 0.015064679
-0.01123482 -0.0058578695 -0.014337484 0.002964411 -0.018048227 -0.014126877 0.026023969 0.011653182
0.01075423 0.029012427 -0.030824961 0.025260031 -0.0056342324 0.0036915469 -0.01228915 0.008489822
-0.05834931 0.011617654 -0.019543651 -0.021246787 -0.009973684 -0.034281008 -0.024693597 -0.0132822385
0.019479062 -0.0067062853 -0.034821823 0.0155088715 -0.03373436 0.0005504125 0.049158383 0.011232454
0.020180585 -0.028246514 0.015895389 0.028744487 0.03272625 0.015144294 -0.00022639021 0.008540231
0.03257402 0.014121021 -0.01394826 0.01518263 0.009482856 0.0090628555 -0.00040209023 0.05759582
0.0039114873 -0.007911212 -0.0028424081 0.038587354 -0.0117997825 0.029772183 -0.018917581 0.019169189
-0.00463226 -0.019416552 0.0064511835 0.01221616 0.00052192184 0.036806375 -0.026886683 -0.00023926383
0.0012130653 0.002157172 -0.0071944264 -0.0021341816 0.02992888 -0.0043224087 0.0090840785 -0.05364146
-0.035726175 -0.033803508 0.042476486 -0.009599803 0.018955972 0.012867259 -0.012711645 -0.01176455
0.000409961 -0.082445025 -0.020880237 0.02873842 0.0141371805 -0.00048562384 -0.006610174 0.0064652925
0.010482585 0.03699821 0.00025638595 0.034676827 0.019443091 -0.03552437 0.05977979 0.03711729
00000000: 59dc cc3c 0ebd c6bc f30e 1f3b 689a a13c
00000010: 9150 443c cba9 e63b 36fd a2bc 36b2 a1bc
00000020: b07f f8bb 2c2e c13c 39db 7ebc 7ad2 55bc
00000030: 6324 cbbb f431 a0b9 9b47 c2ba 3527 563c
00000040: 3bf0 3bbd cb16 3ebd 692d 493a 66d4 99bb
00000050: 29a9 a63c 8de0 c2bb 33ab 6a3c 7928 1c3d
00000060: d9be bc3c 47af a73c 47f5 6e3c 65f4 df3c
00000070: 06ac a5bc e5f1 993c 53a0 82bb d8d1 763c
00000080: 4012 38bc 5ff3 bfbb c4e7 6abc 9046 423b
00000090: e0d9 93bc 6b74 67bc 3830 d53c fdec 3e3c
000000a0: 8332 303c 78ab ed3c a184 fcbc 20ee ce3c
000000b0: 5e9f b8bb e1ed 713b 6e58 49bc e518 0b3c
000000c0: b0ff 6ebd f957 3e3c 021a a0bc be0d aebc
000000d0: aa68 23bc 3e6a 0cbd 3a4a cabc bf9d 59bc
000000e0: 8e92 9f3c 66c0 dbbb 54a1 0ebd ec18 7e3c
000000f0: 0a2d 0abd 8f49 103a 4d5a 493d 5408 383c
00000100: c151 a53c 3c65 e7bc 0c37 823c 8f79 eb3c
00000110: f60b 063d c61f 783c 2963 6db9 53ec 0b3c
00000120: 566c 053d db5b 673c 3e87 64bc 91c0 783c
00000130: fb5d 1b3c 5f7c 143c a3cf d2b9 98e9 6b3d
00000140: ef2b 803b 079e 01bc b247 3abb c60d 1e3d
00000150: e053 41bc cbe4 f33c 0bf9 9abc b408 9d3c
00000160: 37ca 97bb 760f 9fbc 7364 d33b 4a26 483c
00000170: 95d1 083a 48c2 163d 7641 dcbc e5e2 7ab9
00000180: b8ff 9e3a 575f 0d3b 39bf ebbb a0dd 0bbb
00000190: 692d f53c fea2 8dbb 63d5 143c 26b7 5bbd
000001a0: 9c55 12bd 8c75 0abd d3fb 2d3d 7e48 1dbc
000001b0: 8e49 9b3c 32d1 523c 8144 50bc 19c0 40bc
000001c0: 09f0 d639 f0d8 a8bd 080d abbc d66c eb3c
000001d0: a29f 673c 549b feb9 299a d8bb ceda d33b
000001e0: 26bf 2b3c 6f8b 173d 8a6b 8639 4a09 0e3d
000001f0: 1e47 9f3c 0082 11bd a7db 743d 4d08 183d

conv2.lin.weight f4 [128, 128]
-0.1530277 0.11229323 -0.14108458 -0.014094272 -0.1440231 -0.14796835 0.014357636 0.07975595
0.07334779 -0.1324146 0.038834997 -0.059550036 -0.1240787 0.0053721927 0.029833324 0.12759124
0.1464657 -0.22379126 -0.032835178 -0.10678407 -0.04373717 -0.034970753 0.015986646 -0.08703258
0.121656634 -0.07893216 0.07414935 -0.09814046 0.073126905 -0.05771304 -0.05988331 0.088314384
0.11957196 0.049658906 -0.02960517 0.16411985 -0.038539656 -0.13733704 0.09594357 -0.15114917
0.06747669 -0.075983986 -0.048104584 -0.17058635 -0.05125557 -0.10646219 0.07071061 -0.018789701
-0.23426867 0.1986836 -0.064594954 0.22954805 -0.0192652 0.015731562 0.027558234 -0.12043537
0.08999896 -0.1769359 -0.14133547 0.011964473 0.12009222 0.13703108 0.17574622 -0.13088621
-0.058283146 0.0040602237 -0.12541376 0.04532965 -0.13951218 0.0984966 -0.14858346 -0.10266981
0.09997987 -0.04321463 -0.18617623 -0.063612476 0.05013736 0.021322962 -0.079317614 -0.20837541
0.015650013 -0.18934304 -0.07860777 0.17965133 0.01835442 -0.05659695 0.031937588 -0.052138414
0.16748394 -0.18638118 -0.05345593 -0.023576064 0.20969288 0.14267506 -0.028383123 -0.016886583
-0.14727245 0.05720155 -0.027628329 -0.10890236 -0.14023848 -0.036903113 0.091311574 -0.041456275
-0.0076123895 -0.123086765 0.009015773 -0.11552721 -0.071899936 0.1086742 0.02210995 0.06861548
0.09767762 0.13463481 -0.119983986 0.13555126 0.08390101 0.060340215 0.024391886 -0.092185
0.12640037 -0.070473835 -0.010543714 0.08705212 0.029917087 0.009356871 0.0832864 -0.024679594
-0.10634379 -0.002787313 0.13336359 -0.10436321 0.13492762 -0.13539031 0.16190979 0.008730575
0.090241216 0.09689178 0.19582833 -0.2202117 0.0013982687 -0.024584461 -0.08986696 -0.13683505
0.08159999 -0.031985473 0.04457142 -0.008306854 -0.028727053 -0.0019089013 0.23623131 0.118594304
0.15798439 -0.15339075 0.013834313 -0.034231387 -0.011336072 0.032246895 -0.13646056 0.04437745
-0.18844453 -0.006656957 -0.08116428 0.021391928 -0.028967204 0.1206079 -0.057818618 0.08722733
-0.10294429 -0.18450469 0.03181751 -0.090667985 0.004714305 -0.029208379 0.08810229 0.031680927
0.10748986 -0.031246576 -0.13162644 -0.04257482 -0.11727283 -0.16747044 0.14977892 0.21554086
0.004498415 0.03266881 -0.15641887 0.13092217 0.058858365 0.023849629 0.06395326 -0.05427285
-0.09768959 -0.018999249 -0.13380094 0.06654475 -0.17041159 0.007633167 0.07913799 0.04491395
0.12016296 0.09962122 0.06346962 0.07117578 0.04500957 0.081907175 0.095959224 0.018085448
0.000107925196 -0.066331945 -0.10982183 0.034845896 -0.17471415 -0.02473815 0.08149601 -0.04644216
-0.010111901 0.07923757 -0.14422202 0.122985914 -0.14101826 0.13911717 -0.13975573 -0.14425817
0.018256754 -0.06839703 0.08891633 0.1438075 -0.019001098 0.051170807 -0.0139735555 -0.07503933
-0.04162341 0.035314273 -0.113051005 -0.13561413 -0.11681012 -0.03379832 0.14805593 0.21637455
-0.1906333 -0.052348875 0.19519031 -0.007919103 -0.026350405 -0.0054045003 0.04107705 -0.037273664
0.11004313 0.018277584 0.13263138 -0.034442715 0.059811145 0.24073696 0.03649615 0.111605205
00000000: 4bb3 1cbe fef9 e53d 7a78 10be a9eb 66bc
00000010: cb7a 13be 0485 17be 4a3c 6b3c 1657 a33d
00000020: 5e37 963d b197 07be 7211 1f3d bdea 73bd
00000030: f91c febd 3809 b03b 0465 f43c 47a7 023e
00000040: 1bfb 153e 8929 65be 2e7e 06bd 9bb1 dabd
00000050: bf25 33bd 7e3d 0fbd 6df6 823c 233e b2bd
00000060: 1d27 f93d 2fa7 a1bd 9ddb 973d defd c8bd
00000070: 8fc3 953d 8264 6cbd 3448 75bd 2cde b43d
00000080: 25e2 f43d 2367 4b3d 8b86 f2bc 090f 283e
00000090: c2db 1dbd 15a2 0cbe 107e c43d d9c6 1abe
000000a0: 3831 8a3d 7e9d 9bbd 5009 45bd 30ae 2ebe
000000b0: 5cf1 51bd d908 dabd b9d0 903d dcec 99bc
000000c0: 20e4 6fbe b773 4b3e 5c4a 84bd a50e 6b3e
000000d0: 0dd2 9dbc 7adf 803c cec1 e13c d2a6 f6bd
000000e0: 6051 b83d af2e 35be 3fba 10be a306 443c
000000f0: e9f2 f53d e051 0c3e d1f6 333e 0907 06be
00000100: 4fba 6ebd a00b 853b 776c 00be 95ab 393d
00000110: 48dc 0ebe 96b8 c93d 4326 18be 8d44 d2bd
00000120: 3fc2 cc3d d301 31bd fba4 3ebe 4247 82bd
00000130: d55c 4d3d 7ead ae3c 4671 a2bd 5d60 55be
00000140: 7534 803c 24e3 41be 1cfd a0bd 85f6 373e
00000150: 025c 963c 34d2 67bd fdd0 023d 178f 55bd
00000160: e980 2b3e b5da 3ebe 9bf4 5abd 9722 c1bc
00000170: bbb9 563e 6919 123e b983 e8bc bb55 8abc
00000180: 97ce 16be 2c4c 6a3d ce54 e2bc 3308 dfbd
00000190: ad9a 0fbe b827 17bd 9001 bb3d 0ece 29bd
000001a0: 5a71 f9bb ea14 fcbd e5b6 133c 8899 ecbd
000001b0: 4640 93bd 9490 de3d ed1f b53c 4686 8c3d
000001c0: 340b c83d b5dd 093e 2aba f5bd f3cd 0a3e
000001d0: 4bd4 ab3d 4d27 773d 7ed1 c73c 7dcb bcbd
000001e0: 196f 013e 9654 90bd 8bbf 2cbc 6248 b23d
000001f0: ae14 f53c 904d 193c 0f92 aa3d dc2c cabc
00000200: c6ca d9bd 5aab 36bb 7790 083e 61bc d5bd
00000210: 772a 0a3e c2a3 0abe aecb 253e b00a 0f3c
00000220: 63d0 b83d 336f c63d 3987 483e 2d7f 61be
00000230: 1d46 b73a 5a65 c9bc 2b0c b8bd 7d1e 0cbe
00000240: e51d a73d 3303 03bd 8590 363d 7919 08bc
00000250: ff54 ebbc 1934 faba 9fe6 713e 92e1 f23d
00000260: a9c6 213e 7712 1dbe 50a9 623c 3636 0cbd
00000270: efba 39bc 5215 043d 51bc 0bbe 21c5 353d
00000280: 9af7 40be 9a22 dabb 7539 a6bd 203e af3c
00000290: a14c edbc 4601 f73d 37d3 6cbd 3ea4 b23d
000002a0: 75d4 d2bd ccee 3cbe 1453 023d 23b0 b9bd
000002b0: 757a 9a3b 6946 efbc f96e b43d dcc3 013d
000002c0: a523 dc3d d2f8 ffbc 15c9 06be ef62 2ebd
000002d0: bd2c f0bd 5f7d 2bbe a55f 193e beb6 5c3e
000002e0: 7167 933b bbcf 053d 452c 20be 7610 063e
000002f0: 7815 713d 4c60 c33c edf9 823d 354d 5ebd
00000300: 7b11 c8bd 50a4 9bbc 1d03 09be 9d48 883d
00000310: 6080 2ebe a51f fa3b 1913 a23d b1f7 373d
00000320: ff17 f63d 3606 cc3d 5cfc 813d 9bc4 913d
00000330: f45b 383d f3be a73d 4586 c43d ef27 943c
00000340: e655 e238 0bd9 87bd 45ea e0bd 92ba 0e3d
00000350: 44e8 32be a9a7 cabc 61e7 a63d 223a 3ebd
00000360: 63ac 25bc 4f47 a23d f0ae 13be 0ae0 fb3d
00000370: 1767 10be bb74 0e3e 201c 0fbe 6ab8 13be
00000380: 308f 953c be13 8cbd c419 b63d 4642 133e
00000390: 31a8 9bbc 7b98 513d 57f1 64bc 38ae 99bd
000003a0: 4f7d 2abd b3a5 103d 4987 e7bd 6ede 0abe
000003b0: 253a efbd 1b70 0abd f99b 173e 4a91 5d3e
000003c0: 6035 43be c66b 56bd f8df 473e 20bf 01bc
000003d0: cedc d7bc 3c18 b1bb 6940 283d 45ac 18bd
000003e0: 4b5e e13d dfba 953c 85d0 073e ce13 0dbd
000003f0: 88fc 743d c083 763e fd7c 153d 4591 e43d
