pretrained_gnns/Flickr_SimGRACE_GCN_1.pth (torch, 324928 bytes, 4 tensors)

conv1.bias f4 [128]
-0.015395211 0.020685822 -0.026007172 0.0050078044 -0.017836144 -0.10336404 0.008297485 -0.048370913
-0.015374368 -0.009302481 -0.019059913 -0.06688448 -0.015621908 0.0036590304 -0.10803223 -0.022967378
-0.060473975 -0.025258413 0.022907248 -0.005831497 -0.09643755 0.026185624 0.011948667 0.035565548
-0.10507989 -0.008042434 -0.011535379 -0.079084896 -0.03586827 -0.0035111837 -0.07379508 -0.10172458
-0.029843904 -0.09528911 -0.095053 -0.09812958 -0.090280026 -0.0061223446 0.056200866 0.0032924297
-0.09688889 -0.06915391 -0.008808117 -0.06563545 -0.008105555 -0.05456773 -0.010996226 -0.04912448
-0.019519286 -0.10328212 -0.020357842 -0.012436648 -0.015908007 0.05192308 -0.015784848 0.016294751
-0.0878545 -0.06101146 0.032092992 -0.06574796 -0.0693076 -0.041560024 0.05264929 -0.030648913
-0.12567319 -0.103578985 -0.12762706 -0.03901891 0.016856745 -0.013304471 -0.02432256 0.1025643
-0.0013992356 -0.015270639 -0.08667557 0.00090824295 0.0235441 -0.07536254 -0.035284698 -0.054247525
-0.090126134 -0.043156933 -0.019080803 -0.03202796 -0.01747148 -0.09135456 -0.011487471 -0.08251388
-0.079901546 0.040014483 0.054049652 -0.04618767 0.0036254646 0.008848975 -0.0033510877 -0.007839821
-0.007294523 -0.04499219 -0.008714558 -0.01402296 -0.06400008 -0.010957219 -0.003865662 -0.028600015
-0.037822373 -0.07866211 0.04792774 -0.05252338 0.0053349594 -0.016449874 -0.008839146 -0.007898008
0.007257278 0.000725874 0.042824555 -0.074739575 -0.014757632 -0.088276304 -0.11480244 -0.02196771
-0.07934735 -0.0022581937 -0.032039434 -0.00788607 -0.012481042 -0.020864006 -0.05208879 -0.069265336
00000000: 323c 7cbc 5075 a93c fe0c d5bc 8218 a43b
00000010: 1b1d 92bc 87b0 d3bd 2df2 073c 9420 46bd
00000020: c6e4 7bbc 6f69 18bc 8923 9cbc bbfa 88bd
00000030: 08f3 7fbc 58cc 6f3b 0040 ddbd 1526 bcbc
00000040: 8fb3 77bd bbea cebc fba7 bb3c 2416 bfbb
00000050: 0d81 c5bd 3c83 d63c 57c4 433c 2ead 113d
00000060: 2034 d7bd 6ac4 03bc e3fe 3cbc 43f7 a1bd
00000070: 9bea 12bd e31b 66bb e021 97bd fa54 d0bd
00000080: 347b f4bc f026 c3bd 26ab c2bd 29f8 c8bd
00000090: bce4 b8bd f39d c8bb e132 663d cec5 573b
000000a0: af6d c6bd 91a0 8dbd ec4f 10bc e16b 86bd
000000b0: 29cd 04bc 6982 5fbd 8429 34bc c036 49bd
000000c0: e9e6 9fbc 9385 d3bd 7dc5 a6bc 15c3 4bbc
000000d0: 8251 82bc 4cad 543d 3a4f 81bc 927c 853c
000000e0: 0fed b3bd 27e7 79bd f173 033d dea6 86bd
000000f0: 25f1 8dbd d83a 2abd c8a6 573d 6e13 fbbc
00000100: 79b0 00be 3821 d4bd abb0 02be 4bd2 1fbd
00000110: 2817 8a3c fffa 59bc 1b40 c7bc 3b0d d23d
00000120: 8e66 b7ba b431 7abc f682 b1bd 2717 6e3a
00000130: 8edf c03c ad57 9abd b086 10bd a732 5ebd
00000140: 0d94 b8bd 53c5 30bd 584f 9cbc c02f 03bd
00000150: 5920 8fbc 1918 bbbd f235 3cbc 0afd a8bd
00000160: 6ca3 a3bd 3ae6 233d 2b63 5d3d 482f 3dbd
00000170: 3499 6d3b 4bfb 103c ec9d 5bbb 9872 00bc
00000180: e506 efbb bb49 38bd 81c7 0ebc 8fc0 65bc
00000190: 7912 83bd e885 33bc 0c57 7dbb 944a eabc
000001a0: a2eb 1abd 9a19 a1bd e14f 443d c122 57bd
000001b0: e2d0 ae3b e3c1 86bc 11d2 10bc a666 01bc
000001c0: 76ce ed3b 9448 3e3a cd68 2f3d 1011 99bd
000001d0: ffc9 71bc 35ca b4bd 8b1d ebbd a1f5 b3bc
000001e0: dd80 a2bd 34fe 13bb c83b 03bd 9334 01bc
000001f0: 497d 4cbc feea aabc 0e5b 55bd fcda 8dbd

conv1.lin.weight f4 [128, 500]
0.025474384 -0.015526669 0.01431659 -0.017122338 0.0061620967 0.0658618 -0.0675956 0.062018607
-0.037896674 -0.084947884 -0.0741047 -0.065258235 -0.055513967 -0.042406008 -0.043276057 -0.02011615
-0.105670325 -0.085974805 0.147365 0.0223567 0.06303478 0.08185548 0.101186804 -0.0620884
0.05431017 0.027976897 -0.008877504 -0.004984445 0.00841518 0.093434595 -0.079511285 0.023209972
-0.06386759 -0.013113658 0.013216982 0.060237553 0.03886981 -0.08979214 0.07165476 -0.06744047
-0.09625914 0.075921156 0.06615743 0.063636295 -0.053112324 -0.052389305 -0.1128275 0.059699036
0.04643882 0.0027062686 -0.07866452 -0.07335162 -0.039894074 -0.04456947 -0.054553356 -0.06107512
0.0199427 0.05498731 -0.0022858626 -0.065886006 -0.02228225 -0.02545439 0.02330385 -0.108529836
0.04472304 -0.0442602 0.059818655 -0.03778802 0.06545415 0.07064694 0.08763589 0.015183898
-0.110336185 -0.045220584 -0.02624274 -0.090935625 0.026882753 -0.04256034 0.026905878 -0.06047542
-0.006418918 -0.042023286 0.06551795 -0.028331053 0.04786206 -0.10819979 -0.07790787 -0.085182145
0.04744632 0.07202556 0.050273366 -0.060765255 0.0029743535 -0.014934744 -0.010759873 -0.0051060114
-0.025870562 -0.02611271 -0.09552836 -0.051915612 -0.025457859 -0.0746265 0.042278543 -0.065739006
-0.03589979 -0.08779392 0.00055679603 -0.08123501 -0.042010844 0.00653736 0.041293163 -0.083023235
-0.04201731 -0.08294398 0.05294247 -0.06461005 0.08084053 -0.111011624 -0.042024296 0.09156565
0.054322716 0.08966304 -0.014535853 0.0073609734 -0.08069199 0.025879974 0.020316571 -0.04790488
0.0746513 -0.01792315 -0.027191602 -0.08033332 -0.012532919 0.04509125 -0.021526167 -0.07228548
-0.038107246 0.06472524 -0.034191236 -0.11203545 -0.078801714 -0.06782884 -0.05685973 -0.006259888
0.08841506 -0.010452691 -0.0130761275 -0.03584043 0.020709226 -0.04032775 -0.052586608 -0.0015986382
0.04811703 0.029166797 0.060116805 -0.0101057505 -0.035985682 0.01160097 -0.0694654 -0.021611808
-0.063088305 -0.030302837 -0.1151814 -0.057414666 -0.121260986 -0.085198045 -0.090375446 0.048565302
-0.0473435 -0.0540248 -0.034418434 0.038426045 0.0029430438 0.051998887 0.040448185 -0.007618117
-0.05657498 0.06906606 -0.101325184 0.02431737 0.075204074 0.06174372 -0.027639112 -0.0292916
0.033036172 0.07101371 -0.07564599 -0.013210554 0.07535933 -0.0058030356 0.078654386 -0.10637269
0.010700146 -0.05640438 -0.013243194 -0.0022087279 -0.03560504 0.06247536 -0.048146922 -0.11627546
0.05242707 0.043724846 0.064471774 -0.006564291 -0.051429022 -0.032289594 0.008527657 -0.005849804
0.047409005 -0.0667706 0.05134691 -0.046381854 0.02634081 -0.008133816 0.000553762 0.05889023
-0.04262142 -0.011571876 -0.082192145 -0.091001175 0.08279343 -0.0018933915 0.041087925 -0.025451884
0.034376502 -0.09444683 0.012680505 0.016610002 -0.07502899 0.048075266 -0.07200811 -0.0647557
-0.07256708 -0.07169435 -0.009242753 -0.07506704 -0.044373356 0.0802797 -0.06936007 -0.068858914
-0.065555714 0.03542579 -0.08842621 -0.10324982 -0.077341676 0.067051254 -0.03614074 0.0021328996
-0.037487783 -0.11577362 0.07074479 -0.051369518 0.09487755 -0.0645421 0.068886586 -0.026290184
00000000: a8af d03c 9263 7ebc 2190 6a3c 2544 8cbc
00000010: 6aeb c93b 8de2 863d 906f 8abd 3907 7e3d
00000020: 8b39 1bbd 28f9 adbd 34c4 97bd 1ca6 85bd
00000030: 9d62 63bd ecb1 2dbd 3c42 31bd a0ca a4bc
00000040: af69 d8bd 8f13 b0bd dae6 163e 6625 b73c
00000050: 6118 813d d9a3 a73d 073b cf3d 6850 7ebd
00000060: 5774 5e3d ce2f e53c f372 11bc 8e54 a3bb
00000070: d3df 093c a35a bf3d d0d6 a2bd d722 be3c
00000080: 03cd 82bd abda 56bc 0a8c 583c a7bb 763d
00000090: f335 1f3d f1e4 b7bd bbbf 923d 3b1e 8abd
000000a0: 8323 c5bd 8d7c 9b3d 8c7d 873d bf53 823d
000000b0: 4f8c 59bd 2b96 56bd 1b12 e7bd fa86 743d
000000c0: a236 3e3d a75b 313b dd1a a1bd 6039 96bd
000000d0: f867 23bd 7a8e 36bd 5773 5fbd e829 7abd
000000e0: e05e a33c 603a 613d 69ce 15bb 3eef 86bd
000000f0: 4489 b6bc ba85 d0bc b7e7 be3c e444 debd
00000100: 822f 373d 2f4a 35bd 6804 753d 9cc7 1abd
00000110: d30c 863d 58af 903d 727a b33d e2c5 783c
00000120: f0f7 e1bd 3839 39bd 04fb d6bc 753c babd
00000130: 3839 dc3c c053 2ebd b769 dc3c 13b5 77bd
00000140: c955 d2bb 9c20 2cbd 462e 863d 8616 e8bc
00000150: 020b 443d da97 ddbd 298e 9fbd fa73 aebd
00000160: 1357 423d 2382 933d 72eb 4d3d fde4 78bd
00000170: 5fed 423b dbb0 74bc 2e4a 30bc 5450 a7bb
00000180: 80ee d3bc 52ea d5bc 5fa4 c3bd 77a5 54bd
00000190: 008d d0bc c7d5 98bd 442c 2d3d 2ca2 86bd
000001a0: a80b 13bd 4ccd b3bd f3f5 113a 8a5e a6bd
000001b0: 9013 2cbd 5a37 d63b 0523 293d 1608 aabd
000001c0: 581a 2cbd 89de a9bd 34da 583d 4652 84bd
000001d0: b88f a53d 105a e3bd ab21 2cbd c686 bb3d
000001e0: 7f81 5e3d 42a1 b73d c927 6ebc 5234 f13b
000001f0: d841 a5bd 3d02 d43c f06e a63c e837 44bd
00000200: c8e2 983d 92d3 92bc ecc0 debc cc85 a4bd
00000210: df56 4dbc 9ab1 383d a557 b0bc 690a 94bd
00000220: 5816 1cbd ab8e 843d 1c0c 0cbd d872 e5bd
00000230: cb62 a1bd d9e9 8abd c0e5 68bd bf1f cdbb
00000240: f412 b53d c441 2bbc 413d 56bc 6acd 12bd
00000250: 65a6 a93c b62e 25bd 0e65 57bd 6689 d1ba
00000260: 5d16 453d 35ef ee3c 0a3d 763d 9792 25bc
00000270: b965 13bd ff11 3e3c e043 8ebd 3f0b b1bc
00000280: 7134 81bd a83d f8bc 3ae4 ebbd a42b 6bbd
00000290: ae57 f8bd 507c aebd c316 b9bd 69ec 463d
000002a0: 42eb 41bd 1c49 5dbd 58fa 0cbd a164 1d3d
000002b0: 15e0 403b c9fc 543d ffac 253d 66a1 f9bb
000002c0: 2bbb 67bd 8272 8d3d 9483 cfbd 3935 c73c
000002d0: 9804 9a3d fce6 7c3d 6b6b e2bc f0f4 efbc
000002e0: f050 073d a36f 913d 49ec 9abd 1471 58bc
000002f0: fe55 9a3d 6427 bebb 8d15 a13d edd9 d9bd
00000300: aa4f 2f3c 4708 67bd fbf9 58bc 4ec0 10bb
00000310: 97d6 11bd 2ae6 7f3d b535 45bd d421 eebd
00000320: c4bd 563d d318 333d c709 843d 4419 d7bb
00000330: 3da7 52bd 1842 04bd 96b7 0b3c b6af bfbb
00000340: f22f 423d 06bf 88bd 2351 523d e6fa 3dbd
00000350: afc8 d73c b243 05bc 572a 113a e236 713d
00000360: cc93 2ebd f797 3dbc 5b54 a8bd d35e babd
00000370: 9a8f a93d ad2b f8ba d04b 283d 7880 d0bc
00000380: 60ce 0c3d 576d c1bd e5c1 4f3c b311 883c
00000390: cda8 99bd 92ea 443d fd78 93bd a39e 84bd
000003a0: 0d9e 94bd 7dd4 92bd ea6e 17bc c0bc 99bd
000003b0: d6c0 35bd af69 a43d a70c 8ebd e705 8dbd
000003c0: 1342 86bd a21a 113d cd18 b5bd a474 d3bd
000003d0: 5065 9ebd 2b52 893d 5008 14bd 1ec8 0b3b
000003e0: ca8c 19bd b81a edbd a5e2 903d d868 52bd
000003f0: 294f c23d a62e 84bd 6914 8d3d 835e d7bc

conv2.bias f4 [128]
0.045529433 0.011747677 -0.004972722 0.11059983 0.082295105 0.03854046 0.06178585 0.001261497
-0.027211096 0.014884729 -0.054599248 0.03369671 0.040312193 -0.0057767974 -0.014099282 -0.06531659
-0.06654611 0.03347437 0.029526474 0.025710588 -0.0084231235 0.1560319 -0.011433221 -0.05555874
0.023199672 0.02336374 -0.07032704 -0.008907118 -0.04122087 -0.062391054 -0.016241506 0.03887451
-0.12642966 -0.05208821 0.012610608 -0.046316877 0.10527512 0.035101674 -0.021280482 -0.0010705662
-0.03197003 0.08200187 -0.022382557 0.026521118 -0.050359163 -0.03253843 0.021137234 0.018274685
0.11322122 -0.10465517 -0.040271107 0.0677182 -0.046701755 0.122076735 0.06763324 0.12105479
0.014543816 0.008832887 0.024044717 -0.12066828 -0.069886684 -0.039858308 0.007516844 -0.00498786
0.031297013 0.046126116 0.07371761 -0.08616617 0.044378955 0.0035333952 0.0043403096 0.105462775
-0.010817048 -0.060456 -0.07429705 -0.11102075 -0.084894404 -0.02810914 0.0746851 0.13022126
0.00055091205 0.022658663 0.015434862 -0.08309674 -0.052433822 -0.006819912 0.061643593 0.044435427
0.03403962 0.058738522 0.057707585 -0.07717858 -0.0053788223 0.07201877 0.01699774 0.02331079
0.016572433 -0.09101357 -0.086336546 0.09092281 -0.008994397 0.051566597 -0.04785509 0.0008557455
0.03681574 -0.04734592 -0.032331318 0.014969975 0.064599216 0.019940225 0.011965908 0.025112525
-0.047838975 0.1170163 -0.070392415 -0.039908685 0.02858312 -0.010459258 0.115727946 0.052481346
0.025877861 0.12362674 0.065946296 -0.08615485 -0.021914255 -0.009339629 -0.031548716 -0.056350306
00000000: 127d 3a3d 5479 403c 37f2 a2bb 2a82 e23d
00000010: 568a a83d 9adc 1d3d 2913 7d3d d158 a53a
00000020: cee9 debc 14df 733c 76a3 5fbd 9005 0a3d
00000030: 661e 253d 4a4b bdbb ad00 67bc b4c4 85bd
00000040: 5449 88bd 6c1c 093d 81e1 f13c 039f d23c
00000050: 2401 0abc d4c6 1f3e 6852 3bbc 9091 63bd
00000060: 3d0d be3c 5065 bf3c a007 90bd 29ef 11bc
00000070: 37d7 28bd c38d 7fbd e80c 85bc e13a 1f3d
00000080: c776 01be 725a 55bd b99c 4e3c c4b6 3dbd
00000090: 7b9a d73d c6c6 0f3d 6854 aebc 3e52 8cba
000000a0: 02f3 02bd 99f0 a73d a05b b7bc d142 d93c
000000b0: 6945 4ebd 0447 05bd fe27 ad3c cbb4 953c
000000c0: 87e0 e73d 7355 d6bd 51f3 24bd d7af 8a3d
000000d0: 574a 3fbd 5e03 fa3d 4c83 8a3d 93eb f73d
000000e0: 3049 6e3c d0b7 103c 6df9 c43c ee20 f7bd
000000f0: c020 8fbd 7742 23bd dc4f f63b 3471 a3bb
00000100: 4c31 003d bdee 3c3d 42f9 963d e477 b0bd
00000110: b5c6 353d 8990 673b 2839 8e3b defc d73d
00000120: fd39 31bc b6a0 77bd 0d29 98bd d95e e3bd
00000130: 1edd adbd 2445 e6bc 80f4 983d b958 053e
00000140: 156b 103a a99e b93c 81e2 7c3c a02e aabd
00000150: d9c4 56bd 9279 dfbb fe7d 7c3d ec01 363d
00000160: 216d 0b3d ce97 703d ca5e 6c3d ce0f 9ebd
00000170: d540 b0bb 947e 933d d83e 8b3c 45f6 be3c
00000180: e9c2 873c 5365 babd 37d1 b0bd bd35 ba3d
00000190: 3c5d 13bc 7f37 533d b303 44bd 1c54 603a
000001a0: 1acc 163d cced 41bd d86d 04bd a044 753c
000001b0: 984c 843d af59 a33c a80c 443c c8b8 cd3c
000001c0: cdf2 43bd 3ea6 ef3d e629 90bd 4a77 23bd
000001d0: 2627 ea3c 4f5d 2bbc c602 ed3d aef6 563d
000001e0: cffd d33c 0430 fd3d da0e 873d f471 b0bd
000001f0: 8685 b3bc 3e05 19bc 3a39 01bd 94cf 66bd

conv2.lin.weight f4 [128, 128]
-0.015735378 0.17698765 -0.12256528 -0.07862313 -0.101845406 0.16403142 -0.21358484 -0.12381408
0.002580506 -0.18030345 -0.12609147 0.21679263 0.0048300014 -0.11302355 0.43419775 0.106486715
-0.0859512 0.09989459 0.10936538 -0.00019895428 -0.09385482 -0.07375608 0.104550846 0.04656078
0.17292449 0.19119802 -0.100900136 0.051793203 0.01258496 -0.17778933 -0.10362819 0.029059693
0.11556132 0.034743473 -0.10081682 0.39938134 0.10276326 0.04606331 0.09026697 -0.004455797
0.09303545 -0.02358122 -0.11683112 0.46676332 0.13701044 0.13344108 0.15772994 -0.07778041
0.17929016 0.16130726 -0.059608873 0.03029822 0.1003515 -0.12703075 0.036058374 0.0014915252
0.06330153 -0.036213312 -0.06263152 0.024947856 0.07820147 0.014882712 0.11525347 0.05190095
0.024987813 -0.012289126 0.3009392 0.20246209 -0.010420214 0.00025238463 0.19012083 -0.036482807
0.018002719 0.11871206 0.1975446 -0.14486976 0.11783487 -0.12276108 -0.110836476 -0.16432497
-0.09719996 0.08189914 -0.042251427 -0.17394994 0.038430803 0.21128991 0.0023674592 0.1556015
-0.011643225 0.15727802 -0.13654006 0.09797656 -0.08453445 -0.16675176 0.123165876 0.16411407
-0.17746153 -0.01854933 0.082887955 -0.19800936 0.01239971 -0.09563635 0.055057906 -0.035321705
0.004716275 0.11232977 0.0453906 0.062466763 0.07144525 0.23538035 -0.12659922 -0.07413355
-0.093708254 -0.087856516 -0.03532552 0.10714343 0.1516648 -0.05038639 0.10513472 0.0047687613
0.14005859 -0.13044704 0.09975311 0.08870655 -0.19981562 0.03553008 0.047718026 0.13888496
0.06357633 0.11563363 0.05499722 -0.16597925 -0.030444453 -0.097352855 0.05803774 0.06230429
-0.012938906 0.08580212 -0.1299949 -0.13095899 0.12972446 0.14783171 -0.090792365 -0.03129687
-0.092314556 0.12281352 -0.040539835 -0.045423407 0.046056926 -0.030801792 0.04391641 -0.038918715
-0.10065399 -0.10366963 0.055683162 -0.3170021 -0.05010232 -0.013854089 0.056405447 0.03280401
0.028778572 -0.10331586 0.05809594 -0.39294395 -0.27441916 -0.054788552 -0.17000683 -0.100324504
-0.15386026 0.0050792666 -0.034492854 -0.28275555 -0.03862497 -0.18025106 -0.15168141 0.027232485
-0.18229914 -0.03755073 -0.2654738 -0.22676723 0.06357525 -0.01759702 0.10171347 -0.11002603
-0.2600974 0.22509725 0.071994096 -0.21603438 -0.18632402 -0.06711029 -0.046322998 -0.05867704
-0.00096535805 0.046425015 -0.13465516 -0.32311898 0.1097508 0.054369632 -0.11838267 0.10578125
0.13669802 -0.059033908 0.05329062 -0.11601964 -0.0038412705 0.11344501 -0.055231657 0.00628857
0.017028397 -0.1434727 0.05843426 -0.020015735 0.08890321 -0.09006634 -0.056219 -0.031688485
0.13605402 -0.15611681 0.09021926 0.010028316 -0.028448062 -0.07837156 -0.21557266 0.07064997
0.13055341 -0.095451556 -0.14374627 0.043201033 -0.21126425 -0.1996296 0.12561597 -0.043653022
0.09642445 -0.15874031 0.09713667 -0.06813346 -0.024744766 0.015971156 0.10256486 -0.24599475
0.055812247 0.10878792 0.008357008 0.11452106 -0.2159277 -0.19358061 -0.02562586 -0.16607535
0.07523056 -0.0066943406 -0.13266222 0.009445871 0.124022365 -0.025441937 -0.13875927 0.1464377
00000000: 7be7 80bc 403c 353e 8103 fbbd 2a05 a1bd
00000010: 5394 d0bd daf7 273e fcb5 5abe 3d92 fdbd
00000020: b51d 293b 78a1 38be 1f1e 01be e3fe 5d3e
00000030: fd44 9e3b e478 e7bd 2b4f de3e b515 da3d
00000040: 2f07 b0bd 8995 cc3d f5fa df3d 629e 50b9
00000050: f536 c0bd 6d0d 97bd c11e d63d 84b6 3e3d
00000060: 1e13 313e 6ac9 433e bba4 cebd 1c25 543d
00000070: 2631 4e3c 680e 36be 043b d4bd 980e ee3c
00000080: 6aab ec3d 2c4f 0e3d 0d79 cebd b67b cc3e
00000090: 8b75 d23d e2ac 3c3d e4dd b83d ef01 92bb
000000a0: 5f89 be3d 672d c1bc 2745 efbd 9afb ee3e
000000b0: 774c 0c3e c7a4 083e f583 213e 564b 9fbd
000000c0: d797 373e bb2d 253e 6f28 74bd f933 f83c
000000d0: 1685 cd3d 5914 02be f2b1 133d 487f c33a
000000e0: 3ca4 813d 6954 14bd f444 80bd 725f cc3c
000000f0: 1828 a03d 9ed6 733c 030a ec3d 1796 543d
00000100: 3eb3 cc3c 5558 49bc b414 9a3e 3952 4f3e
00000110: 8cb9 2abc 7e52 8439 09af 423e ff6e 15bd
00000120: 707a 933c 4f1f f33d 2249 4a3e bd58 14be
00000130: 6953 f13d 296a fbbd 3cfe e2bd ce44 28be
00000140: c610 c7bd bcba a73d d50f 2dbd ef1f 32be
00000150: 9e69 1d3d 625c 583e 6027 1b3b 0056 1f3e
00000160: 3ac3 3ebc 7d0d 213e 28d1 0bbe efa7 c83d
00000170: 6620 adbd f9c0 2abe 643e fc3d 850d 283e
00000180: 7ab8 35be c4f4 97bc 29c1 a93d f7c2 4abe
00000190: 2728 4b3c fedc c3bd 6684 613d 7ead 10bd
000001a0: fb8a 9a3b 270d e63d 7eeb 393d 26dd 7f3d
000001b0: e351 923d 8c07 713e 3aa3 01be 55d3 97bd
000001c0: 1dea bfbd 1eee b3bd 7eb1 10bd 046e db3d
000001d0: 044e 1b3e f661 4ebd df50 d73d 4543 9c3b
000001e0: 856b 0f3e e993 05be 5c4b cc3d c8ab b53d
000001f0: 779c 4cbe fd87 113d fa73 433d dc37 0e3e
00000200: 4f34 823d 53d1 ec3d c444 613d 77f6 29be
00000210: a566 f9bc ef60 c7bd fbb8 6d3d c832 7f3d
00000220: b5fd 53bc 06b9 af3d 621d 05be 1d1a 06be
00000230: 7dd6 043e 3261 173e 59f1 b9bd 2631 00bd
00000240: 6a0f bdbd a885 fb3d 190d 26bd e50d 3abd
00000250: 30a6 3c3d 0a54 fcbc b2e1 333d 3b69 1fbd
00000260: ae23 cebd be50 d4bd 0714 643d 194e a2be
00000270: 1738 4dbd 43fc 62bc 6609 673d 7f5d 063d
00000280: 0ac1 eb3c 4497 d3bd 02f6 6d3d f32f c9be
00000290: ab80 8cbe f669 60bd 4516 2ebe ef76 cdbd
000002a0: 8b8d 1dbe fa6f a63b 6148 0dbd 56c5 90be
000002b0: 3735 1ebd bc93 38be 5f52 1bbe a916 df3c
000002c0: a0ac 3abe cbce 19bd 2fec 87be ab35 68be
000002d0: be33 823d a027 90bc 274f d03d 5455 e1bd
000002e0: 7d2b 85be e57f 663e a471 933d 1e38 5dbe
000002f0: b9cb 3ebe 1f71 89bd 2fbd 3dbd 5657 70bd
00000300: 1510 7dba 2828 3e3d 0be3 09be da6f a5be
00000310: 07c5 e03d b1b2 5e3d 9d72 f2bd d7a3 d83d
00000320: 91fa 0b3e 8acd 71bd 4447 5a3d b49b edbd
00000330: d3bd 7bbb db55 e83d 973a 62bd 5910 ce3b
00000340: 237f 8b3c 82ea 12be c358 6f3d 0af8 a3bc
00000350: e312 b63d b474 b8bd e545 66bd c9cb 01bd
00000360: bf51 0b3e 16dd 1fbe e0c4 b83d ce4d 243c
00000370: e90b e9bc 4581 a0bd 14bf 5cbe eeb0 903d
00000380: cbaf 053e 1b7c c3bd 3932 13be 91f3 303d
00000390: a855 58be b46b 4cbe 79a1 003e 83cd 32bd
000003a0: 2f7a c53d d28c 22be 97ef c63d 8e89 8bbd
000003b0: 89b5 cabc f1d5 823c 860d d23d 0ce6 7bbe
000003c0: 629b 643d 33cc de3d d5eb 083c 048a ea3d
000003d0: 271c 5dbe ff39 46be 53ed d1bc a80f 2abe
000003e0: 7b12 9a3d 335c dbbb 9bd8 07be dbc2 1a3c
000003f0: 70ff fd3d 9c6b d0bc e916 0ebe c4f3 153e
