pretrained_gnns/Flickr_GraphCL_GCN_1.pth (torch, 324920 bytes, 4 tensors)

conv1.bias f4 [128]
0	0x3c7e615b	0.015526141
1	0xba0d736b	-0.0005395922
2	0xbbbf5313	-0.0058387606
3	0x3c852422	0.016252581
4	0xbb9b4f86	-0.0047397045
5	0xbbf4dcf0	-0.007472627
6	0x3c4bac34	0.012431193
7	0x351a0d06	5.738842e-07
8	0xb9f31c89	-0.00046369832
9	0x3c36830d	0.011139643
10	0x3cf61640	0.030039907
11	0xbc533e2a	-0.012893239
12	0x3b9a293f	0.004704624
13	0x3be5a5f2	0.0070083076
14	0xbc59a0e8	-0.013282992
15	0x3c914fcf	0.017738251
16	0xbc419456	-0.011815151
17	0x3b830caa	0.0039993124
18	0xba98b9c1	-0.0011652039
19	0x3c6e28ad	0.014536065
20	0xbc0ad58f	-0.008473768
21	0xb9ec4625	-0.0004506569
22	0x3c63a389	0.01389397
23	0x3bb38e4d	0.00547961
24	0xbb8c5c76	-0.004283483
25	0xbc281ae4	-0.0102603175
26	0x3c958bf8	0.018255219
27	0x3c5d7543	0.013516727
28	0x3bab7192	0.0052320445
29	0x3cc00fff	0.023445128
30	0xbac57e65	-0.0015067576
31	0xbc057b58	-0.008147083
32	0x3b2d0a59	0.0026403873
33	0x3ca7fdd6	0.02050678
34	0x3c9a1c2e	0.018812265
35	0xbc1a8985	-0.009432201
36	0xb896ac40	-7.1846414e-05
37	0x3c301e5d	0.010749427
38	0xbc1a2d0c	-0.009410154
39	0xbc1ee690	-0.009698525
40	0x3c991e51	0.018691214
41	0xbb2e98dc	-0.0026641404
42	0x3926c1e6	0.00015903226
43	0xbc1a2cb0	-0.009410068
44	0xba55c5ae	-0.0008154762
45	0x3c7abbf2	0.015303599
46	0x3c90de32	0.017684076
47	0xbc3b411e	-0.011429099
48	0x3af602af	0.001876911
49	0x3c107d98	0.008819006
50	0x3c4e719e	0.012600331
51	0x3c96b039	0.018394576
52	0xbc938ecc	-0.018012427
53	0xbc1e23e1	-0.009652109
54	0xbbe252e7	-0.0069068554
55	0x3bf3d844	0.0074415524
56	0x3c932082	0.017959837
57	0xbbe9f810	-0.007140167
58	0x3baedbf8	0.005336281
59	0x3b3d7798	0.0028910395
60	0xb924be93	-0.00015711253
61	0x3c6490f2	0.013950573
62	0x3bab8e02	0.0052354345
63	0xbbfa0630	-0.007630132
64	0x3b78917d	0.0037928515
65	0xbcb5d45f	-0.022195993
66	0x3cb5f82e	0.022213068
67	0x3c04f473	0.008114922
68	0x3c115cfe	0.008872269
69	0x3c5af0c0	0.013363063
70	0xbc7cff2f	-0.0154417
71	0x3c809d9a	0.01570015
72	0x3cbe8793	0.023258006
73	0x3ba5d17a	0.005060372
74	0x3ae52f41	0.0017485396
75	0xbb248188	-0.002510162
76	0x3bbc9e47	0.005756173
77	0x3cb21bb7	0.021741731
78	0xbbfd63f4	-0.0077328626
79	0x3ca7ea37	0.020497425
80	0x3cc4ad54	0.02400843
81	0x3bd54197	0.006508063
82	0x3c8be74d	0.017078066
83	0x3ba5069f	0.0050361897
84	0xbc05d686	-0.008168822
85	0xba78ad8f	-0.00094863115
86	0x3c7799c6	0.015112346
87	0x3c1ffa2b	0.009764235
88	0x3cb6e41c	0.022325568
89	0xbb932f1e	-0.004491701
90	0x3c037f29	0.008025923
91	0x3c705c3c	0.014670428
92	0x3b1def76	0.0024099029
93	0x3cadf777	0.021236164
94	0x3b3f23df	0.0029165668
95	0xbc7f875a	-0.015596235
96	0x3c7db3aa	0.01548473
97	0xba9e3762	-0.0012070949
98	0xbb07dff5	-0.0020732854
99	0xbc371d53	-0.011176425
100	0x3c1c4bea	0.009539584
101	0xbaf8483e	-0.0018942428
102	0x3c687c8b	0.01418985
103	0xbc05f5f1	-0.008176313
104	0xbca7383b	-0.020412555
105	0x3b044350	0.0020181723
106	0xbb17d1e1	-0.002316587
107	0x3c647ecf	0.013946249
108	0xbc8e38a3	-0.01736099
109	0x3bae92a1	0.005327538
110	0x3c4493d5	0.0119981365
111	0xbb7ea7d4	-0.0038857358
112	0x3b2fda09	0.002683284
113	0x3b7f1754	0.0038923817
114	0x3c30b917	0.010786316
115	0xbbc4b2ca	-0.0060027586
116	0x3c9127e9	0.017719226
117	0x3bd0a900	0.0063678026
118	0x3cf8a96f	0.03035423
119	0x3948c8d4	0.000191483
120	0x3b04a917	0.0020242387
121	0xbb51e511	-0.0032027403
122	0x3bd288e6	0.006425011
123	0xbbcf45d5	-0.0063254633
124	0xbb9076d3	-0.004408696
125	0x398caf83	0.00026833647
126	0xbc1dca8c	-0.0096308105
127	0x3c487f17	0.012237332

conv1.lin.weight f4 [128, 500]
0	0x3cafb06f	0.021446435
1	0x3c240f27	0.010013378
2	0xbbc7a075	-0.006092126
3	0xbc4c6df6	-0.012477389
4	0x3d4abc80	0.049496174
5	0x3cbb0f39	0.022834407
6	0xbd284422	-0.0410806
7	0x3cbe2478	0.023210749
8	0xbd13d480	-0.036091328
9	0xbd657f77	-0.056029763
10	0xbd65c941	-0.056100134
11	0xbcf740eb	-0.030182322
12	0xbd9e2211	-0.077213414
13	0xbca65541	-0.020304324
14	0xbc8425fe	-0.016131397
15	0x3be40c31	0.006959461
16	0xbdaf0bd7	-0.0854718
17	0xbd64ff82	-0.055907734
18	0x3da62519	0.081125446
19	0x3d049692	0.032370158
20	0x3d9fab71	0.07796372
21	0x3dca61e7	0.09881955
22	0x3dc09147	0.094027095
23	0xbd3ca330	-0.046054065
24	0x3d9b2145	0.07574705
25	0x3d34910e	0.044083647
26	0x3bfe4c09	0.007760529
27	0x3c5e959f	0.013585477
28	0xbacf781a	-0.001582864
29	0x3d8a3dbc	0.06750056
30	0xbda87831	-0.0822605
31	0x3d80d7d4	0.06291166
32	0xbd1cf2b3	-0.038317394
33	0x3c02c5a0	0.007981688
34	0xbc13f54b	-0.00903065
35	0x3d642ef0	0.055708826
36	0x3d3e4e98	0.04646167
37	0xbd8319d6	-0.06401412
38	0x3dd295b4	0.1028246
39	0xbd4d5598	-0.050130457
40	0xbd905eee	-0.070493564
41	0x3d5dd25c	0.054155692
42	0x3dc02db8	0.0938372
43	0x3dab9e6c	0.08379826
44	0xbd4902b2	-0.049074836
45	0xbd1c247b	-0.038120728
46	0xbda5b8a1	-0.08091856
47	0x3dbe2385	0.092841186
48	0x3d6d9f5b	0.0580133
49	0x3d084df6	0.033277474
50	0xbd58cb9c	-0.052928552
51	0xbdb052e0	-0.08609557
52	0xbc97b6f7	-0.018519862
53	0xbcd68c5c	-0.026189975
54	0xbcef7ca0	-0.02923423
55	0xbd186490	-0.03720528
56	0x3cb2dd00	0.021833897
57	0x3d8b6e11	0.06808103
58	0x3ba9c164	0.0051805247
59	0xbd806198	-0.062686145
60	0x3c20cb9e	0.009814171
61	0xbb1eb80b	-0.0024218585
62	0x3d1f97e2	0.038963206
63	0xbdccc89e	-0.09999202
64	0x3d87cbae	0.06630646
65	0xbd06f959	-0.03295264
66	0x3d4ce6fd	0.050024975
67	0xbc728548	-0.014802285
68	0x3d95c1a9	0.07312328
69	0x3d7800b8	0.06054756
70	0x3de66989	0.11250598
71	0x3d2ddd0c	0.042447135
72	0xbdb6ef53	-0.08932366
73	0xbd2018af	-0.03908604
74	0x3bc73192	0.0060789073
75	0xbd9587c1	-0.07301284
76	0x3d6de5e4	0.05808057
77	0xbd0b1365	-0.033954043
78	0x3d2940d8	0.041321605
79	0xbd196785	-0.03745224
80	0x3cbf7b5e	0.023374256
81	0xbba44fb8	-0.005014386
82	0x3dab1352	0.083532944
83	0xbcd76c10	-0.026296645
84	0x3d4a4d85	0.049390335
85	0xbdb535d4	-0.088481575
86	0xbd952189	-0.07281787
87	0xbd04172e	-0.03224867
88	0x3d86738d	0.06565008
89	0x3dbcdc43	0.09221699
90	0x3d929388	0.071570456
91	0xbd09bbc1	-0.03362632
92	0x3c055537	0.008137993
93	0x3c774a81	0.015093447
94	0xbd484624	-0.048895016
95	0x3c8a1ad6	0.0168585
96	0xbd82e4aa	-0.063912705
97	0x3adf27eb	0.0017025446
98	0xbd9f0ad7	-0.077657394
99	0xbd0742ab	-0.033022564
100	0x3b93a6fe	0.004505991
101	0xbd85c121	-0.06530977
102	0x3d98c85a	0.07460089
103	0xbd7dabed	-0.06193154
104	0xbd974aee	-0.073873386
105	0xbda2e09b	-0.07952996
106	0xbc0afa50	-0.008482531
107	0xbd7a1f9b	-0.061065298
108	0xbd06e4d3	-0.032933068
109	0x3c4b3616	0.012403032
110	0x3d7354f1	0.05940718
111	0xbd68f077	-0.05686995
112	0xbc53c4ad	-0.012925309
113	0xbda85b68	-0.08220559
114	0x3da2d639	0.07951016
115	0xbcadc61d	-0.021212632
116	0x3d4961cc	0.049165532
117	0xbdb0d7ef	-0.08634936
118	0xbca7cf52	-0.0204846
119	0x3dc2f099	0.095185466
120	0x3d9a6a26	0.075397775
121	0x3d9a3e46	0.07531409
122	0x3b48404f	0.003055591
123	0x3d8514dd	0.0649812
124	0xbd97a0cc	-0.074037164
125	0x3d0bc92c	0.0341274
126	0x3d7672d2	0.060168095
127	0xbc9d2c73	-0.019186234
128	0x3dc4e9df	0.0961492
129	0xba005d6b	-0.0004896733
130	0xbcbf341c	-0.023340277
131	0xbd85737d	-0.06516168
132	0xbc5088ae	-0.0127278995
133	0x3d8b5142	0.06802608
134	0x3bc3c834	0.005974794
135	0xbd719131	-0.058976356
136	0xbcb2be08	-0.02181913
137	0x3dce466e	0.10072027
138	0xbd8a11aa	-0.067416504
139	0xbdbd923b	-0.09256407
140	0xbd38dddd	-0.04513346
141	0xbd1027a4	-0.035194054
142	0xbccb7e28	-0.02484043
143	0x3bbaf09e	0.0057049533
144	0x3d9fe13f	0.07806634
145	0x3a45c25d	0.0007543916
146	0x3c9b988c	0.018993638
147	0xbc2124fc	-0.009835478
148	0x3d55724b	0.05211095
149	0xbc992b76	-0.018697482
150	0xbcd2f48c	-0.025751375
151	0x3c9a85ea	0.018862683
152	0x3d8373d3	0.06418576
153	0x3d5cddb1	0.05392236
154	0x3d951e33	0.07281151
155	0x3ca8a6de	0.020587381
156	0xbd7c5538	-0.06160471
157	0x3d0921d5	0.03347953
158	0xbd8d1b3c	-0.0688996
159	0x3c39580e	0.011312498
160	0xbcdf2dda	-0.027243543
161	0xbd1cbf68	-0.038268477
162	0xbd9e35f0	-0.077251315
163	0xbd03b277	-0.03215262
164	0xbdab75cf	-0.083720796
165	0xbd55bedc	-0.05218397
166	0xbd618375	-0.055057008
167	0x3d5ba826	0.053627156
168	0xbcda689e	-0.026661213
169	0xbd0e32bc	-0.034716353
170	0xbcbf560d	-0.023356462
171	0x3d86fc75	0.06591121
172	0x3caecf21	0.021339001
173	0x3d688d28	0.056775242
174	0x3dbd9989	0.092578
175	0xbc87cf9d	-0.01657849
176	0xbd22394f	-0.039605435
177	0x3dbd9e64	0.09258726
178	0xbdcb86a5	-0.09937791
179	0x3d639e71	0.055571023
180	0x3db5304d	0.08847103
181	0x3dcb8e00	0.09939194
182	0xbc94f0d2	-0.018181238
183	0x3b8f18ae	0.0043669557
184	0x3d95eb09	0.0732022
185	0x3dc23d74	0.094843775
186	0xbd4ca5c6	-0.04996278
187	0x3acbde99	0.001555401
188	0x3dba4b1a	0.09096356
189	0x3c1345c2	0.0089887995
190	0x3dacea7b	0.08443161
191	0xbd9dc57a	-0.07703681
192	0x3c96c96a	0.018406589
193	0xbcc5b75d	-0.024135286
194	0x3bf39eea	0.0074347155
195	0x3bcdc6d9	0.006279808
196	0xbce76ce7	-0.02825017
197	0x3db07169	0.08615381
198	0x3ca0809f	0.019592581
199	0xbd96a6da	-0.07356043
200	0x3d83188c	0.06401166
201	0x3d480122	0.048829205
202	0x3d378445	0.044803876
203	0x3afe8ec0	0.0019421205
204	0xbd337ee0	-0.04382217
205	0xbb9c0474	-0.004761273
206	0x3d6f0d92	0.05836255
207	0x3ca142fe	0.019685265
208	0x3da67a28	0.08128768
209	0xbd31dbd7	-0.043422546
210	0x3d9e1bc8	0.077201426
211	0xbd5a32d4	-0.05327113
212	0x3da658cb	0.08122405
213	0x3baa2d63	0.005193399
214	0x3c635eaf	0.013877555
215	0x3d9ab7c3	0.07554581
216	0xbd7354af	-0.059406932
217	0x3c9baf97	0.019004626
218	0xbd3f7ae5	-0.04674806
219	0xbd97a33a	-0.0740418
220	0x3db6923c	0.08914611
221	0x3ca74da7	0.02042277
222	0x3d67526d	0.05647509
223	0xba7023cb	-0.0009160607
224	0x3d811ae6	0.063039586
225	0xbd8c9ed2	-0.0686623
226	0x3d36fa94	0.044672564
227	0x3c9c6560	0.019091308
228	0xbd7b4213	-0.06134231
229	0x3d9fa5a4	0.07795265
230	0xbd98cb91	-0.07460702
231	0xbd15fe37	-0.03661939
232	0xbd678504	-0.056523338
233	0xbd37f74c	-0.044913575
234	0x3c41b3b3	0.011822629
235	0xbd24d48e	-0.04024177
236	0xbcb06d74	-0.021536566
237	0x3dbca736	0.092115805
238	0xbd7112c6	-0.058855794
239	0xbd174b16	-0.036936842
240	0xbd81a790	-0.06330788
241	0x3d916513	0.070993565
242	0xbdace94e	-0.08442937
243	0xbda603bd	-0.08106182
244	0xbd942bbd	-0.07234905
245	0x3da79f39	0.08184666
246	0xbd073288	-0.033007175
247	0x3c215fea	0.009849528
248	0xbd0787c6	-0.033088468
249	0xbdc49897	-0.09599417
250	0x3db0b999	0.0862915
251	0xbd0b3102	-0.033982284
252	0x3dc6b912	0.09703268
253	0xbd1b2bd2	-0.037883587
254	0x3db26c70	0.08712089
255	0xbd136239	-0.035982344

conv2.bias f4 [128]
0	0x3c1c2d39	0.009532266
1	0xbab55fea	-0.0013837789
2	0x3aacb997	0.0013177869
3	0xbcb11358	-0.02161567
4	0x3ae418a3	0.0017402362
5	0xbbc3af25	-0.0059718066
6	0xbd1f31a0	-0.038865685
7	0xbcb939eb	-0.022610625
8	0xbc723269	-0.0147825265
9	0xbcc9559a	-0.02457695
10	0xbc9c9d6a	-0.01911803
11	0x3cbe49d0	0.023228556
12	0xbc52d329	-0.012867727
13	0xbc9c0684	-0.019046076
14	0x3be8c66e	0.007103733
15	0xbc85f332	-0.016351316
16	0xbc704fe8	-0.014667489
17	0xbc4eae82	-0.012614848
18	0xbcc130f9	-0.023582922
19	0x3bcfd1b2	0.0063421363
20	0xbc336937	-0.010950378
21	0x3b1e3b01	0.0024144056
22	0x3be7360c	0.0070560034
23	0x3c2a793a	0.010404879
24	0x3d0178b5	0.031609256
25	0x3b9736bc	0.004614679
26	0xbcb2a601	-0.021807672
27	0xbbd8bb7b	-0.0066141463
28	0xbb4c1ccd	-0.0031145096
29	0x37a76d05	1.9958718e-05
30	0x3bb1b392	0.005423018
31	0xbc8d2a73	-0.017232155
32	0x3c9e6ac7	0.019338025
33	0x3ce978ee	0.028500047
34	0xbc30507e	-0.010761378
35	0x3c0b2b79	0.008494251
36	0x3c642c84	0.013926629
37	0xbcc6b4ed	-0.024256194
38	0x3cf1aa69	0.029500203
39	0x3c094f4f	0.008380725
40	0xbc79807c	-0.015228387
41	0x3c8b680b	0.017017385
42	0x3bbf5fc4	0.0058402736
43	0xbca750f3	-0.020424342
44	0x3c7c5df2	0.015403258
45	0xbc3972fd	-0.011318919
46	0x3b2eff5c	0.00267025
47	0x3c15faaa	0.009154001
48	0x3c1963bb	0.0093621565
49	0x3be6103a	0.0070209773
50	0xbc3d04fd	-0.011536834
51	0x3c208272	0.009796726
52	0xba9911a4	-0.0011678231
53	0xbb31abdd	-0.0027110495
54	0x3cb6d95d	0.022320444
55	0xbb601e72	-0.0034197834
56	0x3cdcc812	0.02695087
57	0xbc427776	-0.011869302
58	0xbcac1afa	-0.021008957
59	0x3d08ba3a	0.033380724
60	0x3bc24187	0.0059282216
61	0x3bb9138c	0.005648082
62	0x3c25ed2e	0.010127349
63	0x3ca28747	0.019839896
64	0xbc38fb9d	-0.011290458
65	0xbc9f2281	-0.019425632
66	0x3abdffaf	0.0014495755
67	0xbd2a58bc	-0.04158853
68	0x3b354318	0.00276584
69	0x3b84cd57	0.0040527987
70	0x3cd7b5a8	0.026331738
71	0x3b38f3a3	0.002822139
72	0xbb1fae87	-0.00243655
73	0xbb3119f3	-0.0027023524
74	0xbcb2e52d	-0.021837795
75	0x3a6c505b	0.00090146594
76	0x3ced646b	0.028978547
77	0x3cc33084	0.023826845
78	0x3c6bb925	0.014387404
79	0x3c885489	0.016641872
80	0x3ce2911b	0.027657082
81	0x3c3ec662	0.011643978
82	0xbc1218b2	-0.008917021
83	0x3c2b4b3b	0.010454948
84	0xbc4a002b	-0.012329142
85	0xbca9ff31	-0.020751568
86	0x3c82e478	0.015978083
87	0xbcb9e61a	-0.022692729
88	0x3c285bed	0.010275823
89	0xbaca6c7a	-0.0015443705
90	0xbc222309	-0.009896048
91	0x3c7922a0	0.015206009
92	0xbb0550ce	-0.0020342353
93	0x3b839f6b	0.004016807
94	0xbc90a257	-0.017655535
95	0x3c8717cf	0.016490845
96	0x3b8db430	0.0043244585
97	0xbc698874	-0.014253724
98	0xbc67ab2c	-0.014139932
99	0xbc70f3ae	-0.014706535
100	0x3c21c432	0.009873437
101	0xbce41884	-0.027843721
102	0xbc999fec	-0.018753015
103	0x3a76db41	0.00094168267
104	0xbc98ea8c	-0.018666528
105	0xbbd848ed	-0.0066004903
106	0x3cd303c5	0.025758633
107	0xbc474f67	-0.012164927
108	0xbc95f212	-0.018303905
109	0xbca0c19c	-0.01962357
110	0xbce42773	-0.027850842
111	0xbc0461d1	-0.008079962
112	0xbca74624	-0.020419188
113	0xbcb2ac00	-0.021810532
114	0x3c24e198	0.010063551
115	0x3cb9faec	0.022702657
116	0xbc44a598	-0.012002371
117	0xbd27e776	-0.040992223
118	0x3c88fbb5	0.016721586
119	0xbd1ed034	-0.038772777
120	0x3c8a9232	0.016915414
121	0xbbbe7d3c	-0.005813269
122	0xbd031685	-0.0320039
123	0x3cfd9804	0.030956276
124	0xbc84ab55	-0.016194979
125	0xba92b7e9	-0.0011193726
126	0x3c550998	0.013002776
127	0xbab61d96	-0.0013894315

conv2.lin.weight f4 [128, 128]
0	0xbc85a1d0	-0.01631251
1	0x3dfda073	0.12384119
2	0xbd4865fb	-0.04892538
3	0xbd45bb77	-0.048274484
4	0xbc7ffe35	-0.0156245725
5	0xbca46a47	-0.020070208
6	0xbdbcb130	-0.09213483
7	0xbdb81f63	-0.089903615
8	0xbc501737	-0.012700847
9	0xbe297d73	-0.16551761
10	0xbdf0bb01	-0.11754418
11	0x3db1e6ad	0.08686576
12	0x3da6cd52	0.081446305
13	0xbdecbc8d	-0.11559401
14	0x3de68f45	0.11257795
15	0x3d7532ee	0.059863023
16	0xbdd4bc2d	-0.10387454
17	0x3e15c4da	0.14625874
18	0x3dcedb6b	0.101004444
19	0xbd0e211b	-0.03469954
20	0xbe0cb18a	-0.13739601
21	0xbd4d002b	-0.05004899
22	0x3d8ec8f9	0.06971926
23	0x3d317777	0.04332682
24	0x3d3bb735	0.045829017
25	0x3d800408	0.06250769
26	0xbd87a145	-0.066225566
27	0xbdfc805b	-0.12329169
28	0x3ce3e182	0.027817491
29	0xbdfb81e7	-0.12280636
30	0xbc07568d	-0.008260381
31	0xbc727d49	-0.014800378
32	0x3df406a7	0.11915331
33	0xbd94cc64	-0.07265547
34	0xbe225969	-0.1585442
35	0x3e062b7d	0.13102527
36	0xbd9c9df1	-0.076473124
37	0xbc6d9b6d	-0.014502388
38	0x3dbe1ea7	0.0928319
39	0x3c8ab856	0.016933601
40	0x3b83fbdf	0.004027828
41	0xbdae0c0a	-0.0849839
42	0xbdf2c940	-0.11854792
43	0x3de1b5b0	0.11020982
44	0x3dd78ae4	0.10524538
45	0x3d989827	0.07450896
46	0x3dcea214	0.10089508
47	0xbd2789d2	-0.04090292
48	0x3dd1cfbd	0.10244701
49	0x3dcf29cd	0.10115395
50	0xbdb1fe0f	-0.08691036
51	0xbd608e53	-0.05482323
52	0x3df581d9	0.11987657
53	0xbe14a655	-0.14516576
54	0x3dad94d9	0.08475656
55	0x3d8ade41	0.06780673
56	0xbd3fe0c6	-0.04684522
57	0x3c1a67c8	0.009424157
58	0xbd88e19f	-0.06683659
59	0xbdb32e69	-0.087490864
60	0x3d94e35c	0.07269928
61	0xbbf79d4c	-0.007556593
62	0x3db9e02a	0.09075959
63	0x3c7b9c86	0.015357142
64	0xbde0341a	-0.109474376
65	0xbdb9bbd9	-0.09069032
66	0x3c37102f	0.011173292
67	0x3db247a0	0.08705068
68	0x3c990e9d	0.018683726
69	0xbbc644f6	-0.0060507013
70	0x3d6fd760	0.058555007
71	0x3b4963ae	0.003072958
72	0x3d3ee098	0.046600908
73	0x3de6c3f0	0.11267841
74	0x3e128f25	0.14312418
75	0xbe183852	-0.14865234
76	0x3db02248	0.08600289
77	0xbe0d0c08	-0.13774121
78	0xbe02c2e6	-0.1276966
79	0xbe0313cb	-0.12800519
80	0xbdd46bb0	-0.10372102
81	0x3cc2e050	0.023788601
82	0x3bbfe041	0.0058555906
83	0xbe2316aa	-0.15926614
84	0x3dcdcb89	0.10048587
85	0x3d2d5bf3	0.042324018
86	0xbc5eb186	-0.01359213
87	0xbe01d882	-0.12680247
88	0xbceebba4	-0.029142208
89	0x3e192b60	0.14957952
90	0xbdf5d308	-0.12003142
91	0x3d439c8e	0.047756724
92	0xbe173ab0	-0.14768481
93	0xbe0a1e56	-0.13488135
94	0x3d873f79	0.06603903
95	0x3e2034b3	0.15645103
96	0xbdc9f156	-0.09860484
97	0xbdc6ccb5	-0.097070135
98	0x3db24e48	0.08706337
99	0xbe031c15	-0.12803681
100	0xbd400834	-0.046882823
101	0xbe04a4e4	-0.12953526
102	0xbbb41bf4	-0.0054964963
103	0xbc368b66	-0.011141634
104	0x3d9cd22e	0.07657276
105	0xbc45e3ca	-0.012078235
106	0x3d94497b	0.07240578
107	0xbd405d5b	-0.04696403
108	0x3d855ebe	0.06512211
109	0xbdc49e03	-0.09600451
110	0xbd5a8f65	-0.053359408
111	0xbde1bcb9	-0.11022324
112	0xbde847c5	-0.11341814
113	0xbd7d33b6	-0.061816894
114	0xbd7ac9d7	-0.061227646
115	0x3da7505c	0.08169624
116	0x3d8b1767	0.06791573
117	0xbe27e5ea	-0.16396299
118	0x3d222070	0.039581716
119	0xbd618e3e	-0.055067293
120	0xbdd72718	-0.105055034
121	0xbe1a130f	-0.15046333
122	0x3d6cc36c	0.057803556
123	0x3dd76980	0.105181694
124	0xbe089262	-0.1333709
125	0x3d0698a8	0.032860428
126	0xbd278c7f	-0.040905472
127	0x3cce0415	0.02514843
128	0x3d332db1	0.043744747
129	0x3e196e91	0.14983584
130	0xbc1222d8	-0.00891944
131	0xbe01623d	-0.12635131
132	0xbdde179d	-0.108443476
133	0xbcba187a	-0.02271675
134	0x3c72fdbc	0.014831003
135	0x3d6b4399	0.057437513
136	0x3d8d1d29	0.068903275
137	0x3dc4c2d7	0.09607475
138	0xbdfdf586	-0.124003455
139	0xbcb0d4c0	-0.021585822
140	0x3e043a40	0.12912846
141	0x3deecb69	0.11659891
142	0xbde0dd42	-0.109797016
143	0x3d8f6705	0.07002071
144	0x3bdeec41	0.006803066
145	0x3dbbecf3	0.09176054
146	0xbd45313e	-0.048142664
147	0x3cc53dc3	0.024077302
148	0x3de1fe45	0.11034826
149	0xbc4d66c2	-0.012536706
150	0x3cc1c2dd	0.023652488
151	0xbc6f0cbd	-0.014590439
152	0x3bddcea9	0.0067690206
153	0xbd4fdb34	-0.050746158
154	0x3d1682b1	0.03674573
155	0xbe2357c6	-0.15951452
156	0xbc668d9e	-0.01407185
157	0xb8c547dd	-9.4070776e-05
158	0xbce97bd3	-0.028501427
159	0x3df1b830	0.11802709
160	0x3c01edc8	0.007930227
161	0xbb469f31	-0.0030307288
162	0x3cda1165	0.026619622
163	0xbdfae40d	-0.122505285
164	0xbdfa4cad	-0.12221656
165	0xbc35f104	-0.011104826
166	0xbdef38e2	-0.116807714
167	0xbe0605e0	-0.13088179
168	0xbd429204	-0.047502533
169	0x3e008a9c	0.12552875
170	0x3d0c48b1	0.03424901
171	0xbda66a03	-0.08125689
172	0x3c8ae5ca	0.016955275
173	0xbd8a23ab	-0.067450844
174	0xbdf0beb5	-0.117551245
175	0x3d43e368	0.047824293
176	0xbd5a07cf	-0.053230103
177	0xbc9f13c0	-0.019418597
178	0xbe04239d	-0.1290421
179	0xbdfa5b6b	-0.12224468
180	0x3c3670bf	0.011135279
181	0x3d94c4d3	0.07264104
182	0x3cc430db	0.023949077
183	0xbdaa3bf2	-0.08312215
184	0xbe0dc881	-0.13846017
185	0x3e1848f9	0.14871587
186	0x3d7ec16d	0.062196184
187	0xbd832de6	-0.06405239
188	0xbe1d2430	-0.15345836
189	0xbb5e13ae	-0.0033886242
190	0xbd5067f3	-0.050880384
191	0x3ccae482	0.024767164
192	0x3db1795b	0.08665725
193	0x3db78cc6	0.08962397
194	0x3ddfc29d	0.109257914
195	0xbe172ba9	-0.14762749
196	0x3d5b864d	0.053594876
197	0x3dff7ceb	0.12474998
198	0x3d6a5466	0.057209395
199	0x3e19df36	0.15026554
200	0x3e043dfe	0.12914273
201	0xbd13a966	-0.036050223
202	0x3dda92e1	0.10672546
203	0xbdeedc3b	-0.116630994
204	0x3c173920	0.009229928
205	0x3e027b6d	0.12742396
206	0x3d823f74	0.06359759
207	0xba7c0b31	-0.0009614705
208	0x3da958d7	0.08268898
209	0xbd102ffe	-0.03520202
210	0xbbe74774	-0.0070580784
211	0x3da3d9ab	0.08000501
212	0x3d88384d	0.066513635
213	0x3dbd35ce	0.09238778
214	0xbd4dd802	-0.05025483
215	0x3d1bf902	0.03807927
216	0x3e0d4d70	0.13799071
217	0xbe2918fd	-0.16513439
218	0x3e0c13e7	0.13679467
219	0x3dbb8707	0.09156614
220	0xbce3f5cf	-0.027827172
221	0xbe0ddfc5	-0.13854893
222	0xbdfd201b	-0.12359639
223	0x3d5558ef	0.052086767
224	0x3d16ea67	0.036844637
225	0x3c819231	0.01581678
226	0xbdf52e34	-0.11971703
227	0xba877ca1	-0.0010336825
228	0xbde9e5f8	-0.11420816
229	0xbde5c213	-0.11218657
230	0x3e02cd99	0.12773742
231	0xbdc69728	-0.096967995
232	0xbc9ebf60	-0.019378364
233	0xbdd7ea80	-0.10542774
234	0x3e12d690	0.14339662
235	0x3d92ea0d	0.07173548
236	0xbd0d8f4c	-0.034560487
237	0x3d8b46e3	0.0680063
238	0x3dea478e	0.11439429
239	0xbe05414b	-0.13013189
240	0x3d983cd1	0.07433475
241	0x3df71908	0.12065321
242	0x3d1d6577	0.038426843
243	0x3e081b43	0.1329165
244	0xbdb1675a	-0.08662291
245	0xbdacb160	-0.08432269
246	0x3d6e101e	0.05812084
247	0xbd9c83af	-0.07642304
248	0xbd98f5cb	-0.07468756
249	0x3d5c0575	0.05371614
250	0xbcd89659	-0.026438879
251	0x3c58a794	0.0132235475
252	0x3d510e05	0.05103876
253	0x3d1ecdd8	0.038770527
254	0x3c7693cf	0.015049889
255	0x3da10384	0.07861999
