pretrained_gnns/Flickr_EdgePredGraphPrompt_GCN_1.pth (torch, 325080 bytes, 4 tensors)

conv1.bias f4 [128]
00000000: ca3a 87be 1518 04be 5271 5c3f a566 f8bb
00000010: a833 973d 16ae 8f3c ce6a 1b3e 5a50 903f
00000020: a77c c43c 56eb c3bf c18a cbbd d42a 44be
00000030: e52e 08bc 3f16 87bc 62e1 68bd 7136 643e
00000040: 6123 b7bc 3169 f7bd 9816 05be 872e 34bf
00000050: 9d0b d23e 47fd 933e a036 e93d 20f3 e73d
00000060: f033 e0bd 32f6 1d3e 8ecd 363c 2b70 813e
00000070: 7e38 18bd 63d7 1c3f 594c c3bf 2e42 0fbe
00000080: 9f5f de3e 5ee9 d8bf 9923 1a3f a331 2c3d
00000090: 37ef 51bf e6be cb3e 0e83 d23b fd8a 36c0
000000a0: 8384 5e3d d109 dd3e 62fa 1f3e ecbb 99bd
000000b0: e798 9d3d 6f81 b4be 0029 ad3d 106b 1ebc
000000c0: a4d2 80be 0041 82bf fe85 37bb 902b 113e
000000d0: de9e 71bf fd7f dd3d 337e cf3d 147a b5bf
000000e0: 5769 cbbb 6a8a 28bd f97b 86be 382a 0ebf
000000f0: 82d1 88bd 7c98 81be b1aa 163f 0bbd 7c3e
00000100: 7a21 883f e548 d03c 5b2e 8dbc f4b8 bd3c
00000110: eda2 483e 5bbb 62bb b652 063d 3acd e83e
00000120: 820c b3bf 55d8 c5bf b356 92bd f6df e63e
00000130: d7b6 fd3c c299 9e3d 7a50 5abd 72f0 edbf
00000140: 550b 25bd 1a23 e4bc 70b2 cbbe d407 b03e
00000150: 93dc 62bd 7095 1c3c ba92 e0bf 98a0 ca3d
00000160: 1414 e83c ab4d 1e3e 7a65 63be 4639 b037
00000170: 0fa0 13be 3f0c 973d 4de2 a0bf 3495 533d
00000180: 2c5a f8bf ebca 08c0 1753 b33d 5077 c43e
00000190: ef2b e0bf 0795 ac3e 6403 47be 7f62 aabc
000001a0: 629d fd3d 45b3 9b3d 7ea2 4bc0 30a3 733d
000001b0: fffb b3bd bca1 973c a781 f63c 9e17 6cbf
000001c0: bcd5 c5bf 5ac6 26c0 0145 42bf 76ed 4fbc
000001d0: 529d c73e 2e29 0ebd 474e c93c e292 163d
000001e0: e80e 8abe 66ad 83bc 93b8 503e 4e52 bebf
000001f0: aaa7 1fbf 2bb0 06be d5fb a03c 82dd 24bf
-0.2641204 -0.12899812 0.86110413 -0.0075805956 0.073828995 0.017539065 0.15177462 1.1274521
0.02398522 -1.5306194 -0.099385746 -0.19156963 -0.008311962 -0.0164901 -0.056855567 0.22286393
-0.022355737 -0.120806105 -0.129969 -0.70383495 0.41024485 0.28904173 0.11387372 0.11325669
-0.10947406 0.15425947 0.0111574065 0.2528089 -0.03716325 0.61266154 -1.5257674 -0.1399009
0.43432328 -1.6946218 0.6021057 0.042039525 -0.8200564 0.3979408 0.0064243143 -2.8522332
0.05432559 0.43171552 0.15622857 -0.075065464 0.076951794 -0.35255 0.08455086 -0.00966908
-0.25160706 -1.0176086 -0.002800345 0.14176774 -0.9438304 0.108154275 0.101314925 -1.417788
-0.006207626 -0.041147627 -0.2626646 -0.5553317 -0.066805854 -0.2531165 0.58854204 0.24681489
1.0635216 0.025425384 -0.017234018 0.023159482 0.19593401 -0.0034596536 0.032793723 0.45469075
-1.3988192 -1.5456644 -0.07145443 0.45092744 0.030970974 0.07744171 -0.053299405 -1.8589003
-0.04029401 -0.027848769 -0.39784575 0.34380972 -0.055386137 0.009557113 -1.7544777 0.09893912
0.028329886 0.15459315 -0.22206679 2.1007505e-05 -0.14416526 0.07375383 -1.2569062 0.051655963
-1.9402518 -2.1373851 0.087560825 0.38372278 -1.7513407 0.3370745 -0.19434887 -0.02079892
0.12383534 0.07602552 -3.1817927 0.0594818 -0.08788299 0.018509738 0.03009112 -0.92223537
-1.5455852 -2.6058564 -0.7588654 -0.012690892 0.38987213 -0.03470724 0.024573458 0.036761172
-0.26964498 -0.016073894 0.2038291 -1.4868867 -0.6236521 -0.1315314 0.019651333 -0.64400494

conv1.lin.weight f4 [128, 500]
00000000: 234c bc3c ded4 d8bc 9b50 20be cd33 5ebd
00000010: e877 993d 5025 ecbd 45b7 ddbc 4d3d 3abe
00000020: 9799 84bd 62da cebd e689 67bd 77fe f9bd
00000030: 0306 7ebe 775b 743b f662 20be b8e2 1d3d
00000040: f7a0 06be 2fb6 ffbd 171d 423c 5004 85bd
00000050: a631 c93d db2c d03c ffe0 c4bd e464 c8bd
00000060: fe58 9b3d e6fa 243d b1db 05bc c6ef ee3c
00000070: b933 b73c 2d83 62bc ef0a 2fbe 870b a7bc
00000080: dfdf 03be 262d 933c 663b 43bd ea8f 963d
00000090: d95b d03d 1ba8 4dbd 7000 b13d 3994 0bbe
000000a0: ec43 a1bd eef3 6ebd fc06 df3d 861c 983d
000000b0: 4b08 b7bd a656 1cbe 8e73 c0bc e06a e33d
000000c0: 006f 063e 2234 3abb 710d 27be 896a 18be
000000d0: 83a8 70bd 3de9 33bd 049a 26bd 4ec1 10bd
000000e0: 163d cbbc ef18 e4bc f32b 193b 1b4c 16bc
000000f0: e6db 193d d716 b9bd c2c9 b53c cf30 0ebe
00000100: ca59 8d3b c95b c3bc 9fa1 783d 4acc 5dbd
00000110: c614 08bb dbbc 9e3c b913 0d3e 35eb 1abd
00000120: 7526 3dbe 198c 24bd 9e7b b33c eb0e 31be
00000130: bb4a cd3c a888 a7bc d74b ac3c 59ee a4bc
00000140: 5e40 58bd dde8 4b3d 42cd 9dbd a994 57bd
00000150: 076e 6d3d 11cf 31bd b9ae 1ebe 0ef9 45bc
00000160: fc1e fe3c 9e72 cf3d 61cb 41bd b5d6 39bd
00000170: 4ae7 96bb c3dd 44bd 2e5b 703c a654 a93d
00000180: 6668 24bb cd6d 2abd abeb 00be 24e7 d9bd
00000190: 30fc 953d 2eb9 acbd d246 f93d fdff 6fbd
000001a0: 7878 c3bd 8209 c9bd 22a4 49bd bf3a c1bc
000001b0: cee1 c6bc 2912 27bd d508 01bc e4ee b8bd
000001c0: 2983 b73c c55e b3bd 1fef e73c a49e e43d
000001d0: 0f52 643d 57e1 f8bd 6fc2 94bd 934b 1a3d
000001e0: 0656 c83d 97ec 553d b60c 23bd c456 e73d
000001f0: dbc8 a0bc 7da2 873d f465 e4bc d850 97bd
00000200: 75c4 683d 8342 16bd 3bc6 0ebd a7e5 23be
00000210: 4b97 8d3d d0c9 ba3c 3a08 e4bd dbb7 7cbd
00000220: 313e 80bd 1d95 053e 021d c6bd 6543 ffbd
00000230: db80 273d c777 00be 1c8b 0abd a2e2 4a3d
00000240: 85f6 583d 3b59 acbd f30e 013d 77f2 2ebd
00000250: 9785 9b3c bc25 7f3b 23c1 1abe 3612 123d
00000260: ebe9 123e 6d95 06bc c96d 053e 7c54 8ebd
00000270: 07cc 20be 5cac bd3c 1c6d 2dbe fa6e 34bc
00000280: f3ab b4bd a5f9 d0bd 2976 bbbd 0b6c 8fbd
00000290: 4385 94bd 7b7b 7fbd 01e9 e1bd b91d 68bd
000002a0: ca1a bfbb 8f9c c2bd 050b 4dbd f482 243b
000002b0: b5a2 593d f2ce 4e3d 73b2 673e b405 0f3d
000002c0: 3c81 26bd 0a71 23bc c3db 5fbe 3099 78bd
000002d0: edda 293e f979 c6bc afc9 16be ff9e 86bc
000002e0: 2127 013c c804 22bd 5e3a 47be 0ddb 82bd
000002f0: 54ee 183e 9ac8 8ebd 4e70 033e 6836 86bd
00000300: 084b bf3c ae7f e1bd 025e 433d aa06 a9bd
00000310: 8209 e2bd 5b0c 053e c3b2 b83c 76da 2bbe
00000320: 65b6 1c3d 1347 ca3c c9e8 4f3d b035 d7bc
00000330: 0f4b 1fbe 8685 41bc b071 f83c f463 503d
00000340: 3119 163b 5910 bbbd 73f7 a33d 1dbd 0ebe
00000350: 4739 8f3d 28a7 a03d 7ce2 29bd 0dc2 2e3d
00000360: 166c b03b facb 8cbd 4071 a4bd a062 163e
00000370: 7d76 713d 96bd cbbc fdd0 9a3d 69a0 99bd
00000380: 1ee6 9a3c 0b1c b9bd 3af7 ae38 6171 353d
00000390: aa94 a53b 6298 513d c0ab 5abe b198 4fbd
000003a0: cd2b 20be b5f7 b4bd a8b1 de3a 56f8 ccbc
000003b0: a04c 8dbd c115 043e b4dc a2bd 1d98 dfbc
000003c0: 6557 8bbc abab febb 578c ebbd 07d8 823b
000003d0: 363c 27be 22c9 3e3d 3488 f23c 2620 483a
000003e0: cfbe f6bc 7405 d7bd 9c72 183e d4ca 463d
000003f0: d662 873d a77a 49bd a60d 96bc 0379 e6bd
0.022985524 -0.02646869 -0.15655749 -0.05424862 0.074935734 -0.11530554 -0.027064929 -0.18187447
-0.064746074 -0.10100247 -0.056527995 -0.122067384 -0.24806981 0.0037285963 -0.1566275 0.038546294
-0.1314734 -0.12485921 0.011847756 -0.06494963 0.09823923 0.025412014 -0.09613227 -0.09784868
0.07585333 0.040278338 -0.008170054 0.029167067 0.02236353 -0.01382522 -0.17094015 -0.020391239
-0.12878369 0.017965864 -0.04766407 0.07351668 0.101737686 -0.050209146 0.086426616 -0.13630761
-0.07874283 -0.0583381 0.10890004 0.074273154 -0.08937129 -0.15267429 -0.0234926 0.11104369
0.1312828 -0.0028412421 -0.16313721 -0.1488439 -0.058754455 -0.043923605 -0.040674224 -0.0353406
-0.024809401 -0.02784392 0.0023372143 -0.009173418 0.037563227 -0.090375595 0.022190932 -0.13885807
0.004313682 -0.023847478 0.06070101 -0.054149903 -0.0020764335 0.019377163 0.13777055 -0.037821967
-0.18471701 -0.04017267 0.021909531 -0.17290847 0.025060048 -0.020450905 0.021032257 -0.020133184
-0.05279576 0.049782623 -0.077051654 -0.052632008 0.05796626 -0.043410365 -0.15496339 -0.012083305
0.031020634 0.10129283 -0.047313098 -0.045370776 -0.0046052085 -0.04806305 0.014670176 0.082680985
-0.002508664 -0.04160862 -0.125899 -0.1063979 0.073234916 -0.08433758 0.12171711 -0.05859374
-0.09544462 -0.098162666 -0.049228795 -0.023587583 -0.024277594 -0.040788803 -0.007875641 -0.0902994
0.02240141 -0.0875831 0.028312264 0.11163071 0.05574232 -0.12152355 -0.07263648 0.03766973
0.09782033 0.052227583 -0.039807044 0.11295846 -0.019627025 0.06622789 -0.027880646 -0.073884666
0.05682798 -0.036684524 -0.034857016 -0.16005574 0.069136225 0.02280131 -0.111343816 -0.061698776
-0.06261862 0.13045163 -0.096735016 -0.12464026 0.04089437 -0.12545691 -0.03382407 0.04953254
0.052969474 -0.08415457 0.031508397 -0.0427117 0.018984599 0.0038932404 -0.15112738 0.0356619
0.14347045 -0.008214337 0.13030161 -0.06949708 -0.1570283 0.023153476 -0.16936153 -0.011012787
-0.08821859 -0.10203866 -0.09153397 -0.070030294 -0.0725198 -0.06237362 -0.1103077 -0.05666897
-0.005832051 -0.095025174 -0.050059337 0.0025102468 0.053133685 0.050490327 0.22626667 0.03491755
-0.04065059 -0.009975681 -0.21861176 -0.060692966 0.1658742 -0.024228083 -0.14725374 -0.016433237
0.007882864 -0.03955534 -0.19455859 -0.06389437 0.14934665 -0.069718555 0.1283581 -0.06553346
0.023351207 -0.11010681 0.047697075 -0.08253224 -0.1103697 0.12992994 0.022546178 -0.16782555
0.038259882 0.024692094 0.05075911 -0.026270717 -0.15555976 -0.01181162 0.030327648 0.050876573
0.00229032 -0.091339774 0.080061816 -0.13939328 0.06993347 0.078443825 -0.041475758 0.04266553
0.0053839786 -0.06874843 -0.08029413 0.1468606 0.05895089 -0.024870675 0.075593926 -0.07501299
0.018908557 -0.09038552 8.343016e-05 0.04429758 0.0050531225 0.051170714 -0.2135458 -0.050682727
-0.15641709 -0.08836309 0.0016990202 -0.02502076 -0.06899381 0.12898923 -0.07952252 -0.027294213
-0.017009446 -0.0077719293 -0.11501377 0.0039930376 -0.16331562 0.046578534 0.029605962 0.0007634185
-0.030120282 -0.10499087 0.1488747 0.048533276 0.06610648 -0.049189236 -0.018317055 -0.1125355

conv2.bias f4 [128]
00000000: ac3a 533d 004b babd 431e b4bb 3dee 0abe
00000010: 8128 97be 789d e1bd dbfe d03d ce85 f7bd
00000020: 0e49 7cbd 14ab dabb 08a0 e63c eb1a 8a3d
00000030: 73ba 963d 0d4f 20be 085f af3d 42ad da3d
00000040: 0329 fdbd 52ee 10bd 73e5 de3d 5c8d 703e
00000050: 923d b6bd 3c7d 64be d286 3fbe 2e11 38be
00000060: 6ed8 8c3c c1c3 01bd e7d7 243d 476d 19be
00000070: 53f0 5a3e 24a2 043d 36f3 2b3d bc04 e93d
00000080: 3853 463e 550b 84bd f3de da3c afeb b43d
00000090: 893e 8abc e7e5 09be 8daf 27bc 5367 073e
000000a0: 67e8 25be d050 2a3e 5a0e 3a3d b5cf 07be
000000b0: 6550 0a3e fb3f cfbd 49b2 dd3d c943 8b3d
000000c0: c081 2d3e a827 2b3e 6bf8 47bd a34d 1abd
000000d0: d388 a03c fb6d 24be 3ab4 5d3e b8a4 3d3d
000000e0: e8dd 863d 3b50 28bd 0de9 b7bd 8bf1 03be
000000f0: 3d0e 16bd d459 993c 797f af3d 5803 4dbe
00000100: 562d ab3c 0148 2a3e cdb8 0d3d d4fc eebd
00000110: f26f 5dbd 43c8 473e 2315 2f3e 6ac5 cdba
00000120: 9d61 4a3d 40a7 ad3d 1426 65bd 7839 a43d
00000130: f68d 133d a1af c43d f453 6dbe 8842 d23d
00000140: a30b acbd 47ea 973e bd21 633d 280f 133e
00000150: 1fca 7cbd f0f7 dc3b 8920 2fbe c132 0dbd
00000160: abf5 3c3e 3b78 a43d 4ad0 5ebe 563c 8a3d
00000170: 49e5 22be a0d7 3d3d d967 713d 7744 963c
00000180: 28de dabb 2516 2fbe cf6a 993d 58a6 0abe
00000190: 6c4a 8c3d ed03 083d d28a 26be b954 a23b
000001a0: b8e3 873e 8f02 b0bd 3f76 413d aa04 dfbc
000001b0: 3dc4 aabd dad7 20bd f8fc 9f3d 76c7 303e
000001c0: 0463 64bc 66a3 43be 629a 393e 383f 8dbc
000001d0: 02d8 593d 7465 2fbe 6c7d dc3d 4b45 4d3c
000001e0: 5993 793d 6cc7 ab3d f564 febd 9188 563e
000001f0: 74dc 51bd 3e48 723c da1d 81bd 262d cd3c
0.051569626 -0.09096336 -0.0054967715 -0.13567443 -0.2952309 -0.11016363 0.1020486 -0.12086068
-0.061593108 -0.006673226 0.02815248 0.067434154 0.07359781 -0.15655155 0.08563048 0.106775776
-0.12361338 -0.03538353 0.10883608 0.23491424 -0.08898462 -0.22313398 -0.18703774 -0.17975304
0.017193045 -0.031680826 0.040244963 -0.14983092 0.21380739 0.03238119 0.04197999 0.11377856
0.19367683 -0.06447474 0.026717639 0.088340156 -0.016875522 -0.13466607 -0.010234726 0.13223009
-0.16201936 0.1663239 0.045423843 -0.13262828 0.1350723 -0.10119625 0.10825021 0.06800038
0.16944027 0.16714346 -0.048820894 -0.037671696 0.019596493 -0.16057579 0.21650782 0.046299666
0.06585294 -0.04109214 -0.08979998 -0.1288511 -0.036634672 0.018719591 0.08569235 -0.20020807
0.020895641 0.1662903 0.034600068 -0.11669317 -0.054061837 0.19509988 0.17097907 -0.0015699093
0.049409498 0.08479166 -0.055944517 0.08018774 0.036024056 0.09603811 -0.23176557 0.10266596
-0.08400657 0.29670927 0.055452097 0.1436125 -0.061716195 0.0067434236 -0.17102255 -0.03447223
0.1845309 0.08030745 -0.21759143 0.067497894 -0.15907778 0.046348214 0.058936927 0.018343193
-0.006679315 -0.17098291 0.07491075 -0.13540018 0.06850132 0.03320687 -0.16263893 0.0049539474
0.26540923 -0.08594238 0.04723191 -0.027223904 -0.08338211 -0.039268352 0.07811922 0.17263588
-0.013939623 -0.191053 0.18125299 -0.01724206 0.053184517 -0.17128545 0.1076611 0.012528728
0.060931537 0.08387646 -0.124216 0.20950533 -0.05123563 0.014787732 -0.06304522 0.025045943

conv2.lin.weight f4 [128, 128]
00000000: 94a1 a6bd a3d9 e43d 675b bebd 2c6a 5c3e
00000010: fc4f 11be 1f02 54ba 45b9 4cbd fecc 3fbd
00000020: a8d4 843e cd2e 43be fc51 3ebe 02cc 083c
00000030: 04a4 1c3e 4359 f2bd 3e07 e43d 472d e63d
00000040: 0f4d d8be 9e96 623d a6c1 b13d 082b b7bd
00000050: cd7b 02be 045a 293d 00c6 a13d a9d3 54be
00000060: 35e9 073d ab28 5ebd a879 4ebd d5e1 0dbe
00000070: 76d2 3ebe 56a5 0abd 21cc 21bd 36da 903e
00000080: 3f56 d73d 9966 4c3d 5ddf c5bd 6f92 283f
00000090: 60ba 883c adfd cd3e 48d9 c03d d422 63be
000000a0: 4975 593d 7a99 d33c debc 79bd 626a 123e
000000b0: cda9 423e 37af f63d 6b8f 89bc 1d0b afbd
000000c0: 1fad c73d da66 bd3d ac5d 62be 61e1 e4bd
000000d0: 426d 3a3e 1671 c53c 3ec1 183d fd42 1e3e
000000e0: aaa3 ae3d e466 5bbd 2639 73bd b3c5 9dbd
000000f0: 672b 053f 6c50 963c af2c bb3d 8103 9cbc
00000100: 0058 52bd 336a abbd 4cb7 0d3c a557 093b
00000110: 6c3d 6cbd 1553 803c 9c7d 173e 8de3 093e
00000120: 656b 1c3e ea90 513e 9e68 813e e8fb 31bd
00000130: ee1f 2a3d cab0 56be d991 19be 4072 b4bd
00000140: 2299 d4bd 5be6 423d 9ca0 a23d 2627 30be
00000150: 3b9a 953e 0670 84bc 3dee 423e 5077 8abd
00000160: 1219 223b b029 153e ffed 92bd e99e 603e
00000170: 17eb ad3d 7800 2abe a630 1b3d bff0 1d3e
00000180: e2e1 cf3d 30ff b8bd 39dd 9f3d 0a7b 81be
00000190: ecd7 17bd 1316 e53d 08cd 8dbc acb6 36bc
000001a0: b639 783c 9a95 5dbc fd2f 8f3e e674 2cbe
000001b0: 2b74 2e3d 98b8 33bd e950 af3e 394c 44bd
000001c0: fb17 71be 936a d4bd 3581 193d 1158 af3d
000001d0: 36bf ac3d 6f56 6a3e 3263 3c3d 5f54 82bd
000001e0: 027f dfbd 57c9 0dbe a796 c43d 5a66 2d3e
000001f0: e5ca 16be e079 423e 4592 89be 5ad9 013e
00000200: ed81 80bc 98a9 173e 4af3 c9bd cec0 a03d
00000210: ac1e 27be 9e94 c83c dd0a 9e3b eb0a 33bd
00000220: 6319 b43e b154 7b3e 899b e6bd d131 e7bd
00000230: 40b5 e93d c0ff a93d 70cd 9ebd 5f50 883e
00000240: 575b 54be 4a91 353d 84ac 3fbc 531b 6fbc
00000250: 6ab7 5ebd 2d45 9dbd 6d58 b93b 6a39 1b3c
00000260: 5df5 4dbd fa57 15be faf0 6c3e b59c 31bd
00000270: 72bd cdbd 9460 b4ba 9e96 19be 5350 d63e
00000280: e54c dbbd fd4e e4bb d738 fb3c da5b 973e
00000290: 48ff f1bd 4865 873e 89d2 17be d254 1fbf
000002a0: 9ebc 243d 7f24 a13e e5b2 4bbd bc35 a7bd
000002b0: a6b2 c13d 1833 93bd 780a 20be 1e7c 82bd
000002c0: 5cf9 e0bb 3fa1 ae3d c0aa 6abe 85b3 97be
000002d0: e1e8 083d 7303 89bd 252e 82bc ce18 49be
000002e0: 3441 f6bc d98b 9c3d 11d6 3938 78fd 30be
000002f0: 6f7f de3d a2bd 7a3d b61d 72bd 5e18 c33d
00000300: baf4 04bd cb47 ca3d 54a0 ca3d 35f3 2dbe
00000310: bf61 313a af5d 0b3e b3c1 243e fb40 673d
00000320: 1e11 813e 387f c73d d752 813e a9e0 533d
00000330: 836b aabd 6d2c fe3d b87b 833d a54a c9bc
00000340: 9cf1 f63d 81fc b7bd 6ef7 ce3d 9ea5 02be
00000350: 2b01 ac3e 73c7 52bd 6c5d 3e3d 6b79 863d
00000360: d67d 143e 3512 3abe 745d 603d eae6 743e
00000370: 65a1 403e ddd4 f9bd 6912 8fbd 9e3c 2b3e
00000380: 763a d23e 956e 06bc 9db7 19bd bcca 9cbd
00000390: 2fef 10be 7cd7 463d 41ae 343d 9f5d 36be
000003a0: 090e d3bc 4c19 bfbd 9ddb d53e 7bb5 b23d
000003b0: 527d 993d 06fa 753d ee25 073f e432 74bd
000003c0: b37a bd3d 6d13 853e 1287 0f3d 763b 0d3e
000003d0: 4707 98bd d94e 363e b36e d33d e8fa 11be
000003e0: 8111 edbd cd5b 423d 0767 b8bc d555 6b3d
000003f0: 2838 ca3b 297a 7b3e e9e6 b7be 1c72 3e3e
-0.08136287 0.111743234 -0.09294777 0.21524876 -0.14190668 -0.0008087474 -0.049981374 -0.046826355
0.25943494 -0.19060822 -0.18585962 0.0083494205 0.15296942 -0.118334316 0.11134194 0.11239105
-0.4224629 0.05531942 0.08679514 -0.089437544 -0.12742539 0.04134561 0.07899094 -0.20783867
0.033181388 -0.054238003 -0.05040899 -0.1385568 -0.18634972 -0.033849083 -0.039501313 0.28291482
0.10514497 0.049902532 -0.09661744 0.6584844 0.016690433 0.40232602 0.09416443 -0.22181255
0.053090367 0.02583002 -0.060971133 0.14298394 0.19010086 0.12045138 -0.01679202 -0.085470416
0.09749817 0.09248133 -0.22106045 -0.111758 0.18205741 0.024101775 0.037293665 0.15455242
0.0852731 -0.05356492 -0.059380673 -0.07703724 0.5201935 0.018348895 0.09139382 -0.01904464
-0.051353455 -0.08369865 0.008649658 0.0020956781 -0.057675764 0.015664617 0.1479401 0.1346571
0.15275343 0.20465437 0.2527513 -0.043453127 0.041534357 -0.20965877 -0.14997043 -0.08810854
-0.1038077 0.047582965 0.0794079 -0.17202434 0.2921923 -0.016166698 0.19036193 -0.06761038
0.0024734181 0.14566684 -0.071743004 0.2193562 0.084921055 -0.16601741 0.03788819 0.15423869
0.101505056 -0.09033048 0.07805867 -0.25289184 -0.037071154 0.11185851 -0.01730968 -0.011151951
0.015150478 -0.013524437 0.279663 -0.16841468 0.042591255 -0.043877214 0.34241417 -0.047924254
-0.23544304 -0.1037189 0.037476737 0.08561719 0.08434908 0.22884534 0.045993038 -0.06363749
-0.10912897 -0.13846336 0.09599047 0.16933575 -0.14725836 0.18991804 -0.26869407 0.1268057
-0.015686953 0.14810789 -0.09860857 0.078492746 -0.16320294 0.024484929 0.0048230723 -0.043711584
0.3517562 0.24544026 -0.11260135 -0.112887986 0.11411524 0.083007336 -0.07754028 0.26623818
-0.20737968 0.04432801 -0.011698846 -0.014593917 -0.054374136 -0.0767921 0.005656293 0.009474138
-0.050282825 -0.14584342 0.231388 -0.043362338 -0.100458995 -0.0013761693 -0.14998862 0.41858158
-0.10708026 -0.006967424 0.030666752 0.29562265 -0.11816269 0.2644446 -0.14826407 -0.622388
0.040218942 0.31473157 -0.049731154 -0.08164546 0.094579026 -0.0718748 -0.15628994 -0.0637133
-0.0068656635 0.08526849 -0.22916698 -0.2962915 0.033425216 -0.06690111 -0.015891144 -0.19638368
-0.030060388 0.07643861 4.4306802e-05 -0.1728419 0.1086415 0.061216004 -0.059110366 0.09526132
-0.032459952 0.09876975 0.098938614 -0.16987307 0.00067665795 0.13609956 0.16089515 0.056458455
0.25208372 0.09741062 0.25258514 0.051727924 -0.083212875 0.12410817 0.06420082 -0.024571726
0.12057802 -0.08983708 0.10105787 -0.1275849 0.3359464 -0.05145974 0.046475813 0.065661274
0.14501128 -0.18171008 0.054776624 0.23916212 0.18811567 -0.121988036 -0.06985933 0.16722342
0.41060227 -0.008205076 -0.037528623 -0.07655856 -0.14153741 0.048545346 0.044111494 -0.17809151
-0.025763528 -0.09330997 0.41769114 0.08726021 0.07494606 0.060052894 0.5279225 -0.059618846
0.09251919 0.25991383 0.035040922 0.13792214 -0.07423263 0.17803515 0.103238486 -0.1425587
-0.11575604 0.04745083 -0.022510065 0.057454903 0.006171245 0.24558319 -0.35918358 0.18598217
