pretrained_gnns/Flickr_EdgePredGPPT_GCN_1.pth (torch, 325024 bytes, 4 tensors)

conv1.bias f4 [128]
000000 5e 5a 45 3f 2d 8e 20 3f 9e e3 f7 bb e7 b7 ef bc
       0.77091014 0.62716943 -0.007564976 -0.029262496
000010 f2 dd de 3e 6a fe 22 3f b7 e5 4f 3e a0 93 01 be
       0.43528706 0.63669455 0.20302473 -0.1265397
000020 a0 dd 13 3f 98 b0 12 3f f7 6a aa bc 9e d5 3d bd
       0.5776005 0.5730071 -0.020802958 -0.0463463
000030 1f 76 d9 3e 36 80 19 3f 84 de dd bc e7 4f 1a 3f
       0.42472932 0.5996126 -0.027083643 0.6027817
000040 eb e5 4c 3f a9 fd a0 bc b1 a9 20 3f 7d 6c bb 3e
       0.80038327 -0.019652205 0.6275893 0.36606207
000050 1b b2 9f bd e6 ec 20 3f 6a b5 b9 3e 9d 2d 4d 3f
       -0.07797643 0.6286148 0.3627122 0.80147725
000060 96 89 4b 3f 4f c0 23 3f 63 21 1f be 8f 5e 47 3f
       0.79506814 0.63965315 -0.1554008 0.7787866
000070 ca fb 36 3f 05 a4 8c b7 18 bb b7 3b af ce 27 3f
       0.7147795 -1.6765678e-05 0.00560702 0.6554975
000080 fe 55 0a 3e 4a 93 91 bc b9 cb 59 bc 4e cf 5d 3f
       0.13509366 -0.017770428 -0.0132932 0.86644447
000090 da 58 d4 3e 8a 63 25 3f 5d 0d 82 3e 4b 07 27 bd
       0.41474038 0.6460501 0.2540082 -0.04077844
0000a0 79 84 9e bd 5f 2d 5c 3e 71 89 15 3f 9c 4d 9c 3e
       -0.07740111 0.21501683 0.58412844 0.3052796
0000b0 a1 32 9d bd d8 ad 4f 3e 1f 57 89 3e 2f b9 06 3e
       -0.07675672 0.2028116 0.2682428 0.1315658
0000c0 a9 ec 48 3e ab be 3b 3f 1c cb 29 bd 51 ba 18 3f
       0.19621529 0.7333781 -0.041453466 0.59659296
0000d0 74 b2 a9 3e fb 18 0c 3f 4f a0 69 3e 7e 6d 11 3f
       0.3314396 0.5472562 0.22815059 0.56807697
0000e0 06 0f db bc db 0e 1d 3f af 95 06 bd 6b 2b e8 3e
       -0.026740562 0.6135079 -0.032857593 0.45345625
0000f0 82 42 1a be 4d ab 1a 3f 9b 3a c5 bc 84 40 0c 3f
       -0.15064433 0.60417634 -0.024075797 0.54785943
000100 64 46 12 3d b8 ae 8a 3e fc bf d2 bb dd f4 9a 3c
       0.03571166 0.27086425 -0.0064315777 0.018915588
000110 8a 1e 47 3f 8f 14 3d bd 3d 3b 4c 3e af f8 e5 bc
       0.77780974 -0.046162184 0.19944473 -0.028072683
000120 f6 18 e0 3e 5c 00 78 3d fe 80 c8 3e 48 df 2c be
       0.43769044 0.060547218 0.39160913 -0.1688205
000130 32 56 d6 3e ca ac dd 3b 4c fe 2d 3f d1 27 a1 bc
       0.41862637 0.006764983 0.6796615 -0.019672306
000140 9a e9 47 3e d4 61 b6 3d d5 13 26 3f 81 50 19 bd
       0.19522706 0.08905378 0.6487401 -0.03743029
000150 56 bf 46 3f cf 55 c6 bc af a5 96 3e ba 16 60 3d
       0.77635705 -0.024210839 0.29423282 0.054709174
000160 84 05 56 bd cf ba 2f 3f 45 3e 14 3e 76 64 1e 3f
       -0.052251354 0.6864442 0.14476879 0.6187204
000170 bb 2a 15 bd bc c7 c0 3e 33 a9 f5 3e ca 23 e3 3e
       -0.036417704 0.37652385 0.4798065 0.44363242
000180 a1 06 8f bc 9e cb e2 bc 40 7f 11 3f 3e ea dc 3e
       -0.017459216 -0.027684983 0.56834793 0.43147463
000190 4e 93 45 3f 0e b7 29 3f 40 8b e3 3e 6b e1 75 3f
       0.77177894 0.66294944 0.44442177 0.96047086
0001a0 f0 1d 44 3c e3 a2 44 3f fe 00 16 bd e9 7b cc bc
       0.011970028 0.76811045 -0.03662204 -0.024961429
0001b0 bc 00 38 3f e2 9a 95 3e e3 25 1d bd c1 61 94 3d
       0.7187612 0.2921973 -0.03836621 0.072452076
0001c0 d6 bd cc 3d fb f5 29 3f 43 19 0a 3f 42 b0 89 3e
       0.09997146 0.6639096 0.53944796 0.26892287
0001d0 87 4c 4f be 6a fe a1 3e 89 36 c9 3e 1c 45 84 3e
       -0.20244037 0.31639415 0.3929942 0.25833976
0001e0 3b 69 ea 3e 81 e2 33 3f 21 db 3d be 7f 5a 49 bd
       0.4578341 0.7026749 -0.18540622 -0.04915857
0001f0 93 1c a6 bc 30 98 4a 3f b8 4f 82 bd 8b 7d 95 3c
       -0.020277297 0.7913847 -0.063628614 0.01824834

conv1.lin.weight f4 [128, 500]
000000 f9 e9 a9 3a 72 c5 b5 bd ce 98 ad 3a 27 2f 5b bd
       0.0012963406 -0.0887555 0.0013244392 -0.053511765
000010 e3 3b 40 bc bd 04 dc bc f8 d0 d2 bc 08 f6 a0 bc
       -0.011733028 -0.026857728 -0.02573441 -0.019648567
000020 b2 63 86 bd 6c 8b 34 bd b4 b9 b3 bd 01 61 13 bd
       -0.06561984 -0.044078276 -0.087756544 -0.035981182
000030 37 f6 1a be 1b d4 c6 bd 8f d5 33 3c 79 d7 42 bb
       -0.15132986 -0.09708425 0.010976209 -0.0029730482
000040 e3 f6 a2 bd 33 10 5a bd cb 93 20 3d 6f 3c 46 3d
       -0.07957246 -0.053238105 0.039203446 0.048397478
000050 52 82 52 3d a0 74 f8 3d 84 e9 6a 3d da de b3 bd
       0.051393814 0.121316195 0.057351604 -0.0878274
000060 78 13 b1 3d 25 46 77 3d 8b 34 8e bc a4 3b 36 3d
       0.086462915 0.06036963 -0.017359039 0.04449047
000070 cb 2e f5 bc 65 e1 86 3d 49 75 c0 bd d2 f9 06 3e
       -0.02992954 0.06585959 -0.0939737 0.13181236
000080 90 c7 4e bd 4c f3 90 bc ea 09 7e bb 42 3a a4 bc
       -0.050483286 -0.017694138 -0.0038763233 -0.02004731
000090 78 49 ab 3d 61 08 f1 bb 68 79 0b 3e 94 40 14 bd
       0.083636224 -0.007355735 0.13620532 -0.0361944
0000a0 41 e1 a0 bc 25 53 9e 3b bc db ee 3d 71 ab cb 3d
       -0.01963866 0.004831689 0.11663005 0.09944809
0000b0 17 1d 51 bd ae 05 79 bd 40 b9 db bd 68 73 26 3e
       -0.051053133 -0.060796432 -0.10728693 0.16254961
0000c0 59 b8 41 3d 0c 5e 3b bb a3 96 02 bd 19 23 d0 bd
       0.04729495 -0.0028589992 -0.03188194 -0.10162944
0000d0 26 f2 38 bd a7 1d 2c bd 38 6a 44 bd f0 61 98 3c
       -0.045152806 -0.042020466 -0.04795286 0.018601388
0000e0 b6 00 c7 bc 7d 6c 56 3c 5d 3d 1d bd af 10 ca bd
       -0.024292331 0.013087389 -0.0383886 -0.098664634
0000f0 6c a4 08 3d b2 45 d8 bc a0 5e 7c 3c 02 3d 2d bd
       0.03335993 -0.02640042 0.01540342 -0.04229451
000100 bd 08 f6 3d a2 ff a4 bc f8 8d 2a 3d be 93 63 bc
       0.120133854 -0.020141426 0.0416393 -0.013890205
000110 cf 14 8e 3d 70 df 5d 3d 40 ee c6 3c 6c 9e 76 3d
       0.06937563 0.054168165 0.024283528 0.060209677
000120 14 fe c7 bd 45 5d 31 bd 40 4c bd bb 8f ce d6 bd
       -0.097652584 -0.04330184 -0.005776912 -0.10488617
000130 1a 66 36 3c 91 4f 15 bd 81 38 24 3d 3d a8 ba bc
       0.011132741 -0.036452834 0.04009295 -0.0227853
000140 55 6a e3 3c 98 42 07 bc 06 8f 8b 3d 2b df de bc
       0.027760664 -0.008255623 0.06814389 -0.027206024
000150 5f fb 7c 3d 11 62 9a bd 1a 1c 83 bd 20 9c d0 bd
       0.061763164 -0.07538236 -0.06401844 -0.101860285
000160 09 11 e8 3d 06 55 4d 3d 39 52 4e 3d 6a 17 f3 3b
       0.11331374 0.050129913 0.050371382 0.0074185627
000170 90 95 f9 bc 40 60 72 bc 1b 1d b1 bd 88 82 29 3d
       -0.030466825 -0.014793456 -0.086481296 0.04138425
000180 d4 df 7b bd 94 8d e9 bc 8b 35 ed bd 7e 9e a3 bd
       -0.061492756 -0.028509893 -0.11582478 -0.07989214
000190 5c 8f 12 bd 80 53 03 be a3 9b 9d 3d 22 b4 a9 bd
       -0.03578125 -0.12824821 0.07695701 -0.08286311
0001a0 fa 2b 69 bd c8 97 df bd e4 40 2c bd 4d 46 a4 bd
       -0.056926705 -0.10917622 -0.042054072 -0.08021221
0001b0 1c 5e b7 bc d6 46 4f 3d f7 00 97 3d 51 4c 81 bd
       -0.022383742 0.050604664 0.07373231 -0.06313384
0001c0 15 ab b3 bc e3 e8 40 bd 33 1c 95 3d 69 dc a5 bd
       -0.021932164 -0.047097098 0.07280769 -0.080986805
0001d0 93 c9 a2 3c 31 3d dc bd e9 a7 33 bd 54 cf d5 3d
       0.019871509 -0.10753859 -0.043861303 0.10439935
0001e0 f7 a7 6e 3d a2 ac bf 3c e7 dc 11 3c 9f c4 1f bb
       0.058265653 0.023397747 0.008902765 -0.002437867
0001f0 8e c5 06 be 82 a0 19 bc 26 b4 51 bd 27 7f ff bc
       -0.13161299 -0.009376647 -0.051197194 -0.03118856
000200 08 b5 84 3d df a9 9d bb b5 82 c0 bc 90 76 b5 bd
       0.064798415 -0.00481151 -0.023499826 -0.088605046
000210 0b be d8 39 56 f3 19 3d e0 6e b0 3b 1a 8f 23 bd
       0.00041340324 0.03758558 0.005384311 -0.039931394
000220 f8 11 06 3d b0 ed b8 3d b5 cd af bd 1a c0 79 bd
       0.03273198 0.0902971 -0.085841574 -0.060974218
000230 58 4f 01 be 84 0f 14 bd 70 f7 1a bd a8 82 f5 bc
       -0.12627923 -0.03614761 -0.03783363 -0.029969528
000240 e4 42 e8 3d a2 84 0f bc a3 46 45 3d 1b 74 72 3c
       0.113408834 -0.0087596495 0.048163068 0.0147981895
000250 3e 25 e0 3d 2e f1 dc 3a fb 71 2a 3c fa d9 59 3c
       0.109446034 0.0016856545 0.010403152 0.013296599
000260 98 97 97 ba 71 c2 d7 3d 33 4a 49 3d c0 36 20 3d
       -0.0011565564 0.10535134 0.049143028 0.039114714
000270 c4 3e 86 bd cc 4d 88 3d 09 be c3 bd 26 78 bc 3d
       -0.0655494 0.066554636 -0.09557731 0.09202604
000280 e6 4f ff bb e1 6c ec 3c 70 df 00 be 20 4f 81 bc
       -0.007791507 0.028860511 -0.12585235 -0.0157848
000290 59 ca 09 be fd 2f 95 bd 80 41 f1 bc aa 73 fa 3d
       -0.13456096 -0.07284544 -0.029450178 0.122290924
0002a0 9f 68 fb 3b 50 42 b2 bc 5f ef 55 bd 6e 08 2a 3d
       0.007672384 -0.021760136 -0.052230235 0.041511945
0002b0 07 84 f4 3c ac 8f f4 3c a9 89 52 3d ad dd 09 3c
       0.029848112 0.029853664 0.051400814 0.008414668
0002c0 bf 28 b9 bd 6a 47 0a 3e 38 32 c6 bd 2a 0a 88 3d
       -0.09040975 0.13503805 -0.09677547 0.06642564
0002d0 a1 6c 59 3d 8e 15 e2 3d 3d 66 9c bd 5c 32 63 bd
       0.053082112 0.110392675 -0.07636688 -0.05546795
0002e0 71 3a 48 bd cc c2 0e 3e 2d 44 48 bb 48 2a 08 3b
       -0.04888386 0.13941497 -0.0030558214 0.0020777155
0002f0 c6 85 e8 3d 09 8a 0a 3d fe f5 ec 3d 34 54 f0 bd
       0.1135364 0.033823047 0.11570357 -0.117348105
000300 36 aa 54 bd 5a c0 a5 bd 1d 09 2d 3d 70 97 4a 3d
       -0.05192014 -0.08093329 0.04224502 0.04946083
000310 b7 bd 1a bc 7c a1 bc 3d d3 1d 12 3d 75 cc 9d bd
       -0.009444646 0.09210488 0.035672974 -0.07705013
000320 7b f6 fa 3d 2f 6f d7 bb 9e 29 75 3d 7c f7 49 3d
       0.12254044 -0.0065745334 0.059854142 0.049308285
000330 ee 3d 08 bd 7f 26 b4 bc 84 31 56 3d 95 00 de 3d
       -0.033262186 -0.021991013 0.052293316 0.10839955
000340 05 8b 94 3d b3 53 91 3c 98 03 f4 3d c6 f2 95 bd
       0.07253078 0.017740106 0.11914748 -0.07321696
000350 89 b5 b3 3d 3d f9 84 3c 75 cb 8f 3d ec 7e e2 3d
       0.087748595 0.016232127 0.07021228 0.11059365
000360 f5 3d b7 bc 44 a2 a4 3c a6 d6 b8 bd 46 8e 9f bd
       -0.02236841 0.020096906 -0.09025316 -0.077908084
000370 a8 ad c2 3d 65 66 0d 3c e7 56 02 3e 8b 18 f6 3c
       0.095057786 0.00863037 0.12728463 0.030041
000380 5a aa 3d 3c b3 f4 19 bd 46 2a 8f 3d 5b c0 b8 3d
       0.0115762595 -0.03758688 0.06990485 0.09021064
000390 53 cd b3 bd 12 16 9a 3c 5b 2d c8 bd 31 f9 41 bd
       -0.08779397 0.018809352 -0.09774276 -0.047356788
0003a0 bd 7f 6c bd ea 94 cb bd 91 dc b2 bc e8 ca 85 bd
       -0.05773901 -0.099405125 -0.02183369 -0.06532842
0003b0 a6 38 4a bd d6 bf a6 3d 9b 07 c2 bb da 0f 1c bd
       -0.04937043 0.081420586 -0.005921317 -0.038101055
0003c0 f8 df 95 bd 67 b4 7d 3d f0 7a 90 bd 76 9a 3a bb
       -0.07318109 0.061939623 -0.070546985 -0.0028473414
0003d0 0d bd 86 bd 8e 10 26 3d 4e 84 00 bd 1b 40 8c bd
       -0.06579027 0.04054313 -0.031376176 -0.06848165
0003e0 46 70 66 bc ab 31 51 bd 13 b7 d3 3d 32 be 2c bd
       -0.014064854 -0.051072758 0.10337653 -0.042173572
0003f0 a9 7c c2 3d 08 a1 cd bd cb ba 83 3d 55 8c db bc
       0.09496433 -0.1004048 0.06432112 -0.026800314

conv2.bias f4 [128]
000000 4e ea 28 3d b5 1f 97 be ed dc a9 3e aa a4 49 be
       0.041239075 -0.29516378 0.33176365 -0.1969172
000010 54 02 14 3e fa 0f b9 3e 34 3f 78 be ee b8 73 3e
       0.14454013 0.36145002 -0.2424286 0.23801014
000020 0d bf 1b be 57 c6 a4 be af 97 00 3f 76 97 b3 3e
       -0.15209599 -0.3218257 0.5023145 0.35076493
000030 31 94 6d be 6f 41 7f be d1 cf a2 be 3b d1 a9 be
       -0.23201062 -0.24927305 -0.31799176 -0.33167443
000040 89 ea 9e be 5f bd 9d be 67 2f ab 3e 50 6f da b9
       -0.3103831 -0.3080854 0.33434603 -0.00041663134
000050 aa 15 8f 3e 77 92 00 bf fb e1 88 3e 74 b9 b2 3e
       0.27946216 -0.5022349 0.2673491 0.34907115
000060 99 2c e8 3e fe 7f 84 3e 05 15 89 3e 51 bd 6f be
       0.45346525 0.258789 0.2677385 -0.23412062
000070 7f 44 a7 bd 83 25 8c 3d 9e cf 00 bf 8a f5 e6 be
       -0.081673615 0.06843092 -0.503168 -0.45109206
000080 9e 6a d1 be c5 0c f3 3d d6 d2 0e bc 51 a0 86 be
       -0.40901655 0.1186767 -0.008717259 -0.26294187
000090 72 ac 13 bf 08 bc 08 3f 7b 86 e8 3e 52 03 ec 3e
       -0.57685006 0.5341191 0.454151 0.46096283
0000a0 33 c5 e9 be ba a2 b0 3e c6 a4 a3 3e 2d 8b 85 bd
       -0.45658264 0.3449915 0.3196165 -0.06520686
0000b0 c3 81 04 be 32 ac 8c 3e 43 d0 a4 be b7 75 79 3e
       -0.12940125 0.27475125 -0.3219014 0.24361311
0000c0 73 a3 63 bd e4 05 dd 3e 5f d3 81 be 1f 34 c9 3e
       -0.0555758 0.43168557 -0.25356576 0.39297578
0000d0 bd 38 15 3f b8 db 0b 3f 54 1a 01 bf ce c9 05 3f
       0.582897 0.5463214 -0.504308 0.52261055
0000e0 bf 68 bb 3e c9 9d ad be 1a a8 c3 3c 5d d4 a6 3e
       0.36603352 -0.33909443 0.023883868 0.32583895
0000f0 71 0e 39 3e be 5b cc 3e 46 a9 d5 be 67 e6 63 be
       0.18071915 0.39913744 -0.41730708 -0.2225586
000100 2c 6e 07 3e 21 8e 9d 3e 97 26 89 3e 14 28 c5 3e
       0.13225621 0.30772498 0.26787254 0.3850714
000110 62 60 90 be 5c 2e 8a be 28 4b a4 be 8e 02 ff be
       -0.28198534 -0.26988494 -0.3208859 -0.49806637
000120 be 1c 82 be ed 7b b4 3e d9 fd 79 be af a0 d3 be
       -0.25412554 0.35250798 -0.24413241 -0.4133353
000130 16 ce b8 3e f1 5e 60 be a8 c9 e5 be f7 1b 88 3e
       0.3609473 -0.21911217 -0.44880414 0.26583835
000140 48 08 e6 3e 94 06 8c 3e 7f 79 cb 3d 85 1e 39 3e
       0.44928193 0.2734877 0.09935283 0.18078049
000150 9c 0b bc 3e 9a 43 cb 3e 44 33 02 bd 8b ba 82 3c
       0.36727607 0.39700013 -0.031787172 0.015958091
000160 c8 7e b0 3e 41 0e af be 60 30 87 3e 49 c5 14 3e
       0.34471726 -0.34190562 0.26404095 0.14528383
000170 fe 6d 86 3d e3 c1 c0 3d c8 b6 a9 3e 12 a1 94 3e
       0.06563948 0.09411981 0.33147264 0.29029137
000180 4f 72 34 be 18 9a 78 3e c9 39 23 be 86 f1 a4 be
       -0.1762173 0.24277532 -0.15940012 -0.32215518
000190 76 88 d4 bc 04 f6 db 3e c0 9c e0 bc fd bf 72 be
       -0.025943976 0.42961133 -0.027418494 -0.2370605
0001a0 45 45 c5 be 8f f6 ab 3e 77 78 d0 3e 7f c0 17 3e
       -0.3852941 0.33586547 0.40716907 0.14819525
0001b0 22 54 9b be 9d bb 9d 3e 10 5a 5b be 24 7b f0 3d
       -0.30337626 0.308072 -0.21421075 0.11742237
0001c0 d0 4e 87 be eb 95 45 be 05 9d a1 be b8 5a ab 3e
       -0.26427317 -0.1929547 -0.3156511 0.3346765
0001d0 79 01 8a 3e ee 08 96 3d 84 96 03 be d5 a7 94 be
       0.2695425 0.07325922 -0.12850386 -0.29034296
0001e0 ba 8a 05 be c2 69 a0 be 83 97 0f bf 57 4c f1 3e
       -0.13041201 -0.31330687 -0.56090564 0.47128555
0001f0 59 6c e8 bd 13 46 7a 3e 48 e0 a9 be df 6e 6c 3e
       -0.11348791 0.24440794 -0.33178926 0.23089169

conv2.lin.weight f4 [128, 128]
000000 91 cf 04 3e 70 d1 87 3d c9 0f 80 bd ca c5 b1 bc
       0.12969805 0.06631744 -0.06253011 -0.021700758
000010 a5 5d 1d 3d 46 9c fc 3c a1 b1 cb bd 47 6e c8 bd
       0.038419385 0.030836236 -0.099459894 -0.09786659
000020 e8 ea b4 bc 59 cd 2e be f0 8a 33 be 7a 1c b9 3d
       -0.022084668 -0.17070521 -0.17533469 0.090386346
000030 ba 0e 01 3e 3f 35 12 bd 80 4a 0f 3e 1a bc 07 3d
       0.12603274 -0.03569531 0.13993263 0.033138372
000040 97 53 6a be fc c7 17 3e 79 18 31 3e 0a 49 13 bc
       -0.2288345 0.14822382 0.17294492 -0.008989582
000050 64 11 2b be aa 92 82 bd 7d 02 6c 3e 2f 40 d2 bc
       -0.16705853 -0.0637563 0.23047824 -0.02566537
000060 6b 57 41 3d 8a a1 6c 3e 60 5a 2c bd 1e bf 70 be
       0.04720251 0.23108497 -0.042078376 -0.23510405
000070 b9 76 4c 3c 9e e1 bf bc b8 52 fd 3b 8f e2 18 3d
       0.012479478 -0.023423012 0.007730808 0.037325438
000080 97 31 d2 3d 9d 38 1a bc ba 7f 19 be bb 83 a8 3d
       0.10263365 -0.009412912 -0.1499013 0.082282506
000090 b3 db 62 3a 3c 75 95 3c 0c 69 f7 3d 09 e1 3a 3c
       0.00086539536 0.018244378 0.12080583 0.011406192
0000a0 bf f0 14 3d a4 95 3b be 12 e1 7a bd 60 ea 9b 3d
       0.036362406 -0.18318802 -0.0612498 0.07613063
0000b0 5b 08 c4 3d 5f 67 11 3c 53 43 6c 3d 16 8c 4a bd
       0.09571906 0.008874743 0.057681393 -0.049450003
0000c0 24 22 bf 3d ef ef 3a 3e ac 1e df 3b d3 df 97 bd
       0.09332684 0.1825559 0.0068090763 -0.07415738
0000d0 c3 a9 7f 3e 86 02 74 be 32 66 cc 3d 45 8f df 3d
       0.24967103 -0.23829088 0.0998043 0.10915998
0000e0 71 40 ce bc 5a 4e 79 3c 89 0c 09 be 31 06 d1 bc
       -0.025177212 0.015216434 -0.13383688 -0.025515648
0000f0 e8 06 c0 3d b1 fb b8 bb ba da ab 3d 26 dd 85 3d
       0.09376317 -0.0056452383 0.08391328 0.06536321
000100 b1 1e 04 be 99 38 25 be 8a d4 99 3c d3 9f 8e 3d
       -0.12902333 -0.16134872 0.018778104 0.06964078
000110 70 fa b8 3d b8 f3 78 3d 15 fa 0b 3d 4f c0 c9 3b
       0.09032142 0.060779303 0.034174044 0.006156958
000120 12 04 12 3c aa 24 00 3e 4e 90 36 3e b3 78 1d be
       0.008912103 0.12513986 0.17828485 -0.15378074
000130 a0 2a 54 bd d0 82 3f be 89 3e 36 be 07 b9 97 bd
       -0.051798463 -0.18702245 -0.17797293 -0.07408338
000140 1a 03 db bd 41 10 66 3c 53 49 ce 3c 0e 34 67 bd
       -0.10693951 0.014041961 0.025181448 -0.056446128
000150 fe d8 c7 3d cb 80 d1 3d 79 3b a2 bd 9d bc 85 bd
       0.09758185 0.102296434 -0.079215 -0.06530116
000160 b9 d5 46 3d a6 4d 99 ba db 77 07 be aa c7 e1 3d
       0.048543666 -0.0011696115 -0.13229315 0.11024411
000170 10 87 cb bd 5e 69 dc bd a5 8e d3 3d 5d ca 1e 3e
       -0.099378705 -0.10762285 0.10329942 0.15506883
000180 a8 d4 c3 bd ce d1 f5 bd 12 ec 41 3e c7 4e f4 bd
       -0.09562045 -0.12002908 0.1893771 -0.11929088
000190 fb c1 d5 bd d0 de 25 be d3 8c 15 bd 10 3d 15 be
       -0.104373895 -0.16198277 -0.036511254 -0.14574075
0001a0 74 8a c3 3c 68 bf eb bd bc 1b 0c 3e 7b 9e 82 bd
       0.02386973 -0.11511117 0.13682455 -0.06377884
0001b0 ba 57 29 3e 7a 62 97 bd 04 8a b5 bd 73 8d 46 3c
       0.16537371 -0.0739183 -0.08864215 0.012118685
0001c0 29 56 f8 bd e1 06 cb bd 93 68 29 be 69 41 98 3c
       -0.12125809 -0.099134214 -0.16543798 0.018585877
0001d0 9d 11 a4 3d 42 3d 36 bd 2c 03 05 3d 8a 66 64 bb
       0.08011172 -0.044492014 0.032473728 -0.0034851157
0001e0 54 87 f5 bd 5a f5 d8 bd 9b 16 c5 3d 9d 62 27 3e
       -0.119887024 -0.10593672 0.09623452 0.16346212
0001f0 35 eb e0 bd 15 a9 7e 3d 14 e3 4f 3d d1 06 b2 3d
       -0.10982362 0.062172968 0.050753668 0.086927064
000200 40 93 a4 3d 35 7d 98 3d a0 c1 c4 bc 0e f5 c0 bd
       0.08035898 0.07445756 -0.024018109 -0.094217405
000210 77 de f2 bd 20 79 a6 3c 22 69 ce bb f4 64 1a bb
       -0.11858838 0.020321429 -0.006299154 -0.0023558708
000220 ed 3d fd 3c 06 52 03 3e 00 c3 d3 bd ef 16 26 bb
       0.030913318 0.12824258 -0.10339928 -0.002534326
000230 b4 d0 7d 3e 91 a0 2a 3e ed 31 13 bc 7b 06 08 3e
       0.24786645 0.16662814 -0.008984071 0.13283722
000240 5c d9 98 3d d5 e7 42 3d 7b 2d 9d 3b 93 78 38 bb
       0.07463333 0.047584374 0.0047966815 -0.002814804
000250 3d f2 fe 3d 39 19 3f 3d 55 f3 08 bd e0 52 e3 bc
       0.12448547 0.046654914 -0.033435185 -0.027749479
000260 f2 1c 07 be 7c d7 04 bc 2d 5e 18 bd f8 b3 2b be
       -0.13194636 -0.008108016 -0.037199188 -0.16767871
000270 e7 f7 d0 3d e6 90 57 bd c4 c8 da bc 71 65 39 3e
       0.102035336 -0.05262842 -0.02670706 0.18105103
000280 89 0f 84 3b 7c 55 0a bc 07 00 7e bd 4d 66 2d be
       0.0040301722 -0.008443233 -0.062011745 -0.16933556
000290 49 9d 5b be 6c 11 b8 3c 5e 6f 1e be 90 e5 09 be
       -0.21446718 0.022469245 -0.1547217 -0.13466477
0002a0 56 26 a2 bd 24 61 cf 3d c1 78 b2 bd 18 81 d7 bd
       -0.07917468 0.1012595 -0.08714438 -0.105226696
0002b0 6a 15 0e bd 8b 5f 99 bd 14 3b 41 be 5b d8 1e 3d
       -0.03468839 -0.074889265 -0.18870193 0.03878055
0002c0 e8 ab b0 bd 9d c3 33 3e 54 e6 e8 bd e8 d2 13 be
       -0.086265385 0.1755509 -0.113720566 -0.14435923
0002d0 df eb bb bd 74 ce da 3d df 7f 98 bd 78 9a cf bd
       -0.09175848 0.10683909 -0.074462645 -0.101368845
0002e0 ab f0 f5 bd 74 09 24 3e eb 11 27 bc f2 bd 02 be
       -0.120087944 0.16019231 -0.010197143 -0.12767771
0002f0 ca 41 14 be 70 82 b6 bc f0 58 a6 bd cc 47 e7 3d
       -0.14478222 -0.022278994 -0.08122432 0.11292991
000300 05 ef 98 3d a3 73 1e bc 8b e7 a0 3d 1f bd 2b be
       0.07467464 -0.009671125 0.07856663 -0.16771363
000310 98 06 20 3d 87 ef ca 3d 1e 79 8c 3d df ba 8c 3d
       0.03906879 0.099089675 0.06859039 0.0687158
000320 c2 8d eb ba 1c d1 66 bd 79 06 03 3e 84 5e 1b be
       -0.0017971324 -0.056351766 0.12795438 -0.15172774
000330 d7 e5 0f be 05 bc a0 3d da 18 d9 3d 6c 6e 2e 3d
       -0.1405252 0.07848362 0.10600443 0.042585775
000340 20 fb 85 3c e0 cd 24 bd 65 92 27 3d 92 f9 32 bc
       0.016355097 -0.0402354 0.040911097 -0.01092376
000350 4a 0c 4a 3e eb 57 75 3d ab f1 8e bd 88 aa 8f bc
       0.1973125 0.0598983 -0.06979688 -0.01753737
000360 82 df 0e bd 5e 32 72 be 66 18 fc 3d b2 cf 0c 3e
       -0.034881122 -0.23652026 0.12309341 0.13751104
000370 1b 2e e5 bd a5 c6 c4 bd a4 ea 2e be da 17 bf bb
       -0.111904345 -0.09608201 -0.17081696 -0.0058317007
000380 23 98 81 3c 75 b9 0a bd 68 24 20 be 4d f9 34 bb
       0.015819615 -0.03386827 -0.15638888 -0.0027614415
000390 8e eb 1d be 1a 86 1c be 96 9c 06 3e 34 75 7e bd
       -0.15421888 -0.1528553 0.1314567 -0.062123492
0003a0 08 6c 2b bd a6 7a 43 be d4 ac b3 3d 6e 2c 89 3d
       -0.041851074 -0.19089755 0.08773199 0.066979274
0003b0 31 db 8c bd 16 e6 46 3d fa e5 fa 3d 7f 6e e6 bb
       -0.06877745 0.04855927 0.12250896 -0.007032215
0003c0 dd c9 38 3d 14 68 11 3e 14 61 bd 3d 43 63 5b 3e
       0.045114387 0.14199859 0.09247032 0.21424584
0003d0 59 d5 4a bd 5b 4c 1a 3d 79 d9 54 bc dd ab 24 be
       -0.04951987 0.037670474 -0.012991303 -0.16081186
0003e0 bc d3 65 bd 48 bd 48 3d d3 9d b3 3c de 58 c5 3c
       -0.05611013 0.049008638 0.021925842 0.024090227
0003f0 5a 30 e5 3c 78 6e 2f 3d 25 af ab bc 34 93 44 bd
       0.027977157 0.04282996 -0.020957539 -0.047991946
