pretrained_gnns/Minesweeper_EdgePredGraphPrompt_GCN_1.pth (torch, 72640 bytes, 4 tensors)

conv1.bias f4 [128]
000000 04 b1 57 3c 99 26 fc 3c 08 7d 7a bc 39 95 a0 bc
       0.013164762 0.030780124 -0.015288599 -0.019602405
000010 6c f0 82 3d 66 aa fe 3c 0a f1 57 bc 8a 9a fd 3b
       0.06393513 0.031087112 -0.013180027 0.0077393698
000020 5a ff 89 bc 6d 68 8c 3d d6 6a f6 3c 1a 57 26 3d
       -0.016845394 0.06855855 0.03008024 0.04061041
000030 17 f4 01 3c 9f b9 68 bd 72 94 a9 3c 6d fc c1 3c
       0.007931731 -0.056817647 0.020700667 0.023679936
000040 84 60 13 bd 10 58 3a 3c 19 00 fd bb fb f3 fc bc
       -0.035980716 0.011373535 -0.007720959 -0.030878058
000050 0d a6 4b 3d 95 fd 8d ba 62 5b 2c bc 28 fe ae bb
       0.049718905 -0.001083302 -0.010519834 -0.0053403564
000060 40 00 99 3d 15 2b 50 bd ad 97 34 bc 44 fc c6 ba
       0.07470751 -0.050822336 -0.01102249 -0.0015181382
000070 fc d0 c5 3c 74 33 ae bc ed 3b 82 3c 77 bc c0 bc
       0.024147503 -0.02126477 0.015897715 -0.023527367
000080 45 63 35 3c b8 b2 78 bc 6f 48 44 bc 68 55 07 3d
       0.011071031 -0.015179329 -0.01198016 0.033040434
000090 cd 4d f9 bb 32 89 a5 bb 49 53 4f 3c 82 13 1f 3d
       -0.0076081515 -0.0050517553 0.012654134 0.038836963
0000a0 9b 24 b3 bc 60 29 25 3d d9 84 95 3c 4a 8b 91 3c
       -0.02186804 0.04032266 0.018251823 0.017766614
0000b0 88 55 3f 3c 86 a5 b1 bc 7e 0a bc bc 39 10 45 bd
       0.011678107 -0.021685373 -0.022954222 -0.048111174
0000c0 2d 25 fb 3c db 2e 3c 3d 48 49 e6 bc 10 fc 84 3c
       0.030657375 0.045943122 -0.028111115 0.016233474
0000d0 45 2c eb 3b fc 08 1d bd f4 fc 23 3d 73 cc c7 3a
       0.007176908 -0.038338646 0.040036157 0.0015243426
0000e0 d9 8f e9 bb fc f1 86 3c a0 83 1d 3d b9 16 ef bc
       -0.0071277437 0.016472809 0.038455606 -0.02918564
0000f0 7d e6 1e bc 71 2f 97 bd 1f da 8b 3b 4b 35 83 3c
       -0.009698507 -0.073820956 0.0042679454 0.016016623
000100 e8 70 1b 3d 7b bd 88 3c 90 54 9c bc 71 82 22 bc
       0.037949473 0.016691914 -0.019083291 -0.009918795
000110 61 eb a2 bc 99 e5 60 bd 46 86 d1 b9 aa 26 1e 3d
       -0.019887628 -0.05490646 -0.00039963628 0.03861109
000120 a3 e5 8f bc 8f ca 6a 3b a0 2c 0c 3d 5c 74 17 3b
       -0.017565554 0.00358263 0.034222245 0.0023110127
000130 a9 f6 06 bd 46 5e b4 bb 1c f9 d5 bc d9 fb 74 3b
       -0.032950077 -0.0055044023 -0.026119761 0.0037381558
000140 ad 9e a4 3c b2 6e 80 3d 85 6f c2 b9 66 0b 54 bb
       0.020095194 0.062711135 -0.00037085652 -0.0032355427
000150 af 34 bf bc ef 31 39 3c 00 00 00 00 15 22 8b bc
       -0.023340551 0.011303409 0.0 -0.016984025
000160 85 33 76 ba 00 8f 03 3d ef f0 07 bd 0e d2 de 3c
       -0.0009391832 0.032118797 -0.033188757 0.027199771
000170 d1 29 aa bc 08 23 6f 3c 68 6b a1 3c bc a6 a4 bc
       -0.020771893 0.014595754 0.019704536 -0.020099036
000180 91 54 44 bd cb 3f 98 3c 8f 74 9a bc 21 f6 84 3b
       -0.04793221 0.018585106 -0.018854408 0.004057661
000190 23 ba ab 3b 28 59 cb 3c 2a c5 c5 3c 91 0c c7 bc
       0.005240695 0.024822786 0.024141867 -0.024297984
0001a0 45 7c 97 3a b1 c2 f1 3b 83 e7 52 bc 51 9f 9b 3c
       0.0011557421 0.0073779454 -0.0128725795 0.018996866
0001b0 96 e3 5e 3c 8c 6b e8 bc ad a4 d1 3a 4d 41 a8 3b
       0.013604065 -0.028371595 0.0015994512 0.0051347376
0001c0 d2 40 0e 3b db f3 aa 3c b3 cb b8 bb 4d 1c 6e 3c
       0.0021706116 0.020868232 -0.005639517 0.014533115
0001d0 7d 3a d1 bb 3f 8f 83 3c f2 78 24 3d c2 a0 19 bc
       -0.006385146 0.016059516 0.040154405 -0.009376707
0001e0 21 16 25 bd 8c 31 23 bd 19 9e e3 bb d1 cb 23 bd
       -0.040304307 -0.039842173 -0.006946337 -0.039989296
0001f0 9f 49 61 3d 34 f3 a9 bd 54 31 3d bd fe cb 79 3b
       0.05500185 -0.082983404 -0.04618962 0.0038115974

conv1.lin.weight f4 [128, 7]
000000 19 3b 8a bd 02 8f af 3e 06 27 44 bd 5f 29 76 bd
       -0.06749553 0.34288794 -0.04788878 -0.06009805
000010 9e 56 75 bf 66 c0 69 be 0c 06 d7 be 43 b1 e0 bd
       -0.9583529 -0.228273 -0.419968 -0.1097131
000020 3d c4 78 3e 87 4a 7a be e0 3f 5c 3e 2f 67 ee be
       0.24293609 -0.24442492 0.21508741 -0.46563098
000030 ca 1a d8 be 63 f9 33 3f ba a8 34 be 57 2e 04 3e
       -0.42207938 0.7030241 -0.17642489 0.12908302
000040 92 bc 01 3e 96 46 a6 3e 30 af b6 3d 12 cd 5b 3e
       0.1266959 0.32475728 0.08920133 0.21464947
000050 22 67 a9 be 30 e7 09 3d 99 dd 44 bf 4b 34 a2 bd
       -0.33086497 0.033667743 -0.7690063 -0.0792013
000060 37 03 03 3e 89 19 8f 3e 4f 40 27 bf 27 48 c0 be
       0.12794195 0.2794917 -0.653325 -0.37555048
000070 d7 88 04 3e 71 7d fc bd 2f 2e 3d 3e 76 b1 43 3e
       0.12942825 -0.123286135 0.18474649 0.19110665
000080 9a 98 cd bd e2 a4 ca bd a8 6c db be da f3 72 be
       -0.10038872 -0.0989473 -0.42856336 -0.23725834
000090 7d 8b 97 be d2 b3 ab 3e d3 55 9a bd 13 f9 52 3e
       -0.2959861 0.3353563 -0.07535901 0.20602827
0000a0 4e ec ce 3e 5c c6 d8 be f3 24 da bc 4f 0a 35 3e
       0.4041466 -0.42338836 -0.026628947 0.17679714
0000b0 6f 38 04 bf ba 56 6b 3e 0b b7 a4 3e 9a 29 38 be
       -0.5164861 0.22982302 0.321709 -0.1798462
0000c0 c0 68 bb 3e 1b 30 e8 3c 60 5c e9 bd 91 e7 57 bd
       0.36603355 0.028343251 -0.11394572 -0.052711073
0000d0 f9 84 69 be f2 c4 18 3e f3 1f 22 3f af f1 6c bf
       -0.22804631 0.14918879 0.6333 -0.9255628
0000e0 1c e9 9f 3d 3f e1 90 3e 3d 12 17 be 4f 8c f9 be
       0.07808134 0.2829685 -0.14753051 -0.4873986
0000f0 1d fa 83 3e bc 1f 2e 3e e1 4d 1c bf 95 32 43 bd
       0.2577676 0.17004293 -0.61056334 -0.04765566
000100 d8 bf 1b be f9 28 bf bd 38 3b a4 bd 33 8b 6d be
       -0.15209901 -0.09333987 -0.080191076 -0.23197632
000110 f2 dc c8 3e 62 f0 82 3f 4a d7 12 3e b9 b1 55 3b
       0.39231068 1.0229609 0.14339939 0.0032607152
000120 e2 69 50 3e f7 03 88 3d 76 9b eb 3d 75 99 da be
       0.20352891 0.06641381 0.11504261 -0.42695203
000130 80 da 9e be e7 73 6a bc 78 47 32 be f8 fb f3 bc
       -0.31026077 -0.01430986 -0.17410076 -0.029783234
000140 4d 48 90 bd a6 d8 89 be 20 9d 1d 3f f1 fc 31 3f
       -0.0704504 -0.26923102 0.6156788 0.6952658
000150 fd 6b 1e 3c 94 55 40 3e 4f 3c f3 bc 46 e2 79 3e
       0.009669301 0.18782645 -0.029691843 0.24402723
000160 25 b7 48 bf 42 0b 5f be 55 5a c1 be c4 04 3a 3e
       -0.78404456 -0.21781638 -0.3776423 0.1816588
000170 d7 21 51 bf d3 8e 50 be df 6d b0 3d 87 bc 21 3e
       -0.8169226 -0.20366983 0.08614706 0.15794574
000180 e1 4c 0f 3e c3 1f 67 bf 9e 76 42 be 5c 38 a3 3e
       0.1399417 -0.9028284 -0.18990561 0.31878936
000190 25 f8 0b 3e e0 2f 57 be bc 5f b2 be a5 2c dd be
       0.13668878 -0.21014357 -0.34838665 -0.43198124
0001a0 3a 46 b8 3e 32 c3 89 be ba dd 83 bf f2 9e 8c be
       0.3599108 -0.26906735 -1.030204 -0.27465016
0001b0 c4 f5 fd 3d 79 c0 52 be e6 1c 1d 3f a6 70 8a bc
       0.12400392 -0.20581235 0.6137222 -0.016899418
0001c0 45 64 cf bd 46 0d b2 3a 6a a0 01 3e 5c cb 89 3e
       -0.10126547 0.0013584278 0.1265885 0.26912963
0001d0 06 6c 2d 3e de 04 91 bd d1 c2 bd be 47 1e 00 3e
       0.16935739 -0.070810065 -0.37062696 0.1251155
0001e0 cd 65 25 3e 0d 0a c3 be 4e 2e 83 bd 9d 50 12 bf
       0.16152115 -0.38093606 -0.06405316 -0.57154256
0001f0 65 73 72 bf ce 79 a1 be 69 68 ec be 20 63 8e be
       -0.9470733 -0.31538242 -0.4617341 -0.2781
000200 be 4e f8 3d ed 26 97 3e 27 fe 62 be dd 2d 73 bf
       0.12124394 0.29521886 -0.22167264 -0.94991857
000210 c1 42 ac be 54 6e 8c 3c a9 b1 d9 bb da 37 af be
       -0.3364468 0.017142452 -0.006643493 -0.342223
000220 a3 6e a3 3e d9 f4 e8 bd 59 c2 ff bd 8e 8a d8 be
       0.31920347 -0.11374826 -0.12488241 -0.4229321
000230 17 16 2a be 39 06 59 be b9 8b f2 3d 83 67 13 3d
       -0.16609989 -0.2119378 0.11843056 0.03598739
000240 9b f8 65 be 2e f8 3d 3f 18 7e ed be 70 ba 5b 3e
       -0.22458117 0.7420682 -0.46385264 0.21457839
000250 53 1b b4 3c 9f 2a 62 3e 95 36 5a 3e 27 01 e3 bc
       0.021985685 0.22086571 0.21309884 -0.02771051
000260 77 7e 60 be 68 26 eb be 87 8e 46 bc 3c 8a 3b bf
       -0.21923243 -0.4592774 -0.012118942 -0.73257804
000270 6f 92 9f 3e 53 94 4e be 4f 16 7a 3e 1d 39 61 be
       0.31166407 -0.20173769 0.24422573 -0.21994443
000280 93 57 f1 be f2 38 55 bd 52 27 13 bf c7 fd a0 3e
       -0.47137126 -0.05205626 -0.57481873 0.31443617
000290 dd ae eb bd b3 d5 63 3e b3 4c 1f bf 39 a6 68 be
       -0.11507962 0.22249489 -0.6222641 -0.22719659
0002a0 c0 9e 37 be 33 33 3b 3d 4b 38 25 3d 31 f0 02 bf
       -0.17931652 0.045703124 0.04033689 -0.51147753
0002b0 f8 5a f7 3d 2f d8 bf bd e5 d3 84 3f d9 91 66 3e
       0.12077898 -0.093674056 1.0377165 0.22516574
0002c0 60 a5 b7 be 92 a3 09 bd a4 a1 4a be 01 6b 63 be
       -0.3586836 -0.03360326 -0.19788224 -0.22208788
0002d0 17 c0 09 bf 9f 4b fb 3e 76 74 87 3b 78 45 ce bc
       -0.5380873 0.49081132 0.0041337563 -0.02517961
0002e0 bf c1 83 3e 73 6c 1d be 3c fc 2b 3e 78 c1 1b bf
       0.25733754 -0.15373401 0.16795439 -0.60842085
0002f0 d0 c4 62 3f 7a 6f 90 3d 4c f3 6a be d1 91 3e be
       0.8858156 0.070525125 -0.22944373 -0.18610312
000300 93 2b ab be 38 5f 86 3e e9 c8 d2 3e cf d3 11 be
       -0.33431682 0.2624452 0.41168907 -0.14240955
000310 d8 51 67 be 72 d0 e4 be 32 3b a7 3e f7 77 47 3b
       -0.22589815 -0.4469028 0.3266235 0.0030436495
000320 e6 1c de bd 28 ea 29 3f 48 b0 2c bf 8e a6 5e 3d
       -0.10845356 0.6637292 -0.67456484 0.054358058
000330 36 88 83 3d 5b e6 14 3e 79 8e 61 bf 82 b5 02 3e
       0.064224645 0.14540999 -0.8810802 0.12764552
000340 66 bb 9d bd 77 91 3e bf 24 6f 20 3e 95 66 b5 3d
       -0.07701759 -0.7444071 0.15667397 0.088574566
000350 dd b5 30 3e a4 4c 7f 3e d1 f2 90 be 79 66 70 be
       0.17256875 0.2493158 -0.28310254 -0.2347659
000360 d1 0c 32 bf 79 be 04 bd 11 76 5f bc d9 72 9f 3e
       -0.69550806 -0.03240821 -0.013638989 0.3114231
000370 c8 e4 35 bd 94 34 7c bf 2c ce 23 bf 5c bc 48 3f
       -0.044407636 -0.9851773 -0.6398647 0.78412414
000380 eb bb 52 3e 59 14 d6 3d 8f df 2b 3e c4 7b 25 3e
       0.20579498 0.104531 0.167845 0.16160494
000390 fc 4e ec bd 3a 7c 8e be 5b 9f 0b bf 11 03 e8 3d
       -0.115385026 -0.27829152 -0.5454003 0.1132871
0003a0 78 50 87 bf 61 d8 c5 3c ff 48 db 3d 40 fd 7c 3e
       -1.0571432 0.024151029 0.10707282 0.24705982
0003b0 e0 24 50 bf ed 2f ac 3e 16 9d ae bd ac 62 bc be
       -0.81306267 0.33630314 -0.085260555 -0.3679403
0003c0 2b 4e 8e 3e c8 11 8c 3e 89 62 7e bf 3f 7a 5d be
       0.27794012 0.27357316 -0.993691 -0.21628664
0003d0 24 8e 21 be e9 a7 64 3e 6d 1d 1f 3e a1 11 89 3d
       -0.15776879 0.22329678 0.15538569 0.066928156
0003e0 02 9d 2c 3e 46 24 e2 bd 31 b7 87 be 82 cb 29 bf
       0.16856769 -0.11042075 -0.2650695 -0.66326153
0003f0 f1 c7 ae bc f0 9c 30 be cd 79 2e be 80 79 7b 3c
       -0.021335574 -0.17247367 -0.17038651 0.015348792

conv2.bias f4 [128]
000000 bf 31 94 bc d2 e5 74 bc b6 5c e3 3c 74 e8 9b bb
       -0.018090127 -0.014947372 0.027754169 -0.004757935
000010 d6 fb 43 bd 73 bb c4 3a ed ff 0a 3d f6 31 18 3d
       -0.04784759 0.0015009478 0.033935476 0.03715702
000020 1a 4a 9d bb f7 89 dc 3b b8 95 6e 3c 0d a1 1a 3c
       -0.0048000934 0.006730314 0.014562063 0.009437812
000030 1e 72 53 3c a0 29 58 3c cc fc 31 3d 06 b7 6d 3d
       0.012905626 0.013193518 0.043453977 0.058035873
000040 7f c7 dd bc 77 b7 09 bd 56 a5 b6 3c 3b bf a0 3c
       -0.027072666 -0.03362223 0.022295635 0.019622436
000050 4f 8f 69 bb 28 ff 38 3c 29 0d 5a 3c 47 84 85 bc
       -0.0035638397 0.011291303 0.013308802 -0.016298426
000060 f4 3f 1a bc 3c b3 66 bd 8a 7b 02 3c 8e d1 dc bb
       -0.009414662 -0.056323275 0.007964024 -0.006738848
000070 2d 8a 14 3d 12 ad f0 bc 90 53 e3 ba a7 de 7f bc
       0.036264587 -0.029379401 -0.0017343629 -0.015617049
000080 fb 78 aa 3c ac 18 44 bd e5 49 52 bc fd e4 7b 3c
       0.020809641 -0.04787509 -0.012835001 0.015374419
000090 36 81 4f 3d f0 81 d9 3b d6 67 32 3d cf b0 52 bc
       0.050660335 0.006637804 0.043556057 -0.012859537
0000a0 e1 e7 5b 3d ec d6 cd bb cb a4 e5 bb a5 61 f9 ba
       0.053687934 -0.006281724 -0.0070081702 -0.0019026293
0000b0 6f 52 9c bc 47 95 2c bc 7e 76 f5 3c c7 c7 16 3d
       -0.019082276 -0.010533637 0.029963728 0.036811616
0000c0 25 26 74 3c cf a1 85 bd 54 eb 4f 3b 9c 5c 24 bc
       0.0149016725 -0.06525003 0.003172596 -0.010031845
0000d0 66 79 93 3c 95 b4 64 bc a1 a6 15 bc 3f 36 1e 3d
       0.018002223 -0.01395907 -0.009133966 0.03862595
0000e0 33 fb 24 bc 60 b0 82 3c 7d b8 0d bd f4 db 8c 3c
       -0.010069656 0.015953243 -0.03459977 0.017194726
0000f0 c7 8f 7a bd 56 75 c1 3c d7 6f 9a bc 4c 80 27 3d
       -0.061172273 0.02361552 -0.018852158 0.040893838
000100 f5 dc e7 3c 6d 31 1d bd 31 ea 3c 3b fb 5f 89 3d
       0.028303603 -0.038377214 0.0028826112 0.0670776
000110 0c 41 95 b9 80 cd 69 bc 88 18 bb bc 47 55 7e 3c
       -0.00028467958 -0.014270186 -0.022838846 0.015523261
000120 b1 ca a0 bc 5b 0d f7 bc 0a e1 37 bc 7d 62 31 bd
       -0.0196279 -0.030157736 -0.011223087 -0.043306816
000130 9a c7 4d bc e3 5c c0 bb aa 4e 28 3c 5b cd 62 3b
       -0.012559796 -0.005870448 0.010272661 0.0034607265
000140 86 08 49 bd 2b 5c 4c 3d f6 0b 67 3d c3 a4 a8 3c
       -0.049080394 0.049892586 0.05640789 0.020586377
000150 41 56 a0 bc 86 db 0d bc b9 82 23 3d 4b 08 59 3c
       -0.019572379 -0.0086582955 0.03991959 0.013246606
000160 36 c2 27 3c 0b db 58 bc fb 9a d8 bc a2 d7 76 bb
       0.010239175 -0.013235818 -0.026441088 -0.0037665148
000170 79 2e 10 bc e7 e1 58 3c eb f2 c0 3b 8d c1 89 3b
       -0.008800142 0.013237453 0.005888333 0.0042039813
000180 68 0a 41 bd 53 be a6 3a 7f f5 1b 3a e8 ea 82 3a
       -0.047129065 0.0012721516 0.00059493625 0.000998822
000190 3e 36 c4 ba 61 26 8c bc 25 0a da bc ca a2 41 bd
       -0.0014969779 -0.017108144 -0.026616165 -0.04727439
0001a0 b9 13 70 3d b3 5a 5e bb 10 12 21 bd 9a 71 12 3d
       0.05861256 -0.0033928573 -0.039323866 0.03575287
0001b0 67 db 0e bc 0d 88 b9 bc 00 9f c5 3c ad d4 b9 bb
       -0.008719302 -0.022647882 0.024123669 -0.005671105
0001c0 b0 f6 33 bd 5b 29 9e 3b 57 52 b2 bc 4b 35 13 bd
       -0.04393643 0.0048267073 -0.021767778 -0.035939496
0001d0 d5 9f a5 bc 66 fd e3 3c 9a ac e5 ba 0d b9 51 bc
       -0.020217815 0.02783079 -0.0017522753 -0.012800467
0001e0 56 06 90 3c 3b 09 9e bc bf 33 b5 bc 6d 59 54 bb
       0.017581146 -0.01929151 -0.022119401 -0.0032401935
0001f0 a9 86 c6 bb 76 4f 57 bd 7c e0 de 3c 8a dc 91 bc
       -0.006058533 -0.052566014 0.027206652 -0.017805357

conv2.lin.weight f4 [128, 128]
000000 3a 26 32 3e 7a 33 a1 3d d8 03 38 3e 73 d5 0f 3e
       0.17397395 0.078711465 0.17970216 0.14046268
000010 51 57 94 bc 00 af 06 3e a8 dc 7e bd 4d c0 52 be
       -0.018108042 0.13152695 -0.062222153 -0.2058117
000020 67 4b 80 3d 5b 3a 5e be 0b 0f f3 3d c9 32 42 be
       0.06264382 -0.21701948 0.118681036 -0.18964685
000030 ef 6d 5b bd 10 99 7a be de 0e c4 bd bc 7c d2 3e
       -0.053571638 -0.24472451 -0.09573148 0.4111079
000040 97 be 1c 3e f1 b4 96 3e 04 48 f3 bd f4 d9 5a 3d
       0.1530708 0.29434922 -0.1187897 0.053430513
000050 39 8b 7c 3d 3d 01 62 3d a7 cb 07 3e 18 95 65 3e
       0.06165621 0.055176962 0.13261281 0.22420156
000060 40 43 ce bd bd e6 79 3e 4f 26 b8 bd bc f5 45 be
       -0.10071421 0.24404426 -0.08991682 -0.19332021
000070 34 ef 18 be a3 c1 a8 3c b1 96 8a be 7d 29 e5 bd
       -0.14934999 0.020600146 -0.27068093 -0.11189554
000080 d0 6c 77 bd 2d 4c e5 3d b3 ce 74 3d 0d c1 90 3d
       -0.060406506 0.1119617 0.059767436 0.070680715
000090 95 fa d7 bc f2 ef 29 be ec d5 ec bd c7 e6 d1 3e
       -0.026364604 -0.16595438 -0.1156424 0.40996382
0000a0 91 5f 7e bd 07 ff 46 be 7f c7 3d 3e e7 e9 72 3d
       -0.062102858 -0.19433223 0.18533133 0.059305098
0000b0 a6 36 40 3e 43 3a 69 be 49 61 49 3e 8d 55 db bc
       0.18770847 -0.22776131 0.19666018 -0.026774192
0000c0 e1 71 f9 3d 6a 7d 14 bd 70 39 c3 3d 62 f5 07 3e
       0.12179924 -0.036252417 0.0953244 0.132772
0000d0 b8 54 dd bd a0 ca 25 bc 0d 9f e7 3d a5 f5 d2 be
       -0.108071744 -0.01011911 0.113096334 -0.41203037
0000e0 2c 65 91 bd ed 17 1f 3e 54 e3 d1 3c 1c d7 16 3d
       -0.07099375 0.1553647 0.025621094 0.036826238
0000f0 24 a7 90 3a eb e8 d8 bc 1b a4 2f 3e 73 72 22 3d
       0.001103614 -0.026478251 0.17152445 0.03965993
000100 66 2b 2b be 6f 55 a3 3d b2 79 a9 bd e7 a0 dd bd
       -0.16715774 0.079752795 -0.08275165 -0.10821705
000110 2a 5d bc 3e f3 15 48 3e 0d 2f f5 bd 0e 94 00 3e
       0.3678983 0.19539623 -0.11971865 0.12556478
000120 76 74 da bd 17 00 63 3e 7b c8 24 3e d3 51 7a 3d
       -0.106667444 0.22168003 0.16092102 0.06111319
000130 e8 31 a4 3d 8a a9 48 3e 13 b6 31 3d 7a dc b8 3b
       0.08017331 0.19595924 0.04338653 0.005641517
000140 ca f3 20 3e 23 c9 37 bd 86 29 e0 3d 24 30 06 3e
       0.15717998 -0.044869553 0.1094542 0.13104302
000150 93 44 ba bb c9 68 52 3e 84 d9 90 3d bb 7e 8a 3d
       -0.005684444 0.20547785 0.07072738 0.06762453
000160 62 07 24 3d a3 15 00 3d e7 53 9e 3d e9 d3 86 be
       0.040046103 0.031270634 0.07730847 -0.2633355
000170 1b 62 81 3e 9e fc 94 3c 88 f3 4b 3e 06 22 d2 3d
       0.2527016 0.018186864 0.19917119 0.10260396
000180 89 e6 ac 3d c9 35 2e 3d 52 c4 8f bd ac 72 11 be
       0.084424086 0.042531762 -0.07019867 -0.142039
000190 fe 15 56 be d8 2a 42 3e 41 90 b2 3d f2 85 64 ba
       -0.20906827 0.18961656 0.087189205 -0.0008717469
0001a0 ff 99 6c 3c 49 c2 c3 3e 98 9b 48 be 3f 0e b0 3d
       0.014441012 0.38234165 -0.19590604 0.08596467
0001b0 62 24 36 be ea 3b ff bd e3 49 df bd e4 1f be bd
       -0.17787316 -0.124625996 -0.10902765 -0.092834264
0001c0 29 f2 74 bd 6a a0 89 be a2 40 59 3d 53 5c 96 be
       -0.059801254 -0.268802 0.053040154 -0.29367313
0001d0 82 4e 1f 3d 31 01 04 3e 1a b5 31 be f8 ec 9c 3e
       0.03889323 0.1289108 -0.17354241 0.30649543
0001e0 73 c5 02 3e ff ce a7 3d 53 fc ad bd 68 31 b7 3d
       0.12770633 0.08193778 -0.08495393 0.0894497
0001f0 24 5a e0 bd d5 d9 9b bd bb 97 16 3e ea a6 be bd
       -0.10954693 -0.076099075 0.14706318 -0.0930918
000200 50 94 d5 3e 02 8b 5f 3d 81 02 76 3e 03 31 61 3e
       0.41714716 0.054575928 0.24024393 0.21991353
000210 20 41 60 3e 3e 7b b0 3e fd 4a 10 be 4d 5a 4b be
       0.21899843 0.34469026 -0.14091106 -0.19858666
000220 d1 48 e2 3d 7c 6a a4 3d 0b d3 f4 bd 0c 43 fa 3d
       0.11049045 0.08028123 -0.11954316 0.122198194
000230 61 5f 16 3e 7a c3 35 be 12 14 a5 3d 62 16 11 3f
       0.14684822 -0.1775035 0.08060469 0.5667478
000240 4a 75 ec 3d 9f c0 9f 3e 73 75 e8 3d ae 9f 44 be
       0.115458086 0.31201646 0.11350527 -0.19201538
000250 4c 85 b5 bd 75 40 ed bd b9 19 19 3d 3a 9f 43 3e
       -0.08863315 -0.1158456 0.037378047 0.19103709
000260 f2 c3 f1 bc 9a 8e 3f 3e b9 85 66 be c3 cf 31 3e
       -0.02951238 0.18706742 -0.22511949 0.17364411
000270 b5 fb a0 3e 99 4a 36 bc 9c 8d e2 3d 86 fe c7 3d
       0.31442037 -0.011126184 0.11062166 0.09765343
000280 39 8f 24 be d3 d9 65 3e 2b be 0a 3e 80 d5 35 3d
       -0.1607026 0.22446375 0.13549106 0.044393063
000290 3d 7a ef bd 50 98 9d 3d 45 13 35 3b 8a 14 8c bd
       -0.11693237 0.07695067 0.0027629894 -0.06839855
0002a0 34 01 05 3e eb 05 91 be 35 d5 55 bd e2 35 a5 bd
       0.1298874 -0.28324828 -0.052205283 -0.08066918
0002b0 ad b8 4e 3d c9 9e 5f 3c 8c 1f 38 3d e0 25 cc bd
       0.05046909 0.013648697 0.04495196 -0.099681616
0002c0 8e b3 2d be f0 32 95 be 93 99 2a 3e 2d 49 b9 bd
       -0.16963026 -0.29140425 0.16660146 -0.0904716
0002d0 be ad 04 be 91 31 11 3e 1e 79 0c 3f d9 d3 74 3d
       -0.12956902 0.14179064 0.5487231 0.059772346
0002e0 ef e1 41 be 9c 0a 02 3e b2 a1 28 be be a7 3f 3d
       -0.18933843 0.1269936 -0.16467932 0.04679083
0002f0 b6 b2 35 3d d7 ec 7b bd e1 83 85 3e 71 84 5c 3e
       0.044359885 -0.061505165 0.26077178 0.21534897
000300 77 83 c7 3d ce 82 2b be ff 1d 45 bd 84 9c 6a 3e
       0.09741872 -0.16749117 -0.04812431 0.22911268
000310 d3 51 76 bd 72 50 f0 3d 3e 6d 37 3e 80 53 28 3d
       -0.060136627 0.11734094 0.17912766 0.041095257
000320 b1 15 d7 3d 1f 6a 4a 3e 42 20 1a 3e b2 d2 66 3e
       0.10502184 0.19767044 0.15051368 0.22541311
000330 4e 1b 32 be 63 e7 34 3d 1b 8f 56 be f2 29 99 3d
       -0.17393228 0.04416598 -0.20953028 0.074787036
000340 e0 72 c1 bc 8c 9b cb bd f6 95 46 be 97 39 98 3e
       -0.023614347 -0.099417776 -0.19393143 0.29731438
000350 51 64 8c bd ba fc f5 3b 3b 5e 5f bd ff ee 77 be
       -0.06855071 0.007506934 -0.054533225 -0.24212264
000360 56 02 17 3e f9 18 fb 3d d7 3c be be 1c 19 c7 bd
       0.14746985 0.122606225 -0.37155792 -0.09721586
000370 4b 87 a3 3e 68 62 a4 3d 90 10 44 be d4 34 35 be
       0.31939158 0.08026582 -0.19146943 -0.17695934
000380 21 6e aa 3e 4b 05 26 3d 9b 05 c2 bd 19 48 f0 39
       0.33287147 0.04053239 -0.094737254 0.00045830084
000390 07 08 e1 3d f7 65 68 3e 3b 78 8c 3d b2 d0 b6 3c
       0.10987859 0.22695147 0.0685887 0.02231631
0003a0 85 6f 09 3f 61 d4 0b 3e 4e 2b 8d 3c bc 2a 89 bc
       0.5368579 0.13655235 0.017232563 -0.01674401
0003b0 9a 48 2f 3e 90 d4 bb 3c 49 37 79 3d 45 36 54 be
       0.17117539 0.022928506 0.06084374 -0.20723827
0003c0 05 ea ad 3d bd 88 f0 3c 4d 84 70 bd 4a 1a 28 be
       0.08491901 0.029362077 -0.05871992 -0.16416278
0003d0 72 b7 8f bd bc 02 b1 bd c1 04 01 be 09 37 bd 3d
       -0.07017411 -0.086431 -0.1259947 0.09239013
0003e0 74 71 bc be 1c 88 89 3e 04 79 3a be 4b 74 24 bd
       -0.36805308 0.26861656 -0.18210226 -0.040149968
0003f0 37 e7 40 3e bf 14 00 bf 72 7b 1b be a0 d7 0c 3e
       0.18838201 -0.50031656 -0.1518381 0.1375413
