pretrained_gnns/Minesweeper_EdgePredGPPT_GCN_1.pth (torch, 72584 bytes, 4 tensors)

conv1.bias f4 [128]
0	0x3d9fcb22	0.078024164
1	0x3df21709	0.118208
2	0x3be26bf8	0.0069098435
3	0x3cf640b4	0.03006015
4	0x3c9d6181	0.019211533
5	0x3d2f2057	0.04275545
6	0x3d5398a5	0.051659245
7	0x3d9b4f47	0.0758348
8	0x3da97eb2	0.08276118
9	0x3dfb893b	0.12282034
10	0xbcaa1879	-0.020763623
11	0x3d94dc4b	0.0726858
12	0x3ce66ee7	0.028129054
13	0xbd1aad02	-0.03776265
14	0x3da3cf40	0.07998514
15	0x3e048556	0.12941489
16	0xbb17c92f	-0.0023160686
17	0xbd1922bb	-0.037386637
18	0x3cd8fbdb	0.026487282
19	0x3d2774fa	0.040883042
20	0x3dbd68e3	0.09248521
21	0xbda0503b	-0.07827803
22	0x3c003dd3	0.00782724
23	0x3cc5cb77	0.024144871
24	0xbd3beb9e	-0.045879
25	0xbd211f46	-0.039336465
26	0x3cc0c788	0.023532644
27	0x3ccf0f23	0.025275772
28	0x3d6cc1e2	0.05780209
29	0x3d07a3d4	0.033115223
30	0xbcfed524	-0.031107493
31	0xbbc7cd53	-0.0060974746
32	0xbd0dda99	-0.0346323
33	0x3ce0b8d6	0.027431887
34	0x3c6d2f92	0.014476674
35	0xbc390d6c	-0.011294704
36	0xbc75c3cb	-0.015000294
37	0x3dc5c3d4	0.09656492
38	0xbbf61b74	-0.007510597
39	0x3d5aa953	0.053384136
40	0x3c40eacb	0.011774729
41	0xbd2285ac	-0.03967826
42	0xbd90b42e	-0.070656165
43	0x3cafc101	0.021454336
44	0x3c577f4c	0.0131529085
45	0x3cdb5421	0.026773514
46	0x3c0ca62d	0.008584541
47	0xbd6bc166	-0.057557486
48	0xbcb074c2	-0.02154005
49	0x3db296f6	0.087202
50	0xbc90d637	-0.01768027
51	0x3d8d6f58	0.06906003
52	0x3d05d990	0.032678187
53	0x3bb95113	0.0056554168
54	0xbd64144c	-0.05568342
55	0x3d17bda7	0.0370461
56	0xbc8383e6	-0.016054105
57	0xbd82200d	-0.063537695
58	0xbcd0d9e2	-0.02549452
59	0xbba205a7	-0.0049445215
60	0x3d22fd6a	0.039792456
61	0xbbaa472a	-0.0051964717
62	0x3dcc63de	0.09979986
63	0x3d66a20c	0.056306884
64	0x3c63d76c	0.013906341
65	0x3daa1217	0.083042316
66	0x3cb07788	0.021541372
67	0x3ca25257	0.019814653
68	0x3c28cd1e	0.01030281
69	0xbcd74224	-0.026276655
70	0x3cdea6d4	0.02717916
71	0xbce1592c	-0.02750834
72	0x3d88d197	0.06680601
73	0x3c4f21e1	0.012642355
74	0x3dba9498	0.09110373
75	0x3d6c76ed	0.057730604
76	0x3d325285	0.043535728
77	0x3d8832d7	0.06650322
78	0x3cb423de	0.021989759
79	0x3c795c63	0.015219781
80	0xbbf83e29	-0.0075757694
81	0xbcb5e89e	-0.022205647
82	0x3ca5c0c9	0.020233529
83	0x3db072e0	0.08615661
84	0xbd27377b	-0.040824395
85	0xbcc8091f	-0.024418412
86	0xbcb15db8	-0.021651134
87	0xbc388689	-0.011262544
88	0x3cf1cdcf	0.029517082
89	0x3d991516	0.07474725
90	0x3c0c148a	0.008549819
91	0x3cbc5b9c	0.022992902
92	0x3c3f8b64	0.011690948
93	0x3dbdd4df	0.092691176
94	0x3cec1b48	0.028821602
95	0x3cee3f7c	0.029083006
96	0xbd1ea44d	-0.03873091
97	0xbd25f499	-0.04051647
98	0x3d64e447	0.055881765
99	0xbd13e49f	-0.036106702
100	0xbc948e0d	-0.018134141
101	0xbc0208dd	-0.0079366835
102	0xbd241c7f	-0.04006624
103	0x3be3e3d7	0.006954651
104	0x3c232043	0.009956422
105	0x3d67e086	0.056610607
106	0x3dacd5c8	0.08439213
107	0x3d81198a	0.06303699
108	0xbcc25cfa	-0.023725975
109	0x3c6b19eb	0.014349441
110	0x3cdecce2	0.027197305
111	0x3d388e06	0.04505732
112	0x3cf8fa7c	0.030392878
113	0x3dac7bf6	0.08422081
114	0xbd11753f	-0.035512205
115	0x3d5f142f	0.054462608
116	0x3d553dcb	0.052060883
117	0x3d3c8705	0.046027202
118	0xbb35e71e	-0.0027756165
119	0x3d50eaeb	0.051005285
120	0x3d60f717	0.054923143
121	0xbb9e46b6	-0.0048302067
122	0x3cd9556e	0.026529994
123	0xbbbc8339	-0.0057529476
124	0x3dba1d32	0.090876
125	0xbd21ad27	-0.03947177
126	0xbc8b6196	-0.017014306
127	0x3d581ba6	0.052760743

conv1.lin.weight f4 [128, 7]
0	0xbdb6f111	-0.089326985
1	0x3ed96ca0	0.42465687
2	0x3daa8e5b	0.083279334
3	0xbddf7a6b	-0.10912021
4	0xbdd5cacf	-0.10439073
5	0xbe67925b	-0.22614424
6	0xbd68a536	-0.056798182
7	0xbda588a8	-0.08082706
8	0x3ef5814b	0.47950205
9	0xbdc5754e	-0.09641515
10	0xbe0234a1	-0.12715389
11	0x3d3e7f70	0.046508253
12	0xbecffa8a	-0.40620834
13	0xbc46e77f	-0.012140154
14	0xbe02187c	-0.12704653
15	0x3dc65c04	0.09685519
16	0x3e81a6fe	0.25322717
17	0x3e984d97	0.29746696
18	0xbd5089c8	-0.05091265
19	0x3e231fb3	0.15930061
20	0x3dfee194	0.12445369
21	0x3ca2ff1e	0.01989704
22	0xbe50deb2	-0.20397452
23	0xbe8fdbb6	-0.28097314
24	0x3e0c8c94	0.13725501
25	0x3e0a7296	0.13520274
26	0xbd2e2476	-0.04251524
27	0x3e92cb24	0.2867061
28	0x3ced89cc	0.02899637
29	0xbe8cd5c7	-0.2750685
30	0xbbef189d	-0.0072966353
31	0x3e99b8a7	0.3002369
32	0xbd28b981	-0.041192535
33	0x3e900139	0.28125933
34	0x3db735c4	0.08945802
35	0xbdfb3cf5	-0.12267486
36	0x3e11f07f	0.14251898
37	0x3eaf04f6	0.34183472
38	0xbd145679	-0.03621528
39	0xbe2f0c66	-0.17094573
40	0xbe21463c	-0.15749449
41	0xbe086a31	-0.13321759
42	0xbc4579be	-0.012052951
43	0xbcb60213	-0.022217786
44	0xbe6ea706	-0.23305902
45	0x3e5119f8	0.20420063
46	0x3e886852	0.2664209
47	0x3e7dc570	0.24782348
48	0x3ec6cad6	0.38826627
49	0x3ca19789	0.019725578
50	0xbddabfcf	-0.10681116
51	0xbdd74757	-0.10511654
52	0xbd5fa3ba	-0.0545995
53	0x3e025738	0.12728584
54	0x3e88ebd5	0.26742426
55	0x3cf1c5b9	0.029513227
56	0x3cc1d5f3	0.02366159
57	0x3e9d7d61	0.3075972
58	0xbe4f1546	-0.20222959
59	0xbe10ffe2	-0.14160112
60	0x3eb95bbd	0.36202803
61	0x3e4a35f0	0.19747138
62	0x3e2856b3	0.16439323
63	0xbded544c	-0.11588344
64	0xbda9577d	-0.0826864
65	0xbdcb85e8	-0.0993765
66	0xbdac9310	-0.084264874
67	0xbc77d26d	-0.015125853
68	0x3ec608b1	0.38678506
69	0x3ec13064	0.37732232
70	0x3e077fcf	0.13232349
71	0xbe165237	-0.146798
72	0x3ead28ae	0.338201
73	0xbda1796c	-0.078844875
74	0xbc903859	-0.017604994
75	0xbe18e9c8	-0.1493293
76	0xbde4a3e8	-0.11164075
77	0xbd9560cb	-0.072938524
78	0xbea1e87f	-0.31622693
79	0xbe9d4e46	-0.3072378
80	0x3e865570	0.2623706
81	0x3d4cf3e8	0.050037295
82	0x3e8b0ade	0.27156729
83	0x3e7f7bc3	0.24949555
84	0xbdcfef01	-0.10153008
85	0x3d0ad6ff	0.033896443
86	0x3e40cf72	0.18829134
87	0x3e6baaa2	0.2301431
88	0xbd5932a5	-0.053026814
89	0x3d32d336	0.043658458
90	0xbd2aceb9	-0.041701052
91	0x3e5548c9	0.20828547
92	0xbe820dc8	-0.2540114
93	0xbef9cece	-0.48790592
94	0xbda39462	-0.07987286
95	0x3e6dbcf6	0.23216614
96	0x3e79117d	0.24323077
97	0xbdd754b6	-0.10514204
98	0xbd4a45cf	-0.04938298
99	0x3ec4298e	0.38312954
100	0x3dea485a	0.11439581
101	0xbe6f7005	-0.23382576
102	0xbdc2c48c	-0.095101446
103	0xbe35cf9e	-0.17754981
104	0xbe02e0cf	-0.1278107
105	0xbe1ee74c	-0.1551792
106	0xbe75beb1	-0.23998524
107	0xbe2bef24	-0.16790444
108	0x3d87b560	0.066263914
109	0x3e27f418	0.16401708
110	0x3e8f3225	0.27967945
111	0x3e2e7117	0.17035328
112	0xbdf3dd15	-0.119074024
113	0xbd5cfc83	-0.05395175
114	0x3e22df60	0.15905523
115	0x3e9d3844	0.3070699
116	0x3dd395a3	0.10331275
117	0x3e46e432	0.19422987
118	0xbd308642	-0.04309679
119	0xbcd80dbb	-0.026373735
120	0x3cf6456e	0.030062404
121	0xbe43547d	-0.19075198
122	0x39ae12bc	0.00033201824
123	0xbe31064b	-0.17287557
124	0xbe57d743	-0.2107821
125	0xbc70b3f7	-0.014691344
126	0xbe5b31d9	-0.21405734
127	0xbd5cbbe2	-0.053890117
128	0x3e29603d	0.16540618
129	0x3e1f8710	0.15578866
130	0xbd806e50	-0.062710404
131	0xbd9b1499	-0.07572288
132	0xbe6a062f	-0.22853921
133	0xbde95557	-0.113932304
134	0xbdb6d769	-0.08927805
135	0xbdb4f2d9	-0.08835382
136	0x3eb7c971	0.35895875
137	0x3e27b89d	0.16379018
138	0x3eca6019	0.39526442
139	0x3dac8252	0.08423294
140	0xbe1742b9	-0.14771546
141	0x3e82e926	0.25568503
142	0xbe18ac63	-0.1490951
143	0xbabfcb5b	-0.0014632748
144	0x3c5fd9e1	0.013662786
145	0x3dc51a71	0.09624184
146	0xbe842c1c	-0.25814903
147	0x3e4a5ba2	0.19761518
148	0xbe014811	-0.12625147
149	0x3e84b7ce	0.25921482
150	0x3d93f17a	0.072237924
151	0xbe029ae9	-0.12754406
152	0xbe399e12	-0.18126705
153	0xbd41627a	-0.047213055
154	0xbe1ddac6	-0.15415487
155	0xbe07ea35	-0.13272937
156	0x3ec75677	0.38933155
157	0x3e09a1d7	0.13440643
158	0xbe39cc8f	-0.18144439
159	0xbd8886eb	-0.066663586
160	0xbd4686a4	-0.048468247
161	0xbe31b7c4	-0.17355257
162	0xbe33f868	-0.17575228
163	0x3e921167	0.28528902
164	0x3e93ea46	0.28889674
165	0xbd38bd81	-0.0451026
166	0xbdd42d20	-0.103601694
167	0x3c5fd2c3	0.013661089
168	0xbe965bcd	-0.29366913
169	0xbd2dc200	-0.04242134
170	0xbc9cf478	-0.01915954
171	0xbe3200bc	-0.17383093
172	0xbe6dce21	-0.23223163
173	0xbc0b612e	-0.008507056
174	0x3e1ae351	0.15125777
175	0x3e884996	0.26618642
176	0xbe33d5ce	-0.17562029
177	0xbe9dc7b5	-0.30816427
178	0xbe981fed	-0.29711857
179	0xbdbb1449	-0.091347285
180	0x3d92e32d	0.071722366
181	0x3e499e00	0.19689178
182	0xbd837412	-0.06418623
183	0xbbc4b6e2	-0.0060032466
184	0x3e933ea0	0.28758717
185	0x3e3e03d7	0.18556152
186	0x3d370461	0.04468191
187	0x3d9afa55	0.07567278
188	0x3e1d45e0	0.15358686
189	0x3d91f052	0.071259156
190	0xbe4bf6f6	-0.19918427
191	0xbeef3cc7	-0.46726057
192	0xbe3a3e0f	-0.18187736
193	0x3e6c45a2	0.23073438
194	0x3e5150ff	0.20441054
195	0x3e5b4628	0.21413481
196	0xbe12ec23	-0.14347892
197	0xbdf5c49b	-0.1200039
198	0x3ed8cf69	0.4234574
199	0x3db4373b	0.08799597
200	0xbe56ddac	-0.20982999
201	0x382d9c9b	4.1392264e-05
202	0xbe738d76	-0.23784432
203	0x3da789cb	0.08180579
204	0x3e9b2cdd	0.30307665
205	0x3e20266e	0.1563966
206	0xbf037ec5	-0.5136531
207	0xbe261761	-0.16219856
208	0xbe8f0e08	-0.27940392
209	0xbde04a48	-0.10951668
210	0x3d8b8397	0.06812208
211	0xbdb5f08d	-0.08883772
212	0x3eac7b50	0.3368783
213	0x3dbca83c	0.09211776
214	0xbe852bc6	-0.2600996
215	0xbdb03bd8	-0.08605164
216	0xbe0041cf	-0.12525104
217	0x3d57dbe6	0.052699946
218	0xbc8c9f0e	-0.017165687
219	0x3eaf4510	0.34232378
220	0xbe62c06c	-0.22143716
221	0xbe7639e4	-0.24045521
222	0xbe55cd32	-0.20879057
223	0xbd34478a	-0.044013537
224	0x3e91742d	0.28408948
225	0xbe42457b	-0.18971817
226	0x3e5a41e1	0.21314193
227	0xbc440df6	-0.011966219
228	0xbe556467	-0.20839082
229	0xbe84489f	-0.25836655
230	0xbe43f46c	-0.19136208
231	0x3ccc13b1	0.024911733
232	0xbe8f50a9	-0.27991226
233	0xbbcdb5f6	-0.006277795
234	0x3e8c1101	0.27356723
235	0x3e42b6f1	0.19015099
236	0xbda67466	-0.0812767
237	0x3e797729	0.24361862
238	0xbe1e6912	-0.15469769
239	0x3d9193ab	0.071082436
240	0x3ece97c9	0.40350178
241	0x3e3690b1	0.17828633
242	0xbe412ada	-0.18864003
243	0x3daa9338	0.08328861
244	0xbe7b4f68	-0.2454201
245	0x3e580078	0.21093929
246	0x3e7b8487	0.24562274
247	0xbcf61764	-0.03004045
248	0xbe4f526f	-0.2024629
249	0xbd14c6a0	-0.036322236
250	0xbe3e41a7	-0.18579732
251	0xbdfb1eff	-0.122617714
252	0xbcf08830	-0.029361814
253	0xbe309cf0	-0.17247367
254	0xbe2e79cd	-0.17038651
255	0x3c4e25ff	0.012582301

conv2.bias f4 [128]
0	0x3e5bab2b	0.21452014
1	0xbcd197b6	-0.025585037
2	0xbdeb9c93	-0.115044735
3	0xbe6273a2	-0.22114423
4	0xbdaddfbc	-0.084899396
5	0x3dc3218e	0.095278844
6	0x3d5dd09d	0.054154027
7	0x3df8bdb2	0.121455565
8	0x3ddff223	0.10934856
9	0xbdd88575	-0.1057233
10	0x3e77a7ff	0.24185179
11	0xbdcf0aa7	-0.10109454
12	0xbddcbbdd	-0.107780196
13	0x3e278024	0.16357476
14	0x3de14d60	0.11001086
15	0x3c874b8e	0.01651552
16	0xbc614421	-0.013749153
17	0x3d40529a	0.046953775
18	0x3d57ed2c	0.05271642
19	0xbdc44460	-0.09583354
20	0x3dad1fbd	0.08453319
21	0xbde61e04	-0.11236194
22	0x3d2571a4	0.04039158
23	0x3dba3a94	0.09093204
24	0xbe1cd60a	-0.15316024
25	0xbe39e0e1	-0.1815219
26	0x3e0011cd	0.1250679
27	0xbdea9ef8	-0.11456102
28	0x3de72eb6	0.11288206
29	0x3d674476	0.056461774
30	0x3dd6be56	0.104855224
31	0xbd28181e	-0.041038625
32	0x3e3234a2	0.1740289
33	0x3d800a5a	0.062519744
34	0xbd9fc4c1	-0.078012
35	0xbd8265e9	-0.06367094
36	0xbd1c1cf1	-0.03811354
37	0xbdbfc134	-0.093630224
38	0x3e07b94c	0.13254279
39	0xbdcc2a0c	-0.09968957
40	0xbdeb5b66	-0.11492042
41	0x3da84e92	0.08218111
42	0x3e9c4a74	0.30525553
43	0x3db2e436	0.08734934
44	0xbe0dd6d4	-0.13851482
45	0xbdd55644	-0.104168445
46	0x3d7bd920	0.061486363
47	0xbdda2c34	-0.10652962
48	0x3db0a4c3	0.08625176
49	0xbe127726	-0.14303264
50	0x3dbb217e	0.091372475
51	0xbde1baf7	-0.11021989
52	0xbc113829	-0.008863487
53	0xbcc645d9	-0.024203228
54	0x3d820937	0.06349414
55	0xbdd87d3a	-0.1057076
56	0x3dad058e	0.08448325
57	0x3decb5f6	0.11558144
58	0xbe25ab05	-0.1617852
59	0x3dfef4b9	0.12449021
60	0xbe12cf81	-0.14336969
61	0x3d8cad7f	0.06869029
62	0x3e4006ed	0.18752642
63	0x3dcac769	0.09901316
64	0xbdc3bcaf	-0.09557473
65	0x3dd8da7a	0.10588546
66	0x3d19da63	0.037561785
67	0x3dd47f7d	0.10375879
68	0x3d9d0a75	0.0766801
69	0x3daed048	0.0853582
70	0xbd94df93	-0.07269206
71	0x3dde5ffa	0.1085815
72	0xbccb7e5e	-0.02484053
73	0x3de83b34	0.11339417
74	0x3dd5a377	0.10431569
75	0x3d261ab1	0.0405528
76	0xbc89a8f4	-0.016804196
77	0x3dab507e	0.08364962
78	0xbe08c630	-0.13356853
79	0x3e0f5fbf	0.14001368
80	0xbd42e8ef	-0.047585424
81	0xbc9e8801	-0.019351961
82	0x3d78a6c5	0.06070592
83	0x3df3da2c	0.11906847
84	0xbd3c43e0	-0.04596317
85	0xbd6c0ffa	-0.057632424
86	0x3dedef4e	0.11617909
87	0x3e07c04b	0.13256948
88	0x3d9f72a5	0.077855386
89	0x3d606e1d	0.054792512
90	0xbda5dbd3	-0.08098569
91	0x3dee2e72	0.116299525
92	0xbe08a68a	-0.1334478
93	0x3db527ac	0.088454574
94	0x3cd5c982	0.026097063
95	0xbdbc70fa	-0.09201236
96	0xbd68279b	-0.056678396
97	0x3cd3dfa5	0.025863478
98	0xbd87418c	-0.06604299
99	0xbd572254	-0.052522972
100	0x3baa25c2	0.0051924894
101	0xbda5de0d	-0.080989935
102	0xbdc5f561	-0.09665943
103	0xbdb515ca	-0.088420466
104	0x3e021ff8	0.12707508
105	0x3d69c8cc	0.05707626
106	0xbda1f7c1	-0.079085834
107	0x3df8b3c4	0.121436626
108	0xbe0c0d95	-0.13677056
109	0x3dec03b4	0.11524144
110	0x3d94ab44	0.07259229
111	0x3e44052b	0.19142596
112	0xbdd84a72	-0.10561074
113	0xbdaa7560	-0.08323169
114	0xbdeff2d8	-0.11716241
115	0xbdf3ec49	-0.11910302
116	0xbde7b0d2	-0.11313023
117	0x3ae43069	0.0017409447
118	0xbd9c4c1f	-0.076317064
119	0x3e002188	0.12512791
120	0xbcd74cb8	-0.0262817
121	0x3c2f5944	0.010702435
122	0x3d9d4862	0.076798216
123	0xbdcff080	-0.101532936
124	0xbd81d214	-0.06338897
125	0x3d131389	0.035907302
126	0x3e05c1da	0.1306223
127	0xbde7dc97	-0.11321371

conv2.lin.weight f4 [128, 128]
0	0x3e9d6ddc	0.3074788
1	0x3e9a807c	0.3017615
2	0x3e1cc480	0.15309334
3	0xbb611295	-0.003434335
4	0xbdfecfb7	-0.12441962
5	0xbd88e8a9	-0.066850014
6	0x3d1b3e77	0.037901368
7	0xbd6069d6	-0.054788433
8	0x3e61f32c	0.22065419
9	0x3df94a66	0.121723935
10	0xbdd788b5	-0.10524122
11	0xbdc1d2a0	-0.09464002
12	0xbd5ff265	-0.054674525
13	0xbd51eb2d	-0.05124967
14	0x3d4b6b96	0.04966315
15	0x3d944e47	0.07241493
16	0x3d4632bd	0.04838823
17	0xbc82a96a	-0.015949924
18	0xbd24c483	-0.04022647
19	0x3e2bea89	0.16788687
20	0x3ed24405	0.4106752
21	0xbd1d2087	-0.0383611
22	0x3c986d97	0.018606944
23	0x3c0a7689	0.008451113
24	0xbd5372f3	-0.051623296
25	0x3dfa72fc	0.12228963
26	0xbe16b1fd	-0.14716335
27	0x3dd94006	0.106079146
28	0xbe8a0950	-0.2696023
29	0xbc48fea5	-0.012267743
30	0xbe9b9400	-0.30386353
31	0xbd190b01	-0.03736401
32	0xbe73f968	-0.2382561
33	0xbdc73724	-0.09727314
34	0x3d336157	0.043794002
35	0x3cb5e1a4	0.02220232
36	0xbc12764e	-0.008939339
37	0x3dd470fe	0.10373114
38	0xbe66c1cd	-0.22534867
39	0xbdb4f0b0	-0.0883497
40	0xbda25e38	-0.07928127
41	0xbe2031e3	-0.1564403
42	0x3e8529ed	0.2600855
43	0x3cb2703c	0.021782033
44	0xbd062cf7	-0.032757726
45	0xbe2c9c5c	-0.16856521
46	0x3e38b069	0.18036045
47	0xbd50d1d8	-0.050981373
48	0xbe05897a	-0.13040724
49	0xbdba8c92	-0.09108843
50	0x3dd43122	0.10360934
51	0x3d86314c	0.065523714
52	0x3d36eae4	0.044657603
53	0xbd533bb0	-0.051570594
54	0x3e0dcba9	0.13847221
55	0xbdebbea3	-0.115109704
56	0xbd49158f	-0.049092826
57	0xbe105a94	-0.14097053
58	0x3dc7d4af	0.09757363
59	0x3de9e2e2	0.114202276
60	0x3d799bac	0.060939476
61	0xbe0a0fd1	-0.13482596
62	0x3d8379ca	0.06419714
63	0xbea94573	-0.33060798
64	0x3e8b3095	0.27185503
65	0xbce00694	-0.027346887
66	0xbe5fb088	-0.21844685
67	0xbe1997e9	-0.14999355
68	0x3e1a1f69	0.15051045
69	0x3e2c4c99	0.16826095
70	0xbd9fe466	-0.078072354
71	0x3ba2dc62	0.0049701193
72	0xbd620e0c	-0.055189177
73	0xbda50be5	-0.08058909
74	0xbd0c8ca0	-0.034313798
75	0x3d527add	0.051386703
76	0x3e927019	0.2860115
77	0x3eee9897	0.46600792
78	0x3dbdebdb	0.092735015
79	0xbd95ac7f	-0.07308292
80	0x3def352b	0.11680063
81	0x3d0fe049	0.035126004
82	0x3d8cbf98	0.06872481
83	0xbe2c7afe	-0.16843793
84	0x3c570030	0.013122603
85	0xbd958396	-0.07300489
86	0x3d149dc1	0.03628326
87	0xbc12cfa9	-0.008960643
88	0x3e4c1142	0.19928458
89	0xbdb83275	-0.08993999
90	0x3e13a776	0.1441935
91	0xbe24a01d	-0.16076703
92	0x3e3da720	0.18520784
93	0x3e03a430	0.12855601
94	0x3da9e1f3	0.082950495
95	0x3a60d17b	0.0008576137
96	0xbcc17a1e	-0.0236178
97	0xbce44a6f	-0.027867524
98	0xbe20bc6b	-0.15696876
99	0xbe41af58	-0.18914545
100	0xbe5c5a80	-0.21518898
101	0x3e604407	0.2190095
102	0x3d8dc378	0.06922048
103	0x3d9354b2	0.07193889
104	0xbe142959	-0.14468898
105	0xbe20d66e	-0.15706798
106	0x3e833dbb	0.25633034
107	0xbe169583	-0.14705472
108	0xbea0c3da	-0.31399423
109	0xbe7f4487	-0.24928485
110	0xbcebfbc9	-0.028806584
111	0xbdb326ce	-0.08747636
112	0xbd0e2cc6	-0.034710668
113	0x3e6bedaa	0.2303988
114	0x3dad0276	0.08447735
115	0x3dd806f2	0.105482
116	0xbcc6976a	-0.024242122
117	0x3e5eb3db	0.21748297
118	0xbe79a232	-0.24378279
119	0xbe3c9a25	-0.18418176
120	0x3c93d3ff	0.018045424
121	0x3e86fd8a	0.2636531
122	0xbebf65f6	-0.37382478
123	0xbe5bcd38	-0.21465003
124	0x3e4add44	0.19810969
125	0xbdba7693	-0.091046475
126	0x3d09f8af	0.03368443
127	0x3dfd704e	0.12374936
128	0x3e555675	0.20833762
129	0x3e094dc9	0.13408579
130	0x3ddeb329	0.10874016
131	0x3d8597d0	0.065230966
132	0x3ddfb4d3	0.10923161
133	0xbd88196a	-0.06645472
134	0x3c205c80	0.009787679
135	0xbdcadce4	-0.09905413
136	0x3e216750	0.15762067
137	0x3e34e1ce	0.17664263
138	0xbde918cc	-0.11381683
139	0x3e13a29a	0.14417496
140	0xbc434183	-0.011917475
141	0xbd5fed18	-0.05466947
142	0x3e542e70	0.2072084
143	0x3b99458e	0.004677481
144	0x3d95ea26	0.07320051
145	0x3ce998fa	0.028515328
146	0xbe375af5	-0.17905791
147	0xbdfe8ceb	-0.12429222
148	0x3ae954a9	0.001780172
149	0xbd9de7ba	-0.07710214
150	0x3c56dad3	0.013113695
151	0x3da13acf	0.07872545
152	0xbd3f225e	-0.046663634
153	0x3e92b03b	0.28650078
154	0xbda76ab4	-0.08174649
155	0x3e7637bf	0.24044703
156	0xbd3ea590	-0.04654461
157	0x3e9b7683	0.30363855
158	0x3d229add	0.03969847
159	0x3e31eeb9	0.17376222
160	0x3cd15378	0.025552496
161	0x3d01bb66	0.031672858
162	0xbcec6caa	-0.028860409
163	0x3e3fb007	0.18719493
164	0xbdd7cb49	-0.105368204
165	0x3e432573	0.19057254
166	0xbb920f8d	-0.00445742
167	0xbde6cb0c	-0.11269197
168	0x3e648397	0.22315823
169	0xbdf6f48e	-0.12058364
170	0x3e9cbcb7	0.30612728
171	0xbdf74cd9	-0.120752044
172	0x3c5333ea	0.012890795
173	0xbc121eb6	-0.008918455
174	0x3e11f834	0.14254838
175	0xbdb60a8e	-0.08888732
176	0xbda5a729	-0.08088524
177	0xbe2cdce1	-0.16881134
178	0x3e6e1d49	0.23253359
179	0xbdc71610	-0.09721005
180	0x3dc3d4c1	0.09562064
181	0x3e371826	0.17880306
182	0x3dba64b2	0.09101237
183	0x3de739f2	0.11290349
184	0xbdf75999	-0.12077636
185	0x3dfb8cb2	0.12282695
186	0xbe181466	-0.14851531
187	0x3d2355e0	0.03987682
188	0x3ea8eee9	0.32994774
189	0x3d91827e	0.071049675
190	0x3e252e60	0.16130972
191	0x3c8e2dba	0.017355788
192	0xbb8062f6	-0.003918047
193	0xbe129ce0	-0.14317656
194	0xbe12925a	-0.14313641
195	0x3d869265	0.06570891
196	0xbe2f0eff	-0.17095564
197	0x3e9a2b4d	0.3011116
198	0x3dfa2791	0.12214578
199	0x3df61b98	0.12016982
200	0x3e8742e5	0.26418224
201	0xbe0a1a13	-0.13486509
202	0xbcfbe69d	-0.030749613
203	0x3d83cacf	0.06435167
204	0x3e04d105	0.1297036
205	0x3e2bf7d8	0.16793764
206	0xbcabecd5	-0.020986954
207	0xbcfae6c0	-0.030627608
208	0x3d1236ac	0.03569667
209	0x3e032206	0.12805948
210	0xbe27305f	-0.16327046
211	0xbdc21068	-0.094757855
212	0xbd40c360	-0.047061324
213	0x3d8a1130	0.067415595
214	0xbdbaf2ee	-0.091283664
215	0xbe43f1ff	-0.19135283
216	0x3d843695	0.06455723
217	0x3e74db84	0.23911864
218	0xbe22d16b	-0.15900199
219	0xbd98e3fc	-0.074653596
220	0x3ec2d027	0.38049433
221	0x3d571eec	0.052519724
222	0xbdbe36e2	-0.09287812
223	0x3d42bb14	0.047541693
224	0x3e90c8a6	0.28278083
225	0x3d26cdee	0.040723734
226	0xbd860333	-0.06543579
227	0x3e0682aa	0.13135782
228	0x3e32367a	0.17403594
229	0x3e5740eb	0.21020858
230	0x3e4bc4bd	0.19899268
231	0x3e0e72d4	0.13910991
232	0x3d743504	0.059620872
233	0xbe0b25dc	-0.13588661
234	0x3dd9cde4	0.10634974
235	0xbd846a0d	-0.0646554
236	0x3db3f084	0.08786109
237	0xbdd0d4f3	-0.10196867
238	0xbd999ea3	-0.07500961
239	0xbe19258d	-0.1495573
240	0xbe01483d	-0.12625213
241	0xbd379a91	-0.04482514
242	0xbd529308	-0.05140975
243	0x3e15bb16	0.14622149
244	0x3dbd93f4	0.092567354
245	0x3dce54f1	0.10074795
246	0xbd07e56f	-0.03317779
247	0x3d2bee45	0.04197528
248	0x3e2d8888	0.16946614
249	0x3e2248a1	0.15848018
250	0xbdb900bd	-0.09033344
251	0xbdbef25c	-0.0932357
252	0x3dc7dd85	0.09759048
253	0xbd4a6d93	-0.049420904
254	0x3d0a3678	0.03374335
255	0x3bdf30be	0.0068112304
