pretrained_gnns/Minesweeper_SimGRACE_GCN_1.pth (torch, 72552 bytes, 4 tensors)

conv1.bias f4 [128]
00000000: 4316 253d 3df1 3b3d 6d05 17bc ab2a 1cbc
00000010: cfe7 75bc 9e84 223d 0173 02bc 5a85 363c
00000020: e00e e139 91b7 973d 494e 0fbd c985 4c3d
00000030: 86d3 be3b d67e 22bd e354 573d 36ca 2d3d
00000040: 624b b6bc 9cd9 ce3c b30f b4bc 3e0e a4bb
00000050: 40ad 8a3d f39f 86bd a7cb 8a3c 1d90 843c
00000060: 50d6 aa3d d55b f8bc 7401 5abb e84d 5e3c
00000070: e7d5 583d c6a2 543c 7bbe 5bbd cabe 59bb
00000080: 83d2 91bd 88cb 04bd 976c 983c d0e5 10bd
00000090: 6f73 053d 8b30 483d b8fd 09bd 362d 763d
000000a0: eb06 18bc fe7f 1dbd a76e 40bd caab 3a3c
000000b0: 34a7 1c3c 6ea4 83bc 4d04 763a ebb1 2c3d
000000c0: d05f fbbc 9333 413d 56a9 0abd 58ec fe3c
000000d0: ce38 b5bb 7e16 08bd a627 803d f22f d6bb
000000e0: 9773 80bc 0943 29bd 2fa0 0ebd e0ed b1bc
000000f0: 001b c43c c60a 35bd 5b77 383d fece 903c
00000100: 32b7 1a3d e8a2 9d3c 93f5 7fbc 4696 5cbc
00000110: 00e8 b03b ab2a 1abd c481 203c 4051 a8bc
00000120: 3265 67bd 2415 8d3c 746c f03c 0333 e53c
00000130: 9240 8dbc e9e1 5d3c 0284 7abc 7142 f239
00000140: 1c60 d5bb cc4d 15bd 195d 283c e1d5 753d
00000150: b9c1 163d 241f 21bd df6b 663d 01ab 81bc
00000160: 141c 033c 4ff2 d23c 88f4 3abc 8123 1e3d
00000170: bd2d 5d3b f580 db3c 6e62 ac3c f7d2 ef3a
00000180: 1eb3 89bc 6203 acbd 80f7 103b 2646 63bd
00000190: 06e4 27bd dbcd a3bd 4b4b 26bd ae0a c7bc
000001a0: f8c5 513c d451 8d3d bc2e 1f3d 7f8a 833b
000001b0: e572 54bd b248 89ba f6d2 c43c 0ab4 30bb
000001c0: e110 0c3c aee9 713d 8a80 ad3d dc5b cf3c
000001d0: dfc6 d3bb 6e03 183b 0c03 19bd cbb1 6e3d
000001e0: 2401 4f3c ab9a 5dbd 6705 ac3c eb97 23bc
000001f0: 75c4 4a3d ebcb e0bc c9ac 08bd e0a6 143d
0.040304434 0.04588436 -0.009217602 -0.009531657 -0.015008881 0.039677255 -0.007961989 0.011140192
0.00042926427 0.074080594 -0.034986768 0.049932275 0.0058235554 -0.03967174 0.05257119 0.04242917
-0.022252742 0.025250249 -0.021980142 -0.0050065806 0.06771326 -0.06573477 0.016942812 0.016182
0.08341658 -0.030317226 -0.0033265026 0.013568379 0.05293837 0.012978261 -0.053648453 -0.0033225291
-0.0712023 -0.032420665 0.018606467 -0.035375416 0.03258079 0.04887442 -0.03368923 0.06010171
-0.009278993 -0.03845214 -0.046980526 0.011393497 0.009561349 -0.016069617 0.0009384796 0.042161863
-0.030685335 0.047168326 -0.033852898 0.031118557 -0.0055304533 -0.033224575 0.06257562 -0.0065364772
-0.015680118 -0.041323695 -0.03482073 -0.021719873 0.023938656 -0.044199727 0.0450357 0.017676827
0.037772365 0.019242719 -0.015622514 -0.013463562 0.0053987503 -0.037638348 0.009796564 -0.020546556
-0.05649299 0.017221995 0.02934859 0.027978426 -0.017242704 0.013542631 -0.015290262 0.0004620734
-0.0065117013 -0.036451146 0.010276102 0.060018424 0.036805842 -0.03933634 0.056255218 -0.015828611
0.0080023 0.025750307 -0.01141084 0.038608078 0.0033749186 0.02679489 0.021043029 0.0018297125
-0.016809043 -0.08399083 0.0022120178 -0.05548682 -0.040988944 -0.07998248 -0.04059915 -0.024297085
0.012803547 0.06900373 0.03886293 0.0040143128 -0.051867384 -0.0010473935 0.024026375 -0.002696278
0.008548946 0.059060745 0.084717825 0.025312357 -0.0064629163 0.0023195404 -0.03735642 0.058275025
0.012634549 -0.05410258 0.02099867 -0.009984951 0.049503762 -0.027440986 -0.033367906 0.036291957

conv1.lin.weight f4 [128, 7]
00000000: c6bc 3bbd 87d5 a13e a1fd 85bd a2d6 06bd
00000010: 4853 b0bd 623b 173e 6f51 f6bd aa5e 07be
00000020: b225 7a3e 3c16 0cbe 8b86 d93c b1ef 123e
00000030: 2e3a 6c3e 8ddd 68bc 9053 e0bd 3f28 ed3d
00000040: f769 1d3e 9926 543e c1db 223d 52dc d83d
00000050: 268f 82bd f757 1cbc 6463 f2bd 1ebd 08be
00000060: 45ab 683d 5111 803e 074b 443d 68fe 2f3f
00000070: 316c cf3c 96f6 e1be 3c65 b33c a2eb 503e
00000080: a3b5 9d3c 0486 f9bc 50f2 6a3e 2fd6 b0bd
00000090: 66dc 12bd c914 733e ef21 55be 7317 ad3d
000000a0: 7df6 083d 0c97 b4be 865b 1dbd 7d79 4d3d
000000b0: cb8e 2ebe 5bcd 163e 2902 943e d154 8a3e
000000c0: d026 463d 4b1b 133d 4c1c 85be f590 bf3c
000000d0: 2197 1ebe dd4b 093e 5a59 4abd e217 b1bd
000000e0: eb03 8dbc 11d8 6f3e 1d04 42be bd5d 04bd
000000f0: 1df5 aa3e fa9d 563e 7846 a4bd 84a5 793b
00000100: 8c01 353c cc23 2bbe 1417 28be c626 4bbe
00000110: 5e89 f03e 94b3 35be 71ea 9c3d 7345 73be
00000120: 3867 463e 4be7 1cbe e43e 913d d37d 40be
00000130: b80c 1abc 7a70 763c 7a2c 5ebe 2609 fdbd
00000140: 5d8e 443d 3e3b 40be 665c d13e b738 9cbd
00000150: 8160 43bd dc14 a43d 87ad 9cbc 8e82 8a3e
00000160: efa5 27be 1b05 733d b89c 0e3e 58ce 0c3e
00000170: f1ae 87be 71a2 5bbe 2ec0 b33c 49f2 873e
00000180: 34de 173d a167 ffbd d146 a2bd af5a b53e
00000190: e3f8 bdbc 84a8 95bd 8732 b8bd 661c 953e
000001a0: 2b12 8ebe f9ae 9abd 6857 0bbe de96 763c
000001b0: d53e d7bd ab9c c6bd acec 163f 59f3 55bf
000001c0: 04fc 93bd ee30 83be 7d5b 4c3e 2ef3 1d3e
000001d0: be08 843e fef4 c5bc 44f4 ebbd 1a49 f73a
000001e0: bff2 393e 5e72 a7be 1a36 ae3d 989c 18be
000001f0: 70ea ef3d 5d4f c33e 12b7 a5bd 10c0 08be
00000200: 8276 503c d332 1bbc 96b5 533c 78c3 e6bd
00000210: 3e73 53be dd45 10bd 9287 05be d1c0 a7bd
00000220: 9c58 563e cd27 f53d cdf0 c03d 188c 61bd
00000230: 0ffa dabd 0a23 a93b 6e8d 8ebd 4b63 8e3d
00000240: 4155 74bd 4aa7 0d3f 10e9 17bf d28b 003e
00000250: 872b c13d b57c 643d 2d07 313e 4ca9 32be
00000260: 113a 8abe c2c9 9e3e cb63 33bd adce 8fbe
00000270: b832 8f3e 0b23 84bd 39af 963d 8693 47be
00000280: d673 ed3d db0d f4bd 300c a0be 5d62 813e
00000290: cced a83d 8cf8 423d d8d1 1fbe 748a 243d
000002a0: 7255 8dbd 2795 05be dac4 36bd 8828 0cbc
000002b0: 2a47 e1be a84a af3e 4eb2 9c3e d6c8 313e
000002c0: 5022 21be 5b5a 23be 5149 59be 5c25 25be
000002d0: 4892 06be 5eb0 143f 3ae1 14bd 6b54 503c
000002e0: f976 953e 217e a3bd fc87 ee3c 7c16 3bbd
000002f0: e6a5 a33d c747 353d ed55 2abe 53b0 2fbe
00000300: 1898 0dbe 2942 a43e f18a 603d f075 653a
00000310: f16f adbd 68a3 2abe 92b6 7d3e cfbd 8c3c
00000320: 8cac f8be 99ad 1e3d a004 dbbd a068 a23c
00000330: 2302 3a3e de4a 993d 3cb0 b2be 2db9 bb3c
00000340: 4a15 ce3d 3038 d6bc fcf8 7d3c 7f9e 733e
00000350: 05cd 063e 39ef f23d f214 bdbe 5b41 2dbe
00000360: 62aa 1cbe b18a 7d3c 3095 6d3c 4966 6d3e
00000370: c875 36be e79c c6be d987 0abe 3128 4c3e
00000380: 279e b63d cc1b 8c3e 975a 153c bb47 843d
00000390: fcac 98be 03cc 6fbe ac4a 2e3e e81d 81bc
000003a0: 1e6f a5be 7e74 d53d 6310 c93d 32a3 5b3e
000003b0: f05a 63be 126a ef3e 8864 e9bd f008 423d
000003c0: 4a62 713e 98bb 073e f30f 8fbe b817 a03e
000003d0: 50ff edbe 6a51 dc3d d0b7 bf3e 5449 f2bd
000003e0: ae95 db3c 9ea2 98bd 1e2c 19be 9073 75bd
000003f0: b62b 19bd 02f0 a5be a643 8cbe b9ed 273e
-0.045834325 0.3160822 -0.065425165 -0.032919534 -0.08609635 0.14768746 -0.12027251 -0.13219705
0.24428442 -0.13680357 0.026553413 0.14349248 0.23069069 -0.014212978 -0.10953438 0.11579942
0.15372454 0.20717849 0.039760355 0.10588898 -0.0637496 -0.009542457 -0.118353635 -0.13353392
0.05680396 0.2501321 0.047923114 0.6874757 0.025320144 -0.44133443 0.021898858 0.20402387
0.01925165 -0.030459411 0.22943997 -0.08634602 -0.03585472 0.23738398 -0.20813726 0.08451738
0.033438195 -0.3527149 -0.03841736 0.05016469 -0.17046659 0.14726774 0.28907898 0.27017835
0.04837686 0.0359147 -0.2599815 0.02338455 -0.15487339 0.13407846 -0.04940162 -0.086471334
-0.017213782 0.23422267 -0.18946882 -0.03231596 0.33390132 0.20958701 -0.08021253 0.003809304
0.011047732 -0.16712874 -0.16415054 -0.1983901 0.46979803 -0.17744285 0.07661904 -0.23756962
0.19375312 -0.15322606 0.070920736 -0.18797998 -0.009402446 0.015041465 -0.21696654 -0.123552606
0.04798733 -0.18772599 0.40890807 -0.07628005 -0.047699455 0.08011791 -0.019125713 0.2705273
-0.16371892 0.05933104 0.13926971 0.13750589 -0.26500657 -0.21448685 0.021942224 0.26552036
0.037077144 -0.124709375 -0.079236634 0.3542075 -0.023189967 -0.073075324 -0.08994012 0.2912323
-0.27748236 -0.07552905 -0.13607562 0.015050618 -0.10510031 -0.09697851 0.5895488 -0.83574444
-0.072258025 -0.25623268 0.19956775 0.15424797 0.2578792 -0.024164673 -0.11521199 0.001886639
0.18159007 -0.32704443 0.08506413 -0.14903486 0.11714637 0.38146487 -0.080915585 -0.13354516
0.012723567 -0.009472567 0.012921711 -0.112677515 -0.2064943 -0.035222877 -0.13039997 -0.08191074
0.2093224 0.11970482 0.09420929 -0.055065244 -0.10692226 0.0051616477 -0.06960569 0.069525324
-0.059651617 0.5533339 -0.5934 0.12553337 0.0943213 0.055782992 0.17287894 -0.17447394
-0.26997426 0.31013304 -0.043796342 -0.2808737 0.27968383 -0.064519964 0.0735764 -0.1948987
0.115943596 -0.11916705 -0.31259298 0.25270358 0.08248481 0.047600314 -0.15607393 0.0401711
-0.06901063 -0.13045178 -0.044621326 -0.008554585 -0.43999606 0.34236646 0.30604786 0.17361769
-0.15735745 -0.15952437 -0.21219374 -0.16127533 -0.1314174 0.58081615 -0.036347605 0.012715439
0.2919233 -0.079830416 0.029117577 -0.04567574 0.07990627 0.044257905 -0.1663434 -0.17157106
-0.1382755 0.32081726 0.054820005 0.0008753231 -0.08468617 -0.16663897 0.24776676 0.017180352
-0.48569143 0.038739774 -0.106942415 0.01982528 0.18164878 0.07484983 -0.3490008 0.022915447
0.10062654 -0.02614984 0.015501257 0.2379093 0.13164146 0.11862034 -0.36930043 -0.16919462
-0.15299371 0.015474961 0.014500901 0.2318355 -0.17818367 -0.38791582 -0.13528384 0.19937207
0.08916884 0.27364957 0.009115837 0.06458994 -0.29819477 -0.23417668 0.17020673 -0.01576133
-0.32311338 0.1042261 0.09817579 0.21448973 -0.22202659 0.46760613 -0.11396128 0.047371805
0.2357265 0.13255155 -0.27941856 0.31268096 -0.4648385 0.10757716 0.37444925 -0.118303925
0.026804771 -0.07452892 -0.14958236 -0.059924662 -0.0373952 -0.32409674 -0.27395362 0.16399278

conv2.bias f4 [128]
00000000: 197e 073d 1ffa da3b 0f01 aabb f487 46bc
00000010: 3847 d8bc d175 b1bb 7b6f a23c 31c0 043d
00000020: 62f3 2e3d 7418 0fbc 752e 4a3c be63 04bc
00000030: e433 84bc 4437 e3ba 4e2c 563c 2d2f 413c
00000040: caee eb3a 765a 24bc 4f6f bfbc bee5 fd3b
00000050: 4b5f 4e3d e606 033d c52a 88bc e61a 8c3c
00000060: 1956 c9bc a166 143c a53c 94bb 272c 80bc
00000070: a4e8 ffbb 5d54 8e3c c19f ee3c 5b18 e8bc
00000080: 699c b93c 1e63 7dbc 9eae 0e3d c851 153c
00000090: 0f76 9ebc 8b3b bebc dabf e53c 7d68 26bc
000000a0: 4b63 713c 380d c93b c5e8 9e3c 95ae 833b
000000b0: 528b a9bc bdc3 11bd 7405 cfbb 666b 8d3b
000000c0: 10cd 38bc c7d6 25bd a94f 373c 4973 1b3b
000000d0: 2f14 39bb 90bd 17bc 07e8 e63b b4a4 41bd
000000e0: 8368 a4bb a540 773c 1152 b4bb bf92 283d
000000f0: 4fe7 07bd fec5 10bb 2eee aebb 0b79 0d3c
00000100: cf64 05bd c184 e9bc 42ef 403c 95a8 d33c
00000110: cf27 15bc 2ec5 133d ae44 c7bc 40b1 c43c
00000120: 956d ce3c 11a9 3fbb 53d2 633c 80db 4c3c
00000130: 2013 1fbc fedf 543c 5e24 5e3c 791f d8bb
00000140: ae45 dfbc c2e2 4c3c a0eb 87bc 3ebb fa3c
00000150: 6ec9 4fbb 6bec 1dbd 34d5 573d 4d52 b7bb
00000160: 2047 62ba fc62 bdbc 7191 28bc 79db 833b
00000170: 7ecc eabc 46d8 40bc d6ac a93c c844 70bb
00000180: 71f4 ccbc 116a 463c 7184 23bb a5c7 f43b
00000190: 6fdf 54bb 4216 8cbb 405b e23a 12a9 f8bb
000001a0: e017 4c3c c7a4 dbbb 8fca 5b3c b513 843c
000001b0: 3008 19bc 4e90 09bd 92ed 07bd 8649 4b3c
000001c0: df7c cc3c ccad ed3c dbca 87bb f382 47bc
000001d0: e603 473a c2e5 b6bb d463 d4bc 6387 a03c
000001e0: a83c 2fbc 72ee 3dbd a9f7 abbc 6302 30bb
000001f0: 9b45 61bc 7e29 123d 5af0 243d e996 7fbc
0.03307924 0.006682649 -0.0051881145 -0.012117375 -0.026401147 -0.005415656 0.019828549 0.03240985
0.042712577 -0.008733857 0.012340178 -0.008080421 -0.016138025 -0.0017335196 0.0130720865 0.011791033
0.0018000242 -0.010031333 -0.023368506 0.0077483347 0.050383847 0.031989 -0.016621957 0.01710267
-0.024577187 0.009057672 -0.004523831 -0.015646053 -0.0078097153 0.017374212 0.029128911 -0.028331926
0.02265759 -0.015465526 0.034834497 0.009113736 -0.019343404 -0.023221752 0.028045584 -0.010156748
0.014733146 0.006135609 0.019398103 0.0040186145 -0.020696316 -0.03558706 -0.0063177887 0.0043157814
-0.011279359 -0.04048803 0.011188426 0.0023719838 -0.002824079 -0.009261504 0.007046703 -0.047276214
-0.0050173416 0.015091096 -0.005502947 0.041155573 -0.033179577 -0.0022090669 -0.005338452 0.008634816
-0.03256684 -0.028505685 0.0117757935 0.025837222 -0.009103729 0.036076717 -0.024324741 0.0240103
0.025198737 -0.0029245059 0.013905126 0.012503505 -0.00970915 0.012992857 0.013558475 -0.0065955487
-0.027254906 0.012505235 -0.016591847 0.030606862 -0.0031705755 -0.038555544 0.05269356 -0.005594528
-0.0008631814 -0.023118488 -0.010288582 0.004023966 -0.028661963 -0.011770314 0.020712297 -0.003666209
-0.025018902 0.012110249 -0.0024950767 0.0074700885 -0.003248181 -0.0042751143 0.0017269626 -0.007588514
0.012456864 -0.0067029926 0.013414993 0.016122678 -0.009340331 -0.033584885 -0.03318555 0.012407666
0.024961887 0.029013537 -0.0041440553 -0.012177217 0.00075918285 -0.0055815885 -0.025926508 0.019595807
-0.010695614 -0.046369977 -0.020992117 -0.0026856891 -0.013749505 0.0356841 0.04026828 -0.015599945

conv2.lin.weight f4 [128, 128]
00000000: d178 023e 7809 443d a3ce 0c3d 891c 0b3d
00000010: 25b0 1bbc 4e18 82bd 50d1 413d e144 5abc
00000020: 490f 863d f8fb 5abd ade7 a13d c637 ecbc
00000030: 53e0 4cbd c21e a1bd d1ef 12be 9646 aa3d
00000040: f696 123e 38a3 c4bd ada5 cfbc 36f4 393e
00000050: 67a8 013e 55b2 823d b4b9 3f3d f4e5 723d
00000060: 9b30 73be 5332 743c 82cc fabd 5d1e 4b3d
00000070: 8e17 86be bc5c d1bd 173c 34be 5d64 94bc
00000080: 869d c9bd 9e28 063d 2998 0a3d 90d0 af3c
00000090: a1c1 f7bd 73bc 97bd b061 bcbd 95bf 933c
000000a0: 6106 66be 97fa 9dbd 78fc f43d 38b8 0d3e
000000b0: 68be 82bd dce8 b0bd 4769 d53d ddc0 d438
000000c0: e97e 803c 7814 1a3c 3287 0a3d 799a 4fbd
000000d0: a8b3 643d 60fd 23bd 751e b03e c36e 70bd
000000e0: 5425 bfbd 9c63 713b 3e26 a33b 4a1b 623d
000000f0: 6f59 8abd 2a25 43bd 58a1 ddbc 1279 24bd
00000100: 0ac9 623e cea0 fa3d 82cf e2bd ceec 13be
00000110: a9e6 f93d e8f5 7b3d adf6 1abe 3653 0f3d
00000120: 1501 09be f4a5 f13d 4bf0 353e 60a1 0b3e
00000130: 8e01 9a3d ad07 d33d bb2e 913d cfdc f3bd
00000140: aa38 193e a00e 2bbd 4c2b 013e 7e3f 623e
00000150: a022 243d 85e1 093e fc36 adbd 7a1a 8a3c
00000160: 3356 be3c c9aa 2cbe 9e02 853d 3c92 1ebd
00000170: f3c8 8c3d 50d0 d6bc ce6f 523e 1684 c3bd
00000180: 4e02 31bd d8b1 633c 68a0 a7bd 9cdc bcbd
00000190: 8e2f 04be 24e8 593e 9336 833d 6311 29bd
000001a0: f5e1 4dbe 68a2 e63c bd51 f43d ac39 6bbd
000001b0: a40e f4bd f76b e5bd 8428 303d 724b 923d
000001c0: 84d6 d1bc 8328 333e edea e83d 92f1 debd
000001d0: 334a a43d 43f5 283e f006 05be 0595 b8bd
000001e0: d7cb ae3d 5b4c 423e 7870 33be fea1 47bd
000001f0: 908c 743e 3ef4 18bd be45 9c3d 0350 303c
00000200: 3512 063e ebac a73b bca5 e23d 6c12 10bd
00000210: dc3a 923d f157 703c 64d7 16bd b27b 10bd
00000220: 3792 b73d ffd6 903e b5da fdbd f180 0f3e
00000230: 04fd 90bd a5ae cfbd 1c39 293e 7b0c 473e
00000240: 8666 0a3e 144a 93bd e814 1ebe fc02 febd
00000250: 8d2b e4bd e4f7 09be 871f 083d 70e3 323d
00000260: 2854 06be 7747 0b3e e6e3 ebbc a028 583e
00000270: 725f 18be 7e2b 1b3e f66d 403c d867 de3d
00000280: 5534 a3bd a022 41bc b3a4 7fbd ea6d 833c
00000290: 44ae 9cbe 1e6c 963d 2c25 84bd 063a 26be
000002a0: 3994 1abd 4be6 f7bd 2cd9 383d a6a9 f93c
000002b0: cf1e 69be 92dc 02bd 264c 9bbc 9760 153d
000002c0: 7ef0 12be 8f82 7fbe 9786 023e 609f 92bd
000002d0: 3fb4 263d 2230 cb3d 94be 843e 9a9b 333e
000002e0: dc9d b5bc 918c 083d 5491 1abe 92c5 8dbd
000002f0: 5ce3 e23d 6877 21bd dd82 bb3d 5259 b93d
00000300: 0adb 533e 2298 81be 7f69 57be 1930 083c
00000310: 397e 35be 2f0f e63d a051 ed3c a880 273c
00000320: f5f7 c83d ffb6 b3bd da59 2bbc 4607 433e
00000330: 398d f5bb bbab 2bbe 1baf 45be bce6 83bd
00000340: 12e1 21bd fa2e 8dbd dfd7 d6bd a119 203e
00000350: 7e5b 8f3d 0f1a 1e3d 6727 15be 189d 61be
00000360: dfeb 0f3e 7e74 063e 98ad 1cbe 7502 e23d
00000370: 970c e83d 462f 963d 6586 98bd 3c84 87bd
00000380: a599 373e 6807 90bc 7fba 17be 2907 433d
00000390: 074a 0b3e 401d 273e 44d8 e33d ab1a 9d3c
000003a0: 4d0d 383d 9109 3d3d 8b6c 133e 1397 ecbd
000003b0: 276c 8c3d 778d 22be e641 f6bd 60ec f4bd
000003c0: 57ec 23be 755a 513c 0065 073e 4f2c 28bc
000003d0: 9706 213e 9ead 703e a4f7 e0bd e417 dd3d
000003e0: 9f11 6c3d aa86 363e 8e65 1abe 3141 2bbe
000003f0: 9987 2e3e d63c d6bd c7f1 e6bd dc58 3bbe
0.127414 0.047860593 0.03437675 0.03396276 -0.009502445 -0.06352292 0.047318757 -0.013322086
0.06545884 -0.053462952 0.07905517 -0.028835189 -0.05001862 -0.07867195 -0.14349295 0.083142444
0.143154 -0.09601444 -0.025347555 0.18159565 0.12661897 0.063816704 0.04680796 0.05930133
-0.2374901 0.014904576 -0.12246038 0.049589504 -0.26189846 -0.10222766 -0.17601047 -0.018114263
-0.09844498 0.03275358 0.033836517 0.021461755 -0.12097479 -0.07408991 -0.0919832 0.01803569
-0.22463371 -0.07713812 0.11962217 0.13839805 -0.06383973 -0.086381644 0.10420471 0.00010144871
0.015685515 0.009404294 0.03382034 -0.050684426 0.055835396 -0.04003656 0.34398237 -0.05869938
-0.09333292 0.0036833053 0.004978924 0.055201806 -0.06755339 -0.047642864 -0.027054474 -0.040154524
0.22147003 0.12237702 -0.11074735 -0.14445803 0.12202198 0.06151381 -0.15133162 0.034991466
-0.13379319 0.11799231 0.17767446 0.13635778 0.07519828 0.103041984 0.07088991 -0.1190735
0.14963022 -0.041761994 0.12614173 0.22094533 0.040072083 0.13464935 -0.08457753 0.016858328
0.023234462 -0.16862024 0.0649464 -0.03871368 0.068742655 -0.026222378 0.20550463 -0.09546678
-0.04321509 0.013897382 -0.08184892 -0.092217654 -0.12908766 0.21279961 0.064068936 -0.041276347
-0.20105727 0.028153613 0.11929653 -0.057428047 -0.11916855 -0.11202233 0.04300739 0.07143296
-0.025614984 0.17495923 0.113729335 -0.1088592 0.08021965 0.1649981 -0.12990928 -0.09012798
0.08534973 0.1897444 -0.17523372 -0.048738472 0.23881745 -0.037342303 0.0763049 0.010761264
0.13092883 0.005117049 0.110667676 -0.03517382 0.07140133 0.014669404 -0.036826506 -0.035274215
0.08963435 0.2828903 -0.12395231 0.14014031 -0.07079509 -0.10140733 0.16525692 0.19438355
0.13515672 -0.07191864 -0.15437663 -0.12402913 -0.11141119 -0.13473469 0.03323319 0.043673933
-0.1311804 0.1360148 -0.028795194 0.21109247 -0.1488016 0.1515331 0.011744967 0.108596504
-0.07968966 -0.01178804 -0.06241293 0.016043622 -0.30601704 0.073448405 -0.064524025 -0.16233072
-0.037739012 -0.12104472 0.045128986 0.030476402 -0.22765659 -0.031948633 -0.018957209 0.03646907
-0.14349553 -0.24952148 0.12746654 -0.071593046 0.04069924 0.0992129 0.2592665 0.17539826
-0.02217 0.03333718 -0.15094501 -0.06922449 0.110785216 -0.039420515 0.091558196 0.090502396
0.20689026 -0.2531138 -0.21036337 0.008312249 -0.17723931 0.11233365 0.028969586 0.010223545
0.09812919 -0.08775138 -0.010458434 0.19045743 -0.0074936417 -0.16764729 -0.19305079 -0.064404935
-0.039521284 -0.06893726 -0.10490393 0.15634777 0.069998726 0.03859907 -0.14565812 -0.22032583
0.14054821 0.13130376 -0.15300596 0.11035625 0.11330526 0.073332354 -0.07447509 -0.066170186
0.17929704 -0.017581657 -0.14817236 0.04761425 0.13602458 0.16319752 0.11125234 0.019177755
0.04493456 0.0461517 0.14396875 -0.115522526 0.06856566 -0.15874277 -0.12024288 -0.119591475
-0.16008125 0.012777914 0.13222122 -0.01026447 0.1572517 0.2350373 -0.10984734 0.107955724
0.057633992 0.17824808 -0.15077803 -0.16724087 0.17043914 -0.10460822 -0.11276584 -0.18295616
