pretrained_gnns/Minesweeper_GraphCL_GCN_1.pth (torch, 72608 bytes, 4 tensors)

conv1.bias f4 [128]
000000 87 6e c4 3c 03 b6 aa 3c 3e 8c 6a bc 3c 63 bb ba
       0.023978485 0.020838743 -0.014315663 -0.0014296542
000010 e0 e1 19 3b 66 63 3b 3c c6 55 f5 3b bb 23 a1 3c
       0.002348058 0.011437273 0.0074870316 0.019670358
000020 e3 ad 74 3c fb a7 b1 3c 97 65 84 bb 88 ab 9e 3c
       0.014934036 0.021686545 -0.0040404308 0.019368902
000030 49 e7 a7 3c 89 7f f3 bb 46 17 1c 3c fd 23 f1 3c
       0.020496028 -0.007430975 0.009527033 0.029436106
000040 24 7b ad 3b 4f eb fe bb 6e 94 8d bc 44 a7 f7 3b
       0.0052942205 -0.007779516 -0.01728269 0.0075577814
000050 3a 1c d2 3c c0 f0 cf bc f2 3c 11 3c b7 67 ed 3b
       0.025648225 -0.025383353 0.008864628 0.00724503
000060 a0 12 64 3c 30 b7 d2 bb d2 53 41 bc 15 45 7d 3c
       0.013920456 -0.006430529 -0.0117997695 0.015458365
000070 9d f1 3e 3c ec 09 c4 3b 4f e9 f7 bb f7 86 28 3c
       0.011654285 0.005982628 -0.0075656543 0.010286084
000080 2d f0 23 bc 8a 38 7b bb a8 d3 6a bc 5e c8 d4 bc
       -0.010005993 -0.003833326 -0.014332689 -0.025974449
000090 d1 ac 23 bc 70 02 7e 3c 57 8d 61 bc 9b af bb bb
       -0.009989933 0.015503511 -0.013766608 -0.005727721
0000a0 9d 9c 0b bb df 71 35 bc 51 19 b0 bc fa 77 ad 3b
       -0.0021303066 -0.011074512 -0.021496447 0.0052938433
0000b0 2a 18 b8 bb ca ed 1b bb 27 11 b2 3a c8 6e ea 3c
       -0.005618115 -0.0023792856 0.0013585434 0.028617278
0000c0 d7 9e 4f bc 92 2c 8b bb 26 9c 4f bc 93 ba 5e 3c
       -0.012672148 -0.0042472566 -0.012671506 0.013594287
0000d0 c1 80 1f 3b a0 7f 3f bc 38 2e 70 3c fe 5b 01 bb
       0.0024338218 -0.011688143 0.014659457 -0.001973867
0000e0 5a 85 d3 bb 2a 45 8d bc 91 4b e0 3a 3d 42 88 bc
       -0.0064551057 -0.017244894 0.0017112364 -0.016633147
0000f0 bb ed 4a 3c 20 ce d5 bb 71 31 65 bb 6c b8 c3 3c
       0.012385781 -0.006524816 -0.0034972096 0.02389165
000100 a5 0f e7 3c 64 39 31 3a 6f ba 93 3a a6 d3 17 3b
       0.028205702 0.0006760566 0.0011270772 0.0023166924
000110 1f 06 3d b9 45 80 ae bc d4 22 5b 3c f4 ff 16 bc
       -0.00018026725 -0.021301398 0.013375003 -0.009216297
000120 e9 ef 4f bb b4 5b d3 3b f1 fe 4a 39 26 88 49 ba
       -0.003172869 0.006450141 0.00019359194 -0.0007687829
000130 15 71 22 39 a8 d9 f4 3c 6c 98 7d bc 39 c9 64 3b
       0.0001549165 0.029888943 -0.015478235 0.0034909977
000140 8a 15 3a 3b 4d f6 b7 ba f9 6b e5 3a ed 78 a5 3c
       0.0028394186 -0.0014035195 0.0017503492 0.020199263
000150 29 80 29 3c b2 67 38 bc bc 18 9c 3b d8 b4 f9 bb
       0.010345497 -0.011255192 0.0047636908 -0.007620435
000160 c4 df 95 3c 92 56 84 3b 46 d3 73 3c 1d ad d9 3c
       0.018295176 0.0040386403 0.0148819145 0.026571805
000170 b4 b7 88 3b b8 fa 18 3c 0e 15 61 3b 52 79 99 39
       0.0041722897 0.00933712 0.0034344825 0.00029272825
000180 37 45 13 bc 21 b0 e5 bc d8 25 15 3b 41 3b 2a bc
       -0.00898867 -0.028038086 0.0022758152 -0.010390104
000190 92 58 70 bc d6 b1 48 bc 30 fd 3c bc 5f 8b 26 bc
       -0.014669554 -0.012249431 -0.011534974 -0.010165065
0001a0 ed 5b 72 bc 1d 58 38 3d 27 77 88 3b 39 94 86 3c
       -0.014792425 0.045005906 0.0041645947 0.0164281
0001b0 dc 1b 6e bc f5 3e 89 3b 4a a6 f1 3b f5 92 56 3b
       -0.014533009 0.0041884133 0.0073745595 0.0032741402
0001c0 00 6d 41 3c 40 d3 58 3b 53 48 13 3c 99 3a f5 3c
       0.011805773 0.00330849 0.008989411 0.029935168
0001d0 6d db 10 3b bc 38 6b 3c 0c 98 97 bc 42 25 80 bc
       0.0022103444 0.014356788 -0.018505119 -0.015642766
0001e0 31 8e bc 3c ee 54 b2 bc a2 c2 fa ba e4 3d a7 bb
       0.02301702 -0.021769013 -0.0019131491 -0.0051038135
0001f0 48 64 0b 3d 01 9f 08 bc b9 27 89 bb 9c 95 26 bc
       0.034031183 -0.008338691 -0.0041856435 -0.010167506

conv1.lin.weight f4 [128, 7]
000000 d6 fd b1 bd 3d ae 45 3e 62 78 e2 bc be dc 05 bc
       -0.086909935 0.19304748 -0.027645294 -0.008170305
000010 52 ad 49 be c0 ff 76 3c e8 d5 7d bd 7b a3 e4 bd
       -0.19695023 0.015075624 -0.061971575 -0.11163994
000020 c6 a0 42 3e e7 01 1f be b6 1d 1f bc 00 e6 b6 3c
       0.19006643 -0.1552807 -0.0097116735 0.02232647
000030 1b 22 0c be 40 e8 4d 3e d9 67 6e bd 70 15 9f 3d
       -0.13684885 0.20108128 -0.058204506 0.07767761
000040 f1 31 cd 3d fc 90 51 3e 48 cb 40 3d cf c2 f4 3d
       0.10019291 0.20465463 0.047068864 0.11951219
000050 5b 1a 26 3e 17 30 34 3d da 6d 89 bd 53 4d 27 bd
       0.16220991 0.043991175 -0.06710406 -0.040845226
000060 99 e3 2c 3d 4e 99 d0 3d d8 aa 2f be 0e 9a 3e 3e
       0.04220924 0.101854905 -0.17155015 0.18613455
000070 0e 9b 2e 3d 93 4f 60 be 72 a5 89 3d 41 c1 03 3e
       0.04262834 -0.21905355 0.06721009 0.1286669
000080 35 1d d9 3d 18 fa 62 3e fc 8f 3b 3d e1 eb 21 be
       0.10601274 0.22165716 0.04579161 -0.15812637
000090 5e b3 f3 bc 31 a3 34 3e 77 93 f3 bd 76 2d c5 3d
       -0.029748615 0.17640378 -0.11893361 0.096278116
0000a0 3f 26 9f 3c 08 51 74 bd 4a a2 ec 3b c2 5b c8 3d
       0.019427417 -0.05964759 0.007221495 0.097831264
0000b0 05 fe 06 be 95 cc 16 3e 9c 48 18 3e ec 3a 35 3e
       -0.13182838 0.1472648 0.14871448 0.17698258
0000c0 c7 c3 88 3e 9a 7d f4 3a 58 77 1a be 87 a5 d6 3c
       0.26711866 0.0018653155 -0.15084589 0.026201976
0000d0 c6 0e 63 bd 00 1b de 3d 7b 4f 70 3e 91 01 70 bd
       -0.05543401 0.108449936 0.2346782 -0.058595244
0000e0 42 fc 7f 3c db 30 69 3e d1 b7 21 be 6a 25 35 bd
       0.015624108 0.22772543 -0.15792777 -0.044225134
0000f0 e3 f5 29 3e ae a8 40 3e 7a 4d d5 3d 0d 19 a4 bd
       0.16597705 0.18814346 0.10415168 -0.080125906
000100 a5 2c db bc a6 54 2b be 77 ac 27 be 75 a4 2e be
       -0.026754687 -0.1673151 -0.16374384 -0.17054923
000110 98 fb 71 3e de 65 5b 3e 00 fa ad 3d e3 4a ae bd
       0.23631132 0.21425578 0.08494949 -0.08510377
000120 9e b6 41 3e 4a e8 89 bd 2e 96 37 3e 2a 9c 48 3b
       0.18917319 -0.06733759 0.17928383 0.003061066
000130 10 3f d4 bd 77 62 1b bd 84 e8 83 bd e5 c4 0c be
       -0.10363591 -0.0379357 -0.06440833 -0.13746984
000140 04 1e 86 3d 72 f1 2a bd 24 a0 22 3e 50 cf 4d 3e
       0.06548694 -0.041734166 0.15881401 0.20098615
000150 d2 33 52 bc ec e9 fb 3d 73 82 02 3d 91 db 2f 3e
       -0.012829738 0.123004764 0.031862687 0.17173602
000160 3d af 2f be bc fc 11 bd 26 e7 c7 bd a4 00 2e 3e
       -0.17156692 -0.035641417 -0.09760885 0.16992432
000170 a8 80 5c be f3 6a fa bd 5a ab db 3c 6e 3b 54 3e
       -0.21533453 -0.1222743 0.026815105 0.20725796
000180 64 91 40 3e e9 c2 22 be 8d 25 06 be a8 7d 63 3e
       0.18805462 -0.15894665 -0.13100262 0.22215903
000190 45 c7 2a 3d 91 e8 23 be e5 75 ca bd be 71 2e 3d
       0.041693944 -0.16006686 -0.09885768 0.04258894
0001a0 dd 2a 9b bd 5b a9 40 be 7c 51 1d be dc 40 b4 bd
       -0.07576535 -0.18814604 -0.15363115 -0.088014334
0001b0 e7 fa 4a 3c 72 f5 c2 3d d7 92 f6 3d cc d0 b5 bd
       0.012388921 0.09519471 0.12039726 -0.088777155
0001c0 ca ee f7 bc f9 ad 31 be de e4 25 3e a0 1d 56 3e
       -0.03026523 -0.17351522 0.16200587 0.20909739
0001d0 eb ca 69 3e c5 0c 04 3e 6e ad d0 bc d7 97 22 bc
       0.22831313 0.12895496 -0.025473323 -0.009923897
0001e0 a7 b2 a3 3d ef 38 2a be e0 1c a2 ba 04 44 35 be
       0.079930596 -0.16623281 -0.0012368225 -0.17701727
0001f0 89 82 53 be 3b b2 77 3c 31 22 a4 bd 13 72 15 be
       -0.20655264 0.015118177 -0.08014334 -0.14594297
000200 c7 a1 8c 3c db ac 4a bb 7a 45 8b 3c d6 c7 01 be
       0.017166985 -0.0030925784 0.017000902 -0.12673888
000210 3e 73 53 be 87 3d 5b 3c 5b ce cd bd 07 0b 84 bd
       -0.2064943 0.0133813685 -0.10049125 -0.06447416
000220 f3 d6 28 3e aa f3 50 3d 1a d5 12 3e 81 1b 89 bc
       0.16488247 0.051013626 0.14339104 -0.016736748
000230 38 98 04 be aa 92 36 3d b4 63 c0 bd 6b 70 32 3d
       -0.12948692 0.044573463 -0.09394017 0.04356424
000240 93 49 01 be 28 bd 68 3e db 8d 9c bd ec a6 36 3e
       -0.12625723 0.22728407 -0.07644244 0.17837113
000250 e1 66 09 3e 83 19 13 3e 44 59 17 3e 6d 4b 77 ba
       0.13418151 0.143652 0.14780146 -0.00094335416
000260 f4 33 81 bd 53 99 39 bd 4b 03 44 bd bb ae 57 be
       -0.063087374 -0.045312237 -0.047854703 -0.21062748
000270 5c 5c 55 3e 7a 39 28 3c e1 a1 1f 3e 09 d1 0f bd
       0.20836014 0.01026761 0.15589096 -0.03511146
000280 4a 7e b3 3c fe ab d6 bd e9 a2 3a be 4e c4 20 3e
       0.021910805 -0.10482024 -0.18226208 0.15699884
000290 93 cf ba 3d 9c a6 01 3e 69 23 5a be bf f5 02 3d
       0.09121623 0.12661213 -0.2130257 0.031972643
0002a0 96 98 51 be 38 15 d6 3b 02 55 35 b9 54 86 08 be
       -0.20468363 0.006533291 -0.00017293173 -0.13332492
0002b0 be e5 54 be 5c d8 fa 3c 84 df 54 3e 57 06 48 3e
       -0.20790765 0.030620746 0.2078839 0.19533668
0002c0 e3 4d 14 be 32 8e 3f bd 49 8c 39 be 3f 3b 20 be
       -0.14482836 -0.046766467 -0.18119921 -0.156476
0002d0 fc 53 3f bd cf 10 79 3e 14 d4 12 bd 47 1c 4f bc
       -0.046710953 0.24322818 -0.035846785 -0.012641019
0002e0 ad 97 65 3e 3e c7 20 3c 3e 2b 47 3e 96 3a ce 3d
       0.22421141 0.009813128 0.1945009 0.10069768
0002f0 63 0d 10 3e ad 42 33 3d b4 0d 3f be 56 44 0c be
       0.14067607 0.04376476 -0.18657571 -0.13697943
000300 f0 13 ce bd 1f 26 4a 3e 43 94 36 3e fd e3 f0 3d
       -0.100623965 0.19741105 0.17829995 0.11762235
000310 f6 1f 10 be a7 dc 10 be 51 d0 49 3e ec 72 23 bc
       -0.14074692 -0.14146672 0.19708373 -0.00997613
000320 a5 91 5e be cd 28 8d bd 11 b5 c8 bd 2f 91 ac 3b
       -0.21735246 -0.06892548 -0.09800161 0.0052663307
000330 65 48 d6 3d a4 9f 96 3d 88 96 1f be 41 5b 26 bb
       0.10463027 0.07354668 -0.15584767 -0.0025383981
000340 a3 40 f7 bd c8 8a 1c 3e 2c 68 b3 3d 1b e5 09 3e
       -0.12072875 0.15287316 0.087601036 0.13466303
000350 94 3f 48 3e 5b 53 d9 3d 39 3f 74 be 47 f2 04 bb
       0.19555503 0.10611602 -0.23852243 -0.002028601
000360 6e 6c 44 be 52 b2 0b 3d dc 66 bd 3c cc 0e 5f 3e
       -0.19181988 0.034105606 0.023120336 0.21782988
000370 db 6e 08 be 9e 76 73 be 20 d1 d5 bd 8f 8c 4f bc
       -0.13323538 -0.23775718 -0.10440278 -0.012667789
000380 6c fb 1f 3e 5f cf 3c 3e 07 1f 29 3e 14 d1 53 3d
       0.15623254 0.18438481 0.16515742 0.051713064
000390 02 94 ac bd a7 db ca bd a6 72 23 be fb 91 46 3d
       -0.08426668 -0.099051766 -0.15961704 0.04847906
0003a0 60 53 30 be 91 16 91 3d 91 35 09 3e 08 2d 52 3e
       -0.17219305 0.07084382 0.1339934 0.2052499
0003b0 9d 4f 7c be a1 cd 1b 3e 7b 19 02 be 02 bb 68 bc
       -0.24639745 0.1521516 -0.12705033 -0.014204742
0003c0 6f f8 45 3e ab e5 f6 3d c6 f2 d6 bd 0b 11 7d 3d
       0.19333051 0.120555244 -0.10495524 0.06178383
0003d0 f8 4d 85 be 07 a0 17 3e ce ae 6a 3e cd ec 09 bd
       -0.26036048 0.1480714 0.22918245 -0.033673096
0003e0 18 fd ab 3c 01 ca 9e bd de ba 25 be 66 19 d4 bd
       0.020994708 -0.07753373 -0.16184565 -0.10356407
0003f0 38 03 9a bc f0 9c 30 be cd 79 2e be 42 c6 89 3c
       -0.018800363 -0.17247367 -0.17038651 0.01681817

conv2.bias f4 [128]
000000 ca 27 d2 bb 0c 47 80 ba 92 ae 16 bc 4b f3 d9 3a
       -0.0064134346 -0.0009786799 -0.009196894 0.0016628293
000010 ae 31 37 bc d6 46 9c 3c f9 d4 95 3b 1c 5b 1c 3c
       -0.011181278 0.019076746 0.0045725075 0.009543207
000020 f4 c6 26 3c db 9f 47 3b 59 db 9c 3b 4a d4 2a bb
       0.01017927 0.0030460272 0.0047868905 -0.0026066476
000030 32 4d aa bb 4f 4e 35 3c 6b f2 68 3c 70 16 8b bb
       -0.0051971907 0.0110660335 0.014217953 -0.004244618
000040 96 f6 ef ba 07 9b 07 3a b7 e1 b5 b9 c2 37 bd bb
       -0.0018307741 0.0005172942 -0.0003469118 -0.005774469
000050 49 eb ae 3b 68 05 a9 bb 24 92 c3 bb 25 d5 62 3c
       0.005338107 -0.005158115 -0.005968349 0.013844763
000060 b7 d9 ff ba ad 11 67 bc 5a 6c 1b 3c 4a b5 ad 3b
       -0.001951984 -0.014103335 0.009486282 0.0053011524
000070 e5 c4 a1 3c 5b fe 21 3c 20 fc 17 3c 8c 5e f6 3b
       0.019747207 0.009887303 0.00927642 0.007518595
000080 f2 26 18 3c 1b ad 7f bb 79 63 4f 3b a4 cb c8 bb
       0.009286629 -0.003901309 0.0031644984 -0.0061277915
000090 ad 09 77 bb 43 67 5e bb 56 d9 4d 3c db f9 28 3a
       -0.0037694976 -0.003393606 0.012564024 0.0006445923
0000a0 0a d2 79 3b ec d4 37 3c c1 f7 58 3c 0f 4c 64 bc
       0.0038119578 0.011220198 0.013242663 -0.013934149
0000b0 fb c4 4d bc a8 32 09 3b 0b 71 21 3b 13 cd 81 3b
       -0.012559171 0.0020934734 0.002463403 0.0039612143
0000c0 32 42 1e bc 90 7c 10 bc 67 d4 03 bc f4 e7 18 bc
       -0.009659337 -0.0088187605 -0.008046246 -0.009332646
0000d0 02 90 2a 3a fb ea 10 3c 48 7f 94 b9 8a be 34 39
       0.0006506444 0.008845086 -0.00028323592 0.00017237119
0000e0 28 e8 36 bb 1a 43 4e ba f8 73 0b bc 42 a0 da 3b
       -0.0027909372 -0.0007868275 -0.008511536 0.0066719363
0000f0 35 ba e4 bb a6 c0 1e 3c d3 47 fa 3b 15 fa 31 3b
       -0.0069802054 0.009689486 0.0076379566 0.0027157117
000100 f8 80 c3 3a 48 25 57 3c 1d 82 dd bb 09 5c aa 3b
       0.0014915755 0.013131447 -0.0067598955 0.0051989597
000110 5f 43 27 bc 34 10 77 3a b6 d0 29 bc d7 e7 0f bb
       -0.010208934 0.00094247167 -0.010364702 -0.0021958256
000120 a3 3f 20 bc 11 b5 fb bb 15 dd 6f ba 52 4f 1d bb
       -0.009780797 -0.007681497 -0.000915007 -0.0024003577
000130 5a df 06 3b 19 da 33 3c 90 78 94 bb 9b 42 8f 3b
       0.0020579905 0.0109772915 -0.0045309737 0.0043719537
000140 66 de 00 bc 74 50 c9 b9 60 f5 94 3a 84 39 e5 bb
       -0.007865524 -0.0003839765 0.0011364631 -0.006995382
000150 5c 7d 00 39 ea 9f 8a bc 90 1e 18 3c 3b 31 27 3c
       0.00012253731 -0.016921956 0.00928463 0.010204609
000160 3c a7 ab 3a 1a 11 da 3b 26 07 41 bc 37 c2 16 bc
       0.0013096104 0.0066548707 -0.0117814895 -0.009201578
000170 79 25 b3 3a e8 2d a8 3b 2c a7 56 3b 99 00 41 3b
       0.0013667784 0.0051324256 0.003275345 0.002944982
000180 c6 15 3b ba 47 8d ad bb f2 c9 2f 3c ef 36 0a bc
       -0.00071367284 -0.0052963826 0.0107293 -0.008435949
000190 9e de 88 bb c2 3d d1 3b d9 62 91 bb 71 a1 67 bb
       -0.0041769287 0.006385536 -0.0044368324 -0.003534403
0001a0 3c 46 83 3c 77 cf c6 bb e8 89 3c bc e7 90 0c 3b
       0.016024701 -0.006067212 -0.011507489 0.0021448673
0001b0 d6 b9 bf ba bc e4 07 3c a5 bb 0f 3b ff 63 eb 3b
       -0.0014627527 0.008294281 0.0021931913 0.0071835513
0001c0 b9 f1 5d bb e9 ab 03 3c 81 f7 86 bb 00 1b 12 3b
       -0.0033866002 0.008036592 -0.0041188602 0.0022293925
0001d0 16 dc 72 bc db 21 ed 3a a3 27 eb 3b 35 18 88 3b
       -0.01482298 0.0018091755 0.007176356 0.0041532763
0001e0 1d 75 73 bb 05 ee 7f bc 60 9c 1c bc d6 20 5e bc
       -0.0037148662 -0.015620713 -0.009558767 -0.013557633
0001f0 68 1b 33 3a 3b a2 04 bb 69 00 2f 3c b4 45 72 bc
       0.0006832392 -0.0020238298 0.01068125 -0.014787126

conv2.lin.weight f4 [128, 128]
000000 b4 38 0c 3e f4 14 c3 bb 5c 83 9a 3c 73 6a 57 39
       0.13693506 -0.0059534255 0.018861465 0.00020543653
000010 b8 89 c7 bb fe 79 91 bd 0a d3 17 bd 75 8c a8 bd
       -0.0060894154 -0.07103346 -0.037066497 -0.08229915
000020 6d 23 e4 bc 1d 48 8e bd 3e 13 a1 3d 7e ee 37 bd
       -0.027848924 -0.06947348 0.07864998 -0.04490518
000030 46 91 93 bc d1 51 0c be 5b 24 10 be b7 dd 3e bc
       -0.018013608 -0.13703085 -0.14076369 -0.011649541
000040 1d 03 98 3d f6 fc bd bc 86 1a 87 bc 83 19 f2 3d
       0.07422469 -0.02319191 -0.01649214 0.11821272
000050 8e f7 94 3d bd 5f 84 3d 20 43 53 3d 40 91 a7 3d
       0.0727378 0.06463573 0.051577687 0.08182001
000060 cd cb 8a bb 26 cc 82 3d fe 34 fd bd f7 23 65 bd
       -0.0042357207 0.063865945 -0.12363623 -0.055942502
000070 59 55 19 be 89 b3 88 bd 58 e3 14 be 3d ae 07 3d
       -0.14973964 -0.066748686 -0.1453985 0.03312515
000080 95 3f a2 bd d3 7b b5 bb b0 82 f4 3d d1 9e e3 3c
       -0.079222836 -0.0055384426 0.11938989 0.02778569
000090 54 c3 88 bc 2c b7 a1 bd 61 d0 94 bd 21 bd 83 bc
       -0.016694702 -0.078962654 -0.072663076 -0.016081395
0000a0 19 31 1d be 2d 7d f9 bd 56 d8 0c 3e e8 63 4a bb
       -0.1535076 -0.121820785 0.137544 -0.0030882303
0000b0 86 09 ca 3c e0 ad fc bd 6a ee fc 3d 96 4b 0d bd
       0.024662744 -0.123378515 0.123501614 -0.034495912
0000c0 98 7b 37 3d 00 9c 7b bc fc 25 7b ba a5 99 6f bc
       0.044795603 -0.0153570175 -0.000958055 -0.014624034
0000d0 57 29 de bc 99 87 b7 bc ff ce f2 3d bc 7c 04 be
       -0.027119322 -0.022403525 0.118558876 -0.12938207
0000e0 06 11 23 be 87 3d 02 3d bf a8 d6 3c ba 5c 92 3c
       -0.15924463 0.03179696 0.026203511 0.017866481
0000f0 e7 4c 38 bc 34 6f 62 bc 85 40 cc bd a8 fd 0f be
       -0.011248804 -0.013820458 -0.099732436 -0.14061606
000100 08 98 7a 3d f0 f7 c0 3d 0e f5 94 bd cd 6b c2 bd
       0.061180145 0.0942229 -0.07273303 -0.094932176
000110 17 0e d5 3d f0 06 7d 3d ef e7 cb bd 81 52 95 3d
       0.10403078 0.061774194 -0.09956347 0.07291127
000120 30 28 a7 bd 57 b5 4d 3d 92 5e da 3c e2 8b d0 3c
       -0.08161962 0.050221767 0.026656423 0.025457326
000130 f4 76 4a 3d 04 90 0a 3e 89 af 0c 3e 43 73 aa bd
       0.04942985 0.135315 0.13738836 -0.08322766
000140 d9 30 04 3e 43 a9 4b bd bd f2 b4 3d 1b 73 e1 3b
       0.12909259 -0.049721967 0.08835361 0.0068801767
000150 e2 ac 00 bc 75 1b 14 3e f8 39 a4 3d bf e6 3c 3d
       -0.0078537185 0.14463599 0.08018869 0.046118494
000160 d8 e0 9b 3a 19 30 b7 bd 20 4b 97 3d 35 f8 f8 bd
       0.001189257 -0.08944721 0.07387376 -0.12156717
000170 40 f0 ef 3d 53 78 2b bd 6d cf c8 3d f8 fa 25 bd
       0.11715746 -0.041862797 0.09805188 -0.040522546
000180 96 c2 4e bd b0 81 2e bc 3d 66 b9 bd 8e 1c c0 bd
       -0.05047854 -0.010651037 -0.090527035 -0.093804464
000190 fd 06 f5 bd 8b 8e 21 3e 35 ca 08 3d f4 e3 ec bc
       -0.119642235 0.15777032 0.033395965 -0.02891729
0001a0 23 82 00 be 4c 24 44 bd 6d ad 6b 3d 26 3e a1 bd
       -0.12549643 -0.047886178 0.05753844 -0.07873182
0001b0 5d 98 eb bd a9 c4 dc bd e7 9b a2 3d 4c e7 73 bd
       -0.1150367 -0.107796974 0.07939892 -0.059546754
0001c0 9d 6b 13 3d 29 04 ca 3d 86 6d 49 3d ff 1a 17 be
       0.0359913 0.09864075 0.049176715 -0.14756392
0001d0 a3 ed 83 bd 3a d4 81 3c a3 32 f6 bd 70 e2 a7 bd
       -0.0644181 0.015848268 -0.12021377 -0.081974864
0001e0 90 9b ca 3d 8f c6 07 3e f6 c9 18 be 35 35 7a 3c
       0.098929524 0.13259338 -0.14920792 0.015271475
0001f0 06 5e e2 3d 66 e4 a1 bc e2 ed f4 3d 89 de 9a 3d
       0.1105309 -0.01976223 0.11959435 0.075619765
000200 5b f7 28 3e 89 32 89 3b e3 bc 18 3e 3a 68 f1 bb
       0.16500609 0.0041869325 0.14915805 -0.007367161
000210 a9 c9 00 3e 0e 77 a7 bc f3 22 81 bd 16 7d 1b be
       0.12576927 -0.020442512 -0.06305494 -0.15184435
000220 84 f6 13 39 41 7b 1a 3e dc e1 1a be 9b 13 25 3e
       0.00014110847 0.1508608 -0.15125221 0.1612076
000230 84 49 2e 3d 86 2b 27 be 3b 01 17 3e d6 db bd 3b
       0.04255058 -0.16325197 0.14746563 0.0057940288
000240 04 d1 08 3e a9 2f 3f 3d c0 66 16 be 48 fc c9 bd
       0.13360983 0.04667631 -0.14687634 -0.09862572
000250 a7 ae f5 bd b4 ca f8 bd 61 0b 43 3d 38 50 0e 3e
       -0.11996203 -0.121480376 0.047618274 0.13897789
000260 dd 0e 38 bd a5 35 23 3e 0c 3c 02 bd 88 8d c9 3d
       -0.04493605 0.15938433 -0.031795546 0.09841448
000270 f3 2a 5d 38 08 36 1e 3e 01 24 38 3d 90 11 0e 3e
       5.2730506e-05 0.15450299 0.04495621 0.13873887
000280 d8 f4 90 bd 13 87 d6 3b 62 91 90 3d 00 f0 c8 3c
       -0.0707795 0.006546864 0.070589796 0.024528503
000290 05 aa 02 be b7 46 b1 3d 5a 3d e9 bc 9b f5 46 bd
       -0.1276017 0.08656066 -0.028471638 -0.04857407
0002a0 a1 86 9d 3a ed 86 23 be ef 48 19 3d 84 c9 34 bd
       0.0012018272 -0.15969439 0.03742307 -0.044137493
0002b0 37 1c ab bd 36 32 08 bd 61 43 35 bd 66 0f c5 bd
       -0.08354991 -0.03325101 -0.04425371 -0.09622078
0002c0 a6 25 0b be 50 8e 0c be b0 0d af 3d b8 d3 66 bd
       -0.1358858 -0.13726163 0.085475326 -0.056354254
0002d0 50 95 66 bd ff 7a ac 3d 1d 56 7e 3d 12 a0 f2 3d
       -0.05629474 0.08421897 0.062093843 0.11846937
0002e0 1f 29 97 bd 34 74 ab 3d 20 88 eb bd bc 0f c0 bd
       -0.0738089 0.08371773 -0.11500573 -0.09378001
0002f0 75 ab 13 3e bc ec b3 bc 2c be 05 3e fe 61 34 bc
       0.14420874 -0.02196347 0.13060826 -0.011009691
000300 0f 41 d7 bb da 78 fe bd af 1f 12 be 0f 4c fc 3d
       -0.006569035 -0.12425394 -0.14269899 0.123191945
000310 f4 7c fb bd 19 fe c7 3d 6d 57 ab 3d df e3 86 3c
       -0.12279692 0.09765262 0.083662845 0.01646608
000320 e7 24 10 3e b6 d5 a0 bd 56 ce 88 bb 33 a1 f5 3d
       0.14076577 -0.07853262 -0.004174988 0.11993637
000330 13 bb 3e bd e8 9a d6 bd 3a 32 93 bd ea 80 b4 3c
       -0.046565127 -0.10478765 -0.07187314 0.022034127
000340 2a c2 ba bd f0 19 b5 bd b8 1c 14 be 9d 2d 9a bc
       -0.09119065 -0.08842838 -0.1446408 -0.018820578
000350 26 9d 56 bd 99 81 22 3d 6e e4 ca bc fe 31 1b be
       -0.052395962 0.039674375 -0.024767127 -0.1515579
000360 e7 ec e4 3d 7c f1 04 3e f0 f2 16 be 5e d5 34 3c
       0.11177998 0.12982744 -0.14741111 0.011037199
000370 34 98 e3 3d 69 b9 01 3d 88 0d 7a bd dd c5 67 bd
       0.11113015 0.03167096 -0.06104806 -0.05658518
000380 07 38 26 3e b2 81 c9 bc 99 7b 8a bd ec 11 f9 3c
       0.1623231 -0.024597976 -0.06761856 0.030404054
000390 c7 d1 fa 3d e1 cf 11 3e 3d c4 51 3d da 70 e1 3c
       0.12247043 0.14239456 0.051212538 0.027519632
0003a0 ca 56 10 3e 1e e9 df bd 9d 66 19 3e 86 0c 77 bd
       0.14095607 -0.109331354 0.1498055 -0.060314678
0003b0 f8 68 56 3d f6 fc 7d bd 51 fc 67 bc 0e ba 20 be
       0.0523462 -0.06200882 -0.014159278 -0.15695974
0003c0 8f 57 de bc 8d 27 99 bd 6f a9 15 bd a1 3f ae bd
       -0.02714136 -0.07478247 -0.036538538 -0.0850823
0003d0 64 4c 8a 3d 0f 84 17 3e bc 21 c9 bd 7c 00 cc 3d
       0.067528516 0.1479647 -0.098208874 0.0996103
0003e0 f2 75 34 3d f1 68 f2 3d 22 3e 90 bd 7f d6 5e bd
       0.044057794 0.11836422 -0.07043101 -0.05440378
0003f0 e1 70 b7 3d c6 0a f6 bd c0 12 b3 bd ba 2d 3a 3d
       0.08957077 -0.120137736 -0.08743811 0.045453764
