pretrained_gnns/PubMed_SimGRACE_GCN_1.pth (torch, 324928 bytes, 4 tensors)

conv1.bias f4 [128]
0	0x3cf04b18	0.029332682
1	0x3ce107d2	0.02746955
2	0x3d186830	0.037208736
3	0x3d053f69	0.032531176
4	0x3cfe920c	0.0310755
5	0x3cef3ece	0.029204752
6	0x3d02f57f	0.031972405
7	0x3d048fd3	0.032363724
8	0x3d168bf2	0.036754556
9	0x3cf27e75	0.029601315
10	0x3d1b034d	0.037844945
11	0x3cf926fb	0.030414095
12	0x3d0f7d2a	0.035031475
13	0x3d1fb0e4	0.038987055
14	0x3d1e48ef	0.038643774
15	0x3cfd3343	0.030908233
16	0x3d1bddd0	0.038053334
17	0x3d25b579	0.04045627
18	0x3d07458c	0.03302531
19	0x3cfd422e	0.030915346
20	0x3ce96ce7	0.028494311
21	0x3d0a654d	0.033788014
22	0x3cebb7e0	0.028774202
23	0x3d0655e7	0.032796767
24	0x3d018adb	0.031626564
25	0x3d0db106	0.03459265
26	0x3d190d70	0.03736633
27	0x3d0273e3	0.0318488
28	0x3ce37e4a	0.02777018
29	0x3cf677d9	0.030086445
30	0x3cfe47d7	0.031040115
31	0x3d1dd944	0.03853728
32	0x3d0c62c1	0.034273867
33	0x3d00be0c	0.031431243
34	0x3d094059	0.033508632
35	0x3d244404	0.040103927
36	0x3ceb61be	0.02873313
37	0x3d006d23	0.03135408
38	0x3d040f4d	0.032241154
39	0x3d01505e	0.031570785
40	0x3d244945	0.040108938
41	0x3d0197b2	0.03163881
42	0x3d0d9e2a	0.034574665
43	0x3ccccdd5	0.025000492
44	0x3d03b244	0.03215243
45	0x3ceedbc3	0.029157525
46	0x3d120caf	0.035656627
47	0x3cfe183d	0.031017417
48	0x3cfa072d	0.030521
49	0x3d040f6a	0.032241262
50	0x3ceb3e75	0.028716305
51	0x3cf22f4c	0.029563569
52	0x3d013db4	0.031552985
53	0x3d3546cd	0.044256974
54	0x3cf04a38	0.029332265
55	0x3d007ca6	0.031368874
56	0x3cd114b7	0.025522573
57	0x3ce114ac	0.027475677
58	0x3d04bb9b	0.032405477
59	0x3cdc8ce0	0.026922643
60	0x3d12a78c	0.035804316
61	0x3cda3692	0.02663735
62	0x3d0d1f82	0.034453876
63	0x3d00001a	0.031250097
64	0x3d138a62	0.036020644
65	0x3d26f6ef	0.040762838
66	0x3d0b0c8b	0.03394751
67	0x3cf578c8	0.02996482
68	0x3d18467b	0.03717659
69	0x3d0fbebe	0.035094015
70	0x3d004b4b	0.031321805
71	0x3d00c81d	0.031440843
72	0x3d027aae	0.031855278
73	0x3d27dbe1	0.040981177
74	0x3d13ebeb	0.03611366
75	0x3ceb5d8c	0.02873113
76	0x3d038bbb	0.03211568
77	0x3d195096	0.03743037
78	0x3d1eb9d0	0.038751423
79	0x3d10ee48	0.035383493
80	0x3cf692be	0.030099269
81	0x3d1cc8ae	0.03827732
82	0x3d0aab34	0.03385468
83	0x3cfaa467	0.030595971
84	0x3d09f08e	0.033676676
85	0x3d1b687a	0.037941433
86	0x3d135962	0.035973914
87	0x3ce21681	0.027598621
88	0x3d0a3ee1	0.033751372
89	0x3d14ea79	0.036356423
90	0x3d170d9d	0.036878217
91	0x3d0ef6c9	0.03490332
92	0x3cfa9c66	0.030592155
93	0x3d091726	0.03346934
94	0x3d0139cb	0.031549256
95	0x3cd779af	0.02630314
96	0x3cebd7e2	0.028789464
97	0x3ce7268a	0.028216619
98	0x3cfaf355	0.030633608
99	0x3cf6a970	0.030110091
100	0x3cfa1eef	0.030532328
101	0x3d222806	0.03958895
102	0x3d002d57	0.03129324
103	0x3d0b5e44	0.034025446
104	0x3d05ebcd	0.03269558
105	0x3d0fee4e	0.035139374
106	0x3cd868d3	0.026417172
107	0x3d213e0c	0.039365813
108	0x3d08e6f3	0.033423375
109	0x3cf6605f	0.03007525
110	0x3d1e70e8	0.038681895
111	0x3d0a4939	0.033761237
112	0x3d0434bb	0.03227685
113	0x3d08c89c	0.03339444
114	0x3d00e8a1	0.031471852
115	0x3d019743	0.031638395
116	0x3d169815	0.03676613
117	0x3d07345e	0.033008926
118	0x3d19c5f8	0.037542313
119	0x3cfdd985	0.03098751
120	0x3d1489c1	0.036264185
121	0x3d09a61f	0.03360569
122	0x3d166b2c	0.0367233
123	0x3d154269	0.036440287
124	0x3ce1998c	0.027539037
125	0x3d247adf	0.04015624
126	0x3cf00ee7	0.029303981
127	0x3d0fcac6	0.03510549

conv1.lin.weight f4 [128, 500]
0	0xbd694b0b	-0.056956332
1	0x3c029369	0.007969716
2	0x3d69a682	0.05704356
3	0xbd16482f	-0.036689933
4	0x3db50dbe	0.08840512
5	0xbda7430e	-0.081670865
6	0x3d8d797e	0.069079384
7	0x3c534e78	0.012897126
8	0x3c3b7ae4	0.011442874
9	0x3d2f6596	0.04282149
10	0xbd8ab8a9	-0.067735024
11	0xbdbb2769	-0.09138376
12	0xbd9d9e2d	-0.07696185
13	0xbc079a01	-0.0082764635
14	0xbdaa127f	-0.08304309
15	0x3dc11929	0.09428627
16	0xbdc10104	-0.09424022
17	0xbd57d542	-0.052693613
18	0x3d0569b5	0.032571513
19	0xbc43152f	-0.011906906
20	0x3dbf6a38	0.093464315
21	0x3da10d93	0.07863917
22	0x3d3ea04e	0.046539597
23	0xbd4f6037	-0.050628867
24	0x3deb6ca5	0.11495332
25	0xbd8f275e	-0.069899306
26	0xbc98dc63	-0.018659776
27	0xbbef254d	-0.007298148
28	0xbc8ddcc8	-0.01731719
29	0xba8dbe67	-0.0010814191
30	0xbd0e65ea	-0.03476516
31	0xbcecc85e	-0.028904136
32	0xbdb14ac5	-0.08656839
33	0xbdc64400	-0.09680939
34	0x3d24a170	0.04019302
35	0xbdbebad0	-0.093129754
36	0xbcb978d5	-0.022640625
37	0xbd28c748	-0.041205674
38	0x3d875578	0.06608099
39	0xbe553397	-0.20820461
40	0xbdd45f86	-0.10369782
41	0x3b4023d0	0.002931822
42	0x3d28a294	0.04117067
43	0x3cbb743c	0.022882573
44	0xbd222a5d	-0.039591182
45	0xbe02f99d	-0.12790532
46	0xbd4d2232	-0.05008144
47	0x3d76e723	0.060279023
48	0x3c432ccf	0.011912539
49	0xbd4b9780	-0.04970503
50	0xbe25355c	-0.16133636
51	0xbe8cb9b2	-0.27485424
52	0xbdcb4e09	-0.099269934
53	0xbd952894	-0.0728313
54	0x3c397d27	0.011321343
55	0xbdca9fa2	-0.09893729
56	0x3ca53228	0.020165518
57	0xbceb8548	-0.028750077
58	0xbc0a7787	-0.008451349
59	0xbe452db6	-0.19255719
60	0xbc976e9a	-0.018485356
61	0xbd1fb167	-0.038987543
62	0xbd744ffd	-0.059646595
63	0xbd8a6b48	-0.067587435
64	0x3dc7041a	0.09717579
65	0xbc1bb5c3	-0.009503785
66	0x3cd7d8be	0.026348468
67	0xbd86c6ad	-0.06580863
68	0x3dc51a2f	0.09624135
69	0x3ceaa983	0.028645283
70	0x3db323d0	0.08747065
71	0xbd4b31de	-0.049608104
72	0xbe059c57	-0.1304792
73	0xbda934c5	-0.08262018
74	0xbbce3b19	-0.006293666
75	0xbdb592f5	-0.088659205
76	0x3cf0c7ed	0.029392207
77	0xbd802ba0	-0.06258321
78	0xbc6c59d3	-0.014425713
79	0xbcd8712c	-0.026421152
80	0x3d001bb8	0.031276435
81	0xbc2fc788	-0.010728724
82	0x3df6a14f	0.12042486
83	0x3cf74258	0.030183002
84	0x3d8be19e	0.068301424
85	0xbcc6d6f6	-0.024272423
86	0xbd392131	-0.04519767
87	0x3d61398b	0.054986518
88	0x3d9dd379	0.07706351
89	0x3d915736	0.07096712
90	0x3df1e122	0.11810519
91	0xbda9f2bc	-0.08298251
92	0x3dc93ca5	0.0982602
93	0xbd1a90dd	-0.03773581
94	0xbd89ca58	-0.06728047
95	0x3d639fd4	0.055572346
96	0x3d32307f	0.04350328
97	0xbc147119	-0.009060168
98	0xbddb7cd9	-0.10717172
99	0x3dab58dd	0.08366559
100	0xbd0ba5a7	-0.034093525
101	0xbe1bd970	-0.15219665
102	0x3ca2597f	0.019818066
103	0xbd3f9344	-0.046771303
104	0xbe283c00	-0.16429138
105	0xbd8585b1	-0.0651964
106	0xbd8cdd4e	-0.06878148
107	0x3d78300c	0.060592696
108	0xbdc1c499	-0.09461326
109	0xbd1bf210	-0.038072646
110	0x3d5a471b	0.053290468
111	0xbdf92d28	-0.12166816
112	0x3c8e0eec	0.0173411
113	0xbd76eae2	-0.060282595
114	0x3dafa9b6	0.08577292
115	0x3db145ae	0.086558685
116	0x3dd8a0e0	0.105775595
117	0xbdda54ea	-0.10660727
118	0xbd24b1fd	-0.040208805
119	0x3e093e74	0.1340273
120	0x3e00b131	0.12567593
121	0x3b80d01f	0.00393106
122	0xbdac7181	-0.08420087
123	0x3c30c066	0.010788059
124	0xbe09d7e6	-0.13461265
125	0xbcb1550e	-0.021647003
126	0x3c194618	0.009355091
127	0xbd5beb17	-0.053690996
128	0x3c878833	0.016544437
129	0xbd775969	-0.060388003
130	0xbd794864	-0.060860053
131	0xbdf2766b	-0.11838993
132	0x3da6187b	0.08110138
133	0x3dde36c9	0.10850293
134	0x3d100709	0.03516296
135	0xbc7e912e	-0.015537543
136	0xbd9d7019	-0.076873966
137	0x3dfc86fa	0.12330432
138	0xbe0e7eab	-0.13915507
139	0xbe045483	-0.12922864
140	0xbd7acae6	-0.061228655
141	0xbda37cd0	-0.079827905
142	0xbe72f217	-0.23725162
143	0x3cb7823f	0.022400973
144	0x3d26cdf3	0.040723752
145	0xbda9f5f7	-0.08298867
146	0x3deaabaf	0.11458527
147	0xbd7cb1ff	-0.061693188
148	0xbc9edaf1	-0.019391509
149	0xbdcafb67	-0.099112324
150	0x3b860d51	0.004090943
151	0x3d9c07f1	0.07618702
152	0x3ce0a7c7	0.027423752
153	0x3dbe2990	0.09285271
154	0x3c38576c	0.011251312
155	0xb98c0396	-0.00026705553
156	0xbdef6b30	-0.11690366
157	0x3c94f782	0.018184427
158	0x3da9bfa4	0.08288506
159	0xbd913019	-0.07089252
160	0xbd2f5079	-0.042801354
161	0xbdfdb05a	-0.12387152
162	0xbd6a91e9	-0.057268057
163	0xbdc37933	-0.09544601
164	0xbe758f9b	-0.23980562
165	0xbdcf51bd	-0.10123012
166	0xbd6e1299	-0.058123205
167	0x3d11fdc7	0.03564241
168	0xbdb73042	-0.08944751
169	0x3c246e83	0.010036114
170	0xbe25b019	-0.16180457
171	0xbd21b14e	-0.03947573
172	0xbd461e00	-0.048368454
173	0xbd388d67	-0.045056727
174	0x3dd0153c	0.101603
175	0xbdf11835	-0.11772195
176	0x3da71977	0.08159154
177	0xbc87a909	-0.016560094
178	0xbd94b597	-0.07261198
179	0x3db68aaa	0.08913167
180	0x3de9f394	0.11423412
181	0x3dcbab41	0.099447735
182	0xbcfa780e	-0.030574825
183	0xbd1e3a57	-0.038629856
184	0x3dad57dc	0.084640235
185	0x3d7d9257	0.06190714
186	0xbdd04f65	-0.10171393
187	0xbe1d0a7d	-0.15336032
188	0x3cabf7e8	0.020992234
189	0xbd700a0e	-0.05860334
190	0x3c5459e5	0.012960886
191	0xbe0f67fa	-0.14004508
192	0x3cbd659c	0.02311974
193	0x3d406c1d	0.046978105
194	0x3d2e416f	0.04254287
195	0xbe1d2294	-0.15345222
196	0xbc3d2e14	-0.01154663
197	0x3d529e28	0.05142036
198	0xbd9597a4	-0.07304314
199	0xbdfdb976	-0.123888895
200	0x3e076172	0.13220766
201	0x3ca9b001	0.020713808
202	0x3cefe412	0.029283557
203	0x3c856300	0.016282558
204	0xbdb6c566	-0.089243695
205	0x3de4288a	0.11140545
206	0x3d5483c7	0.051883485
207	0x3dd96bf7	0.10616296
208	0x3e2162f5	0.15760405
209	0xbd8268ca	-0.06367643
210	0x3e510220	0.20410967
211	0x3e11e184	0.14246184
212	0x3e94eaeb	0.29085478
213	0x3e65e6f7	0.22451387
214	0xbdedf974	-0.11619845
215	0x3d119ddf	0.03555095
216	0xbd6232a7	-0.055224087
217	0xbb9ee036	-0.0048485054
218	0x3db74682	0.08948995
219	0xbd89e579	-0.067332216
220	0x3e2501e4	0.16114002
221	0x3de46ef7	0.11153977
222	0xbcabc36f	-0.020967213
223	0xbdc0eaa7	-0.094197564
224	0x3d2ec731	0.042670432
225	0xbdab51e4	-0.08365229
226	0x3d015dee	0.03158372
227	0xbd84da49	-0.06486947
228	0xbd58b0e3	-0.052903067
229	0x3e0d2ad2	0.13785866
230	0x3d7c346b	0.061573427
231	0xbdd39098	-0.103303134
232	0xbce5a315	-0.028031865
233	0x3d072e4a	0.03300313
234	0xbcdcdeeb	-0.026961764
235	0xbcc7cd50	-0.024389893
236	0xbe0a2626	-0.13491115
237	0x3de3603d	0.1110234
238	0xbcff4585	-0.03116108
239	0xbe6ac532	-0.22926787
240	0xbde9869d	-0.114026286
241	0x3e094ff0	0.134094
242	0xbd2d1015	-0.042251665
243	0xbddab036	-0.10678141
244	0xbe2dd3f8	-0.16975391
245	0x3e4fd7d8	0.20297182
246	0xbc7b0bd5	-0.015322645
247	0x3a15ff37	0.0005721929
248	0xbd7eaf77	-0.062179055
249	0xbe1b5366	-0.15168533
250	0x3ded43f3	0.11585226
251	0xbe29463c	-0.16530699
252	0x3e310ed1	0.17290808
253	0x3de7db62	0.11321141
254	0x3e312371	0.17298676
255	0xbd35bd7f	-0.04437017

conv2.bias f4 [128]
0	0xbc06a0ec	-0.008217078
1	0xbb98bd20	-0.0046612173
2	0x3c0d819e	0.00863686
3	0xbb3bc339	-0.0028650297
4	0xbc4e1fa1	-0.012580783
5	0x3c22c177	0.009933821
6	0x3c18fbc3	0.009337368
7	0xbb4076bd	-0.0029367649
8	0xbba4f787	-0.0050343904
9	0x3b6e2212	0.0036336225
10	0xbc46eb59	-0.012141072
11	0x3b2de2df	0.002653293
12	0xbc25179a	-0.010076428
13	0xbcfda58c	-0.030962728
14	0x3ca4c8f1	0.020115348
15	0xbc431380	-0.011906505
16	0xbb9f17ae	-0.0048551178
17	0xbc135d8c	-0.008994471
18	0xbb93b098	-0.0045071356
19	0x3bc2bb3e	0.005942731
20	0x3d1ef9d7	0.038812485
21	0xbbf90392	-0.0075993026
22	0xbbd509ea	-0.006501426
23	0x3c687bd1	0.014189676
24	0x3c198c4f	0.009371831
25	0x3b81292d	0.003941676
26	0xbc831798	-0.016002461
27	0xba9a66a8	-0.0011779862
28	0xbc76b5e9	-0.015058019
29	0x3c11a21e	0.008888749
30	0xbbaecf8f	-0.0053348015
31	0x3c5f5bbf	0.013632714
32	0xbba809ee	-0.005128137
33	0x3c5947e2	0.013261767
34	0xbbf12f24	-0.007360356
35	0x3c4a5978	0.012350433
36	0x3c102f3a	0.008800322
37	0x3cca680e	0.02470782
38	0x3b611f0f	0.0034350788
39	0xbc5ae5cf	-0.013360455
40	0x3bc9148f	0.006136484
41	0x3ba85cac	0.0051380005
42	0x3a43521c	0.0007450895
43	0x3be96ef7	0.0071238237
44	0xbc6070ab	-0.013698737
45	0x3d0d9387	0.03456452
46	0x3c1f5858	0.009725653
47	0xbc1d1158	-0.009586655
48	0xbc0f2fb4	-0.008739401
49	0xbc3d6e21	-0.011561901
50	0xbbc12b20	-0.0058950335
51	0x3bd97350	0.006636061
52	0xbc794f2f	-0.015216633
53	0xbc4ffbc7	-0.012694306
54	0xbc815247	-0.015786303
55	0x3c33494e	0.01094277
56	0xbb68eb46	-0.0035540625
57	0x3c90ae8b	0.017661354
58	0xbc0fcd44	-0.0087769665
59	0x3c16186c	0.009161096
60	0x3bf09f65	0.00734322
61	0xbc432c8c	-0.011912476
62	0xbc2c6b2d	-0.0105236
63	0xbbd090b9	-0.0063649085
64	0x3d1f2abc	0.038859114
65	0x3c84a9bb	0.016194215
66	0x3cc56bd7	0.024099274
67	0xbc2b91ff	-0.01047182
68	0x3c9ef450	0.019403607
69	0x3cb55e5c	0.02213972
70	0xbc733362	-0.014843794
71	0x3a749391	0.00093298504
72	0x3bf3f60a	0.0074451016
73	0xbcbb3929	-0.022854405
74	0xbc6bb414	-0.014386196
75	0x3bc4aca9	0.006002028
76	0xbc0ef8e2	-0.0087263305
77	0x3a47862c	0.0007611241
78	0xbc98eea4	-0.01866848
79	0x3c8caa40	0.017171025
80	0xbbbc68ba	-0.005749789
81	0xbd1b6981	-0.037942413
82	0xbc2d7424	-0.010586772
83	0x3bb4750a	0.005507116
84	0xbc0402ee	-0.008057339
85	0xbc0bb5f4	-0.008527268
86	0x3b42c896	0.002972161
87	0xbc1abc9d	-0.009444383
88	0xbc97f350	-0.018548638
89	0x3c5fe8b1	0.013666318
90	0x3b993e2d	0.0046766014
91	0x3c6b6a98	0.014368676
92	0xbb5da4a0	-0.0033820048
93	0x3c14b3f1	0.0090761045
94	0xbc8dbb08	-0.017301098
95	0xbb52e67e	-0.003218084
96	0x3c9b442e	0.018953409
97	0x39bf2c37	0.00036463302
98	0x3c840ada	0.016118456
99	0x3b0d240e	0.0021536383
100	0xbcc37986	-0.023861658
101	0x3c0fe457	0.008782468
102	0x3c317c62	0.010832878
103	0xbc07ec59	-0.008296096
104	0xbb82a499	-0.0039869067
105	0xbcadae1a	-0.021201182
106	0xbc2d0907	-0.010561234
107	0xbc6e60b6	-0.014549425
108	0x3c52310d	0.012829077
109	0x3bd00bf9	0.0063490835
110	0xbb8aa078	-0.004230555
111	0x3b7ac4ed	0.003826435
112	0x3c683ef7	0.014175168
113	0xbabf95e9	-0.001461682
114	0xbb81ec3c	-0.003964929
115	0x3b28f107	0.002577843
116	0xbc7a9cf3	-0.015296209
117	0xbcc8047d	-0.024416203
118	0xbc8577fa	-0.01629256
119	0x3b4fa433	0.0031683564
120	0x3c05c2c3	0.008164111
121	0x3cfcb827	0.03084953
122	0x3c633344	0.013867203
123	0x3c870cd3	0.016485607
124	0x3b81a492	0.003956386
125	0x3b97e33b	0.0046352423
126	0xbcb61d2a	-0.022230703
127	0xbc87f75b	-0.01659744

conv2.lin.weight f4 [128, 128]
0	0xbbfdbc5f	-0.007743403
1	0x3e18a6b6	0.14907345
2	0xbd2555e6	-0.040365122
3	0xbda622f2	-0.08112134
4	0x3d49d94d	0.0492795
5	0x3d9cfe8a	0.07665737
6	0xbe0cdc65	-0.13755949
7	0xba840e4b	-0.001007506
8	0x3d7b351e	0.061329953
9	0xbdac7941	-0.08421565
10	0x3b05f68a	0.0020441138
11	0x3e396483	0.18104748
12	0x3ce143ed	0.02749821
13	0xbcda0ea8	-0.026618317
14	0x3d93768b	0.07200345
15	0x3dd293c4	0.1028209
16	0xbe530779	-0.2060832
17	0x3db14646	0.08655982
18	0x3dd6c4ae	0.104867324
19	0xbdaa8022	-0.08325221
20	0xbe44d69d	-0.19222493
21	0xbd73fce7	-0.05956736
22	0x3e123fa4	0.1428209
23	0x3dc00e3c	0.09377715
24	0x3e104648	0.1408931
25	0x3df440b7	0.11926406
26	0xbe03b548	-0.12862122
27	0xbe6f506b	-0.23370521
28	0x39bb3c6b	0.00035712434
29	0xbe1c5d16	-0.15269884
30	0xbcc650c8	-0.024208441
31	0x3d1eabc0	0.038738012
32	0x3dff35e2	0.12461449
33	0xbe0bce34	-0.13652879
34	0xbdb08bea	-0.086204365
35	0x3da40a48	0.080097735
36	0xbc782ed9	-0.015147888
37	0xbc04ba83	-0.0081011085
38	0x3da2a9d8	0.079425514
39	0x3d5ecd93	0.05439527
40	0xbc8f8118	-0.017517611
41	0xbd96f83b	-0.07371565
42	0xbe37ff53	-0.17968492
43	0x3e3acd2e	0.18242332
44	0x3e3af354	0.18256885
45	0x3c4e9075	0.012607683
46	0x3e37367a	0.17891875
47	0x3b38d11e	0.0028200815
48	0x3e2f4b61	0.17118599
49	0x3d769663	0.060202014
50	0xbdbbee4a	-0.091763094
51	0x3d221fb0	0.039581
52	0x3e739772	0.2378824
53	0xbdf95319	-0.12174053
54	0x3e03355a	0.12813321
55	0xbca70068	-0.020385936
56	0x3a4bd75a	0.00077759253
57	0x3dc1808f	0.09448349
58	0xbd868b97	-0.065695934
59	0xbc9339da	-0.017971922
60	0x3df85a8e	0.12126647
61	0x3d36c803	0.04462434
62	0x3e14a045	0.14514263
63	0xbcb2b77b	-0.021816006
64	0xbe067142	-0.13129142
65	0xbda6b669	-0.08140261
66	0xbb663349	-0.0035125783
67	0x3e1a65d0	0.15077901
68	0x3cd649a7	0.026158167
69	0xbdaeebe9	-0.0854109
70	0x3a94adbd	0.0011343282
71	0xbcfb738f	-0.030694751
72	0xbc846996	-0.016163629
73	0x3e3f0e04	0.1865769
74	0x3e48d855	0.19613774
75	0xbe019c5d	-0.12657304
76	0x3ded5d52	0.11590065
77	0xbe26f337	-0.16303717
78	0xbe1d829f	-0.15381859
79	0xbd8d4c19	-0.0689928
80	0xbd1d8f89	-0.038466964
81	0xbd99fd04	-0.07518962
82	0xbd58b24c	-0.052904412
83	0xbde5c4d5	-0.11219183
84	0x3e72d8a1	0.2371545
85	0x3e05230c	0.1300165
86	0xbb8d58fb	-0.004313586
87	0xbd81604d	-0.06317196
88	0xbda32fb8	-0.07968086
89	0x3e42bfcc	0.19018477
90	0xbe0ee946	-0.13956174
91	0x3d85c78e	0.06532203
92	0xbe2cfbf4	-0.16892987
93	0xbe3b3817	-0.18283115
94	0x3e2f0284	0.17090803
95	0x3e3067c8	0.1722709
96	0xbdc620a7	-0.09674197
97	0xbe0de0fd	-0.13855357
98	0x3e2c26ff	0.16811751
99	0xbdf8c3aa	-0.12146695
100	0x3c6b6cc5	0.014369194
101	0xbe810754	-0.25200903
102	0xbdcb5740	-0.09928751
103	0xbc19be1c	-0.0093837045
104	0x3e198bda	0.14994755
105	0xbd9f6371	-0.07782639
106	0x3dfe4c29	0.1241687
107	0xbddfed18	-0.10933894
108	0x3db744e4	0.08948687
109	0xbdc816fb	-0.09770008
110	0xbe1f4c4c	-0.15556449
111	0xbe0b26cb	-0.13589017
112	0xbc8640c3	-0.016388303
113	0xbd0470fd	-0.032334317
114	0xbd31c348	-0.043399125
115	0x3e3f6492	0.18690708
116	0x3e1a20eb	0.1505162
117	0xbe33611e	-0.17517516
118	0x3df1bd46	0.11803679
119	0xbcb7e197	-0.022446437
120	0xbe38074c	-0.17971534
121	0xbe025f7e	-0.1273174
122	0xbd71e7b6	-0.059058867
123	0x3e497b93	0.19676046
124	0xbe3cafe2	-0.18426469
125	0x3d6183dc	0.05505739
126	0xbda8f211	-0.082492955
127	0x3dfb4f25	0.12270955
128	0x3d9ea51f	0.07746338
129	0x3e710b3a	0.23539439
130	0x3c816ba7	0.015798403
131	0xbe4c0fac	-0.19927853
132	0xbe44ee99	-0.19231643
133	0xbdf932e7	-0.12167912
134	0xbac43595	-0.0014969582
135	0xbcb97db4	-0.022642948
136	0x3e104024	0.14086968
137	0x3de97380	0.11398983
138	0xbe3f56fc	-0.18685526
139	0xbdd66ba4	-0.104697496
140	0x3e50d402	0.20393375
141	0x3e334fd7	0.17510925
142	0xbd2d04b7	-0.042240825
143	0x3d1900b8	0.0373542
144	0x3cfe4e52	0.031043205
145	0x3cde0f89	0.027107017
146	0x3d161ceb	0.036648672
147	0xbbcb586b	-0.0062056086
148	0x3d898899	0.06715507
149	0xbe24dbeb	-0.16099517
150	0xbbf0e791	-0.0073518236
151	0xbd36877b	-0.044562798
152	0x3ca4bf6f	0.020110814
153	0x3b91a207	0.004444364
154	0x3d87433a	0.06604619
155	0xbdf9c592	-0.12195887
156	0xbd81ad7a	-0.06331916
157	0x3d83693e	0.06416558
158	0xbd884f65	-0.06655768
159	0x3e480290	0.19532228
160	0xbe03830e	-0.12842962
161	0x3bfeb7d0	0.007773377
162	0xbd04feef	-0.032469686
163	0xbcf237eb	-0.02956768
164	0xbe39c635	-0.18142016
165	0x3c3713ed	0.011174184
166	0xbe7f12cf	-0.24909519
167	0xbe719a48	-0.2359401
168	0xbd601dbb	-0.054715853
169	0x3daf6be5	0.08565501
170	0x3dd13493	0.10215106
171	0xbe2e8767	-0.1704384
172	0xbc6c9e6f	-0.01444207
173	0x3cec6e84	0.028861292
174	0xbe0c2c02	-0.13688663
175	0xbba44c4c	-0.005013978
176	0xbdaa4bd5	-0.08315245
177	0x3cc1ae9d	0.023642832
178	0xbd0087d0	-0.03137952
179	0xbe0842a7	-0.13306676
180	0xbdbde2c4	-0.09271768
181	0x3e39c393	0.18141012
182	0xbd6a47c1	-0.057197336
183	0xbcfe65a9	-0.031054335
184	0xbe29934c	-0.16560096
185	0x3e391d89	0.18077673
186	0x3df0b974	0.117541224
187	0xbe47d80a	-0.19516006
188	0xbe485120	-0.19562197
189	0xbbcd753a	-0.006270078
190	0xbe07e7eb	-0.13272063
191	0x3dd23089	0.102631636
192	0x3db1d1d9	0.086826034
193	0x3e1a493f	0.15067004
194	0x3e5d1bad	0.21592589
195	0xbe0ccebc	-0.13750738
196	0xbce03b88	-0.027372137
197	0x3e0685c2	0.13136962
198	0x3ce7ef16	0.028312247
199	0x3e134c76	0.14384636
200	0x3e4df5c7	0.20113288
201	0xbc966d7e	-0.018362757
202	0x3c32f5a3	0.010922822
203	0xbe2f1e38	-0.17101371
204	0xbd00c387	-0.03143647
205	0x3e5674a0	0.20942926
206	0x3cfc5d97	0.030806346
207	0x3d8690eb	0.0657061
208	0x3de9f479	0.114235826
209	0xbdb52508	-0.08844954
210	0x3d387ad6	0.04503902
211	0x3df9f260	0.122044325
212	0x3d5f1a61	0.054468516
213	0x3bb45573	0.0055033504
214	0xbd55d780	-0.05220747
215	0x3dd1b42d	0.10239444
216	0x3e02e3bc	0.12782186
217	0xbdd1f74c	-0.10252246
218	0x3e16a250	0.14710355
219	0x3bbc2f19	0.005742919
220	0xbb14723a	-0.0022651092
221	0xbe5c4380	-0.21510124
222	0xbe0929a6	-0.13394794
223	0x3d9c40a7	0.07629519
224	0x3d8c6200	0.068546295
225	0xbc9a1945	-0.018810878
226	0xbe07afc3	-0.13250642
227	0xbdc0666a	-0.09394534
228	0xbe573c7f	-0.21019171
229	0xbdf62f06	-0.12020688
230	0x3e10ef78	0.1415385
231	0xbe3587d9	-0.17727603
232	0xbdcc9fcc	-0.09991416
233	0xbe21d58e	-0.15804121
234	0x3e1bf90b	0.15231721
235	0x3d1b2b52	0.03788311
236	0xbe114f19	-0.1419033
237	0xbd48c29a	-0.04901371
238	0x3ddb96b5	0.107221045
239	0xbe4f9ab0	-0.20273852
240	0x3dbeec80	0.093224525
241	0x3e30b09c	0.17254871
242	0x3d10b9d2	0.035333462
243	0x3d9d6a41	0.07686282
244	0xbca23189	-0.01979901
245	0xbbe2b29f	-0.006918266
246	0x3da8b555	0.08237711
247	0xbe23c796	-0.15994105
248	0xbdf09de2	-0.11748864
249	0x3daca166	0.08429222
250	0xbdb9542f	-0.0904926
251	0x3bc65996	0.00605316
252	0x3c25cff9	0.010120385
253	0x3bc65554	0.0060526524
254	0x3cd2d295	0.025735179
255	0x3e018764	0.12649304
