pretrained_gnns/PubMed_GraphCL_GCN_1.pth (torch, 324920 bytes, 4 tensors)

conv1.bias f4 [128]
0	0x3b501374	0.0031749876
1	0xbb37f7a5	-0.0028071192
2	0x3ad3b374	0.0016151504
3	0x3bae5357	0.0053199935
4	0x3c3e5523	0.011616978
5	0x3c2e62a9	0.01064364
6	0x3bc60692	0.0060432637
7	0x3bc11ea6	0.005893546
8	0x3b5025ea	0.003176088
9	0x3aea9a6b	0.0017898803
10	0x3a85b77b	0.0010201776
11	0x3c082ad1	0.0083109895
12	0x3af8bbf6	0.0018976915
13	0x3bf7753e	0.007551818
14	0xba625b94	-0.0008634862
15	0x3bd27a41	0.006423265
16	0x3c127498	0.008938931
17	0xbb28dabd	-0.0025765144
18	0x3ba120cd	0.0049172402
19	0x3a18ebec	0.0005833495
20	0x3af7ee0d	0.0018915549
21	0x3ba587ef	0.005051605
22	0x3c273553	0.010205585
23	0x3b893f95	0.004188488
24	0x3bf76c38	0.0075507425
25	0x3b977d51	0.004623093
26	0x3b4b49ee	0.0031019407
27	0x3c2de715	0.010614176
28	0x3b743fd6	0.0037269494
29	0x3bb0149a	0.0053735496
30	0x3acf8def	0.0015835146
31	0x3ba2028f	0.0049441527
32	0x3c1c0daa	0.009524742
33	0x3acf7a63	0.0015829321
34	0x3c17be4d	0.00926168
35	0x3c04b860	0.008100599
36	0x3c27ebe0	0.010249108
37	0x3a31b446	0.0006778877
38	0xbad09083	-0.0015912208
39	0xba2e74e3	-0.0006654991
40	0x3b640435	0.0034792547
41	0x3c351693	0.011052745
42	0x3ad35a69	0.0016124967
43	0x3b84d591	0.0040537794
44	0x39a9b5a2	0.0003236952
45	0x3ba7cf6a	0.005121161
46	0x3c07e209	0.008293637
47	0x3bf4627e	0.0074580302
48	0xba008a2e	-0.0004903403
49	0x3c2f022f	0.010681673
50	0x3be6bd70	0.0070416257
51	0x3becafb1	0.0072230925
52	0x3b28790c	0.0025706915
53	0x3bc07f74	0.0058745686
54	0x3a832a1c	0.0010007056
55	0xbb5c6435	-0.0033629064
56	0x3bb31c00	0.0054659843
57	0x3b74b449	0.0037338904
58	0xb937480c	-0.0001747908
59	0x3c02e7e5	0.007989858
60	0x3c069f35	0.008216669
61	0x3c245521	0.010030062
62	0x3bac62fc	0.0052608233
63	0xba1e148d	-0.0006030284
64	0x3c01d00b	0.007923136
65	0xba8cd41e	-0.0010744368
66	0x3b51505c	0.0031938767
67	0x3c27f07d	0.010250208
68	0x3c5890b1	0.013218091
69	0x3c3d17a3	0.01154128
70	0x39abeb50	0.00032790983
71	0x3bd30ddc	0.006440861
72	0x3b631de9	0.003465528
73	0x3baaf8dd	0.005217655
74	0x3b0049fd	0.001957535
75	0x3b998d43	0.004686029
76	0x3b2996ab	0.0025877159
77	0x3bb60831	0.0055551757
78	0x3bf080cb	0.007339572
79	0xba6d6f8b	-0.0009057454
80	0x3a2f827b	0.00066951633
81	0x3b514b9f	0.0031935943
82	0x3c29290f	0.010324731
83	0x3bab1c15	0.0052218535
84	0x3c08d99d	0.008352664
85	0x3c035430	0.008015677
86	0xb97924a6	-0.00023760143
87	0x3c346cf5	0.0110123055
88	0x3b791380	0.0038006008
89	0x3b1bc1f8	0.0023766737
90	0xba399383	-0.0007079171
91	0x3aa1736f	0.0012317727
92	0x3bcc08b2	0.0062266225
93	0x3be56210	0.0070002154
94	0x3b3966d5	0.0028290052
95	0x3a2add91	0.00065180013
96	0xbb3ddbb8	-0.0028970074
97	0xba3f2f38	-0.0007293108
98	0x3be16561	0.0068785404
99	0x3bca7c69	0.0061793816
100	0x3b40a7af	0.0029396822
101	0x3c2def4a	0.010616133
102	0xbb84e735	-0.0040558823
103	0x3bc82f5d	0.006109162
104	0x3b1bfd64	0.0023802156
105	0x3aacd467	0.001318586
106	0x3b90c733	0.0044182776
107	0x3bd58416	0.00651599
108	0x3b8e9f01	0.004352451
109	0x3b52025b	0.003204486
110	0x3be46544	0.0069700796
111	0xbabc718c	-0.0014377101
112	0x3b576af8	0.0032870155
113	0x3b0f9e33	0.0021914362
114	0x3bde97dd	0.006793006
115	0x3c600ced	0.013674957
116	0x3c4e80e9	0.012603977
117	0x3b865b0b	0.0041002086
118	0x3c1bb9af	0.00950472
119	0x3b920f1a	0.0044573667
120	0x3bde7329	0.0067886305
121	0x3c733232	0.01484351
122	0x3be67b36	0.007033731
123	0x3a9431fd	0.0011306402
124	0x3bb7d465	0.005610036
125	0x3985cc93	0.00025520156
126	0x3bddda3f	0.0067704017
127	0x3ba22a9b	0.0049489266

conv1.lin.weight f4 [128, 500]
0	0xbc7cc7b2	-0.01542847
1	0x3d38865d	0.045050014
2	0x3d28e2bd	0.04123186
3	0xbc9fe6af	-0.019519178
4	0x3d8e8343	0.0695863
5	0xbcdba33a	-0.02681123
6	0xbc9569c6	-0.018238913
7	0x3cfbc3b4	0.030732967
8	0xbd093520	-0.03349793
9	0xbc827b70	-0.015928
10	0xbd981edb	-0.0742776
11	0xbcc9245e	-0.024553474
12	0xbd37c8cf	-0.04486924
13	0x3c831e2a	0.016005594
14	0xbce481f4	-0.027893998
15	0x3c9c5716	0.019084495
16	0xbdb8c6af	-0.09022271
17	0xbd257371	-0.040393297
18	0x3d59904c	0.053116128
19	0x3cffa45d	0.031206304
20	0x3dbcf122	0.0922568
21	0x3dcf348b	0.10117444
22	0x3d358228	0.04431358
23	0xbcebeb90	-0.028798848
24	0x3da59662	0.08085324
25	0x3a37a131	0.00070049154
26	0x3bc2435f	0.0059284414
27	0x3b04f24b	0.002028602
28	0xbc52e6f1	-0.012872444
29	0x3cf933ad	0.030420149
30	0xbdd607f4	-0.10450736
31	0x3d16de4b	0.03683309
32	0xbd2bf691	-0.04198319
33	0x3caee01c	0.021347098
34	0x3a72f9c1	0.00092687836
35	0x3c5b1aaa	0.013373056
36	0x3c7a2846	0.015268391
37	0xbcfe6856	-0.03105561
38	0x3d8952d0	0.06705248
39	0xbd9bb7fb	-0.07603451
40	0xbd5d8050	-0.054077446
41	0x3c41f8a9	0.01183907
42	0x3d56631a	0.052340604
43	0x3dc24158	0.094851196
44	0xbd5dfbe1	-0.05419529
45	0xbb8c8ea9	-0.0042894674
46	0xbcd2323c	-0.02565872
47	0x3dee1ce0	0.11626601
48	0x3daaae47	0.08334022
49	0xbca2c106	-0.019867431
50	0xbd98c637	-0.074596815
51	0xbe133278	-0.14374721
52	0xbd1eb28a	-0.038744487
53	0xbd324bc4	-0.043529287
54	0xbd025727	-0.031821396
55	0xbd6706fd	-0.05640315
56	0xbc22392f	-0.009901329
57	0x3d1cb9f5	0.03826328
58	0xbcd4d9ed	-0.025982821
59	0xbdc704d9	-0.097177215
60	0xbc8964fd	-0.016771788
61	0xbcba5043	-0.02274335
62	0xbc0e31e4	-0.008678887
63	0xbdaba78c	-0.083815664
64	0x3d796c02	0.06089402
65	0xbb897106	-0.0041943816
66	0x3d28639d	0.041110624
67	0xbd3d9d03	-0.046292316
68	0x3e0173b6	0.12641796
69	0x3ca75c0c	0.020429634
70	0x3de09abe	0.10967015
71	0x3c39dab0	0.011343643
72	0xbdc35304	-0.09537318
73	0xbd20ca74	-0.039255574
74	0x3bce6baa	0.0062994557
75	0xbda901ba	-0.082522824
76	0x3dad43ee	0.08460222
77	0xbcb36726	-0.021899771
78	0x3bfb85bc	0.0076758545
79	0xbd3393e3	-0.043842208
80	0x3c597107	0.013271577
81	0xbbf1b0c5	-0.007375809
82	0x3ddbfd14	0.1074163
83	0xbcbf0e36	-0.023322206
84	0x3d5870bf	0.052841898
85	0xbdc00be5	-0.09377269
86	0xbd97d37e	-0.07413386
87	0x3c87aa19	0.016560601
88	0x3de9e29b	0.11420175
89	0x3d8c66fb	0.068555795
90	0x3dc34fb0	0.095366836
91	0xbcdf1489	-0.027231472
92	0xbc36b201	-0.011150838
93	0x3bf02ccb	0.0073295585
94	0xbc83ad5e	-0.016073879
95	0x3cd3e4f7	0.025866015
96	0xbd2c7efa	-0.04211328
97	0x3cfe62da	0.031052995
98	0xbd47345b	-0.048633914
99	0xbd44f71f	-0.048087236
100	0x3c20d9c0	0.009817541
101	0xbdc4de4d	-0.09612713
102	0x3d8e5c66	0.06951217
103	0xbad5d642	-0.0016314464
104	0xbe0745cd	-0.1321022
105	0xbd471772	-0.048606344
106	0xbd1bfbce	-0.038081937
107	0xbcf340ca	-0.02969398
108	0xbd78e873	-0.060768556
109	0xbca5026c	-0.020142756
110	0x3d2ee85f	0.042702075
111	0xbd62f363	-0.055407893
112	0x3cc40e87	0.023932708
113	0xbd17de37	-0.037077155
114	0x3df07130	0.11740339
115	0x3d67ca88	0.056589633
116	0x3d963b24	0.07335499
117	0xbd9cbadb	-0.07652827
118	0xbd00e123	-0.031464707
119	0x3d5e93e9	0.054340277
120	0x3db861e2	0.09003045
121	0x3d0779f5	0.03307529
122	0xbcd53836	-0.02602778
123	0x3ba6d0bd	0.0050908015
124	0xbd7e8878	-0.062141865
125	0x3cf41427	0.029794766
126	0x3d41de83	0.047331344
127	0xbc4036e3	-0.011731836
128	0x3d9fa62a	0.07795365
129	0x3bcac078	0.006187495
130	0xbd282edd	-0.041060317
131	0xbd46cbb2	-0.048534103
132	0x3cbd4839	0.023105728
133	0x3ddc1f28	0.1074813
134	0x3d1f1474	0.038837865
135	0xbd44d4f1	-0.04805464
136	0x3c9e0cf9	0.019293295
137	0x3df22e5c	0.118252486
138	0xbdc45f6d	-0.095885135
139	0xbd9484f7	-0.072519235
140	0xbcd75df9	-0.026289927
141	0xbd366e0b	-0.04453854
142	0xbdb5ae16	-0.08871095
143	0x3c9835b1	0.01858029
144	0x3db9ad3c	0.09066245
145	0xbcaf1693	-0.021373069
146	0x3ce365f6	0.02775858
147	0xbd3ec115	-0.046570856
148	0x3c947637	0.018122775
149	0xbd63394e	-0.055474572
150	0x3c3f928b	0.011692653
151	0x3d2545e9	0.040349875
152	0x3dad7e05	0.08471302
153	0x3d86333c	0.06552741
154	0x3d495d8e	0.049161486
155	0xbbf00a88	-0.007325474
156	0xbd841216	-0.06448762
157	0x3d0078ca	0.031365193
158	0xbc7bb757	-0.015363536
159	0xbc44432b	-0.011978905
160	0xbce1d900	-0.027569294
161	0xbd73fae3	-0.059565436
162	0xbdb8a61a	-0.09016056
163	0xbd70bfef	-0.058776792
164	0xbe0a278c	-0.13491648
165	0xbd56face	-0.05248528
166	0xbd896649	-0.067089625
167	0x3cd2fc06	0.02575494
168	0xbd49222b	-0.04910485
169	0xbc9b7ad3	-0.018979466
170	0xbdaee07f	-0.08538913
171	0x3cd5a7b2	0.02608094
172	0x3c9ec746	0.01938213
173	0x3cc98336	0.024598699
174	0x3dd7bb98	0.105338275
175	0xbd9547a7	-0.07289057
176	0x3c65d7c8	0.014028497
177	0x3d4f9e9c	0.05068837
178	0xbd8274d7	-0.06369942
179	0x3dc0198d	0.093798734
180	0x3ddd87d5	0.108169235
181	0x3db6b4c8	0.089212
182	0xbc95f7d7	-0.018306656
183	0xbce71cef	-0.028212039
184	0x3ca2e3e5	0.01988406
185	0x3d917982	0.07103254
186	0xbd9a81a2	-0.07544257
187	0xbd35ccb8	-0.04438469
188	0x3d2501f1	0.040285055
189	0xbd2410fa	-0.040055253
190	0x3cd9b12d	0.026573742
191	0xbdca3910	-0.09874165
192	0x3bc71657	0.006075661
193	0x3c904118	0.017609164
194	0x3cbf3c74	0.023344256
195	0x3c2c6bf9	0.01052379
196	0xbc87184e	-0.016491082
197	0x3d65e998	0.056130975
198	0xbd112b9c	-0.03544198
199	0xbdcf7629	-0.10129959
200	0x3dac3958	0.08409375
201	0x3d89e95a	0.067339614
202	0x3d6ff396	0.05858191
203	0x3c73d5aa	0.014882484
204	0xbd26d723	-0.040732514
205	0x3c5d4ed3	0.013507563
206	0x3d01a373	0.031650018
207	0x3d9cfaf3	0.07665052
208	0x3d8e468a	0.06947048
209	0xbc96e2a1	-0.018418612
210	0x3e139678	0.14412868
211	0xbc696a9f	-0.014246612
212	0x3d959158	0.07303113
213	0x3d69ae8d	0.05705123
214	0xbca42c81	-0.020040752
215	0x3d4b601d	0.049652208
216	0xbd80705e	-0.06271432
217	0xbc695892	-0.014242308
218	0x3b8cb97c	0.0042945724
219	0xbd5bc9b4	-0.053659156
220	0x3e1f24ea	0.15541425
221	0x3d98d50d	0.07462511
222	0x3bc69127	0.006059784
223	0xbd6598a9	-0.05605379
224	0x3d6605ef	0.056158002
225	0xbd8910d0	-0.0669266
226	0x3d487606	0.04894068
227	0xbc27c94f	-0.010240867
228	0xbd6731dc	-0.056444034
229	0x3def8ec5	0.11697153
230	0xbc6e894e	-0.014559103
231	0xbd6e0ae0	-0.05811584
232	0xbd2119b5	-0.039331157
233	0xbcf5d571	-0.030009003
234	0x3c485659	0.012227618
235	0xbd5d924c	-0.054094598
236	0xbd8955fe	-0.06705855
237	0x3dd2a8e1	0.10286117
238	0xbced9d52	-0.02900568
239	0xbdcfa1e1	-0.10138298
240	0xbd6cc690	-0.05780655
241	0x3da2267b	0.07917496
242	0xbd788b53	-0.060679745
243	0xbdd88e8c	-0.10574064
244	0xbdd37275	-0.10324565
245	0x3e1776e3	0.14791445
246	0xbcb54889	-0.022129314
247	0x3c6ea620	0.0145659745
248	0xbd9df385	-0.07712463
249	0xbe0d7221	-0.13813068
250	0x3dbe4722	0.09290911
251	0xbd9b6f12	-0.07589544
252	0x3db23f78	0.08703512
253	0xbcd263fd	-0.025682444
254	0x3e10eef4	0.14153653
255	0xbd78a33c	-0.060702547

conv2.bias f4 [128]
0	0xb9aaffa5	-0.00032615397
1	0xbb26b132	-0.0025435206
2	0x3c429f4a	0.011878798
3	0x3af06b25	0.0018342478
4	0x3a849b82	0.0010117146
5	0x3b88ba65	0.0041726106
6	0x3ca0ea26	0.0196429
7	0xbc1f21a1	-0.009712608
8	0xbc0c7fa3	-0.008575353
9	0xbb04a31e	-0.0020238827
10	0xbbde78b8	-0.006789293
11	0x3891b5bf	6.947992e-05
12	0x39f6abf9	0.00047048906
13	0xbc53b737	-0.0129221
14	0xbbc5421a	-0.006019843
15	0x3af02fa3	0.0018324744
16	0x3b7e676f	0.0038818975
17	0xbc25abc9	-0.010111758
18	0xbb888971	-0.004166775
19	0x39fbf02c	0.00048053393
20	0x3c009091	0.007846967
21	0xbc179ba0	-0.0092534125
22	0xbbd04c54	-0.0063567553
23	0x3c37d6f0	0.011220679
24	0x3b16a1cf	0.002298463
25	0x3ba89730	0.005144976
26	0xbb996625	-0.004681366
27	0xbb12d4a2	-0.002240457
28	0x3a4a7902	0.000772372
29	0x3bef311c	0.0072995555
30	0x3c1e6429	0.009667435
31	0x3c2ca3e5	0.010537122
32	0x3b916f3c	0.004438309
33	0xbc61bc78	-0.013777845
34	0x3b50a18d	0.0031834573
35	0x3b575852	0.003285904
36	0x3bb91df5	0.005649323
37	0x3b42031a	0.00296039
38	0x3bfb0392	0.0076603377
39	0xbc3f01c1	-0.011658133
40	0xbb2e9d46	-0.0026644035
41	0xbba0f1a0	-0.0049116164
42	0xbb8085a7	-0.0039221826
43	0x3b8bf5d9	0.0042712507
44	0x3c072d27	0.008250511
45	0x3c376125	0.011192595
46	0xbc8e5e58	-0.017378971
47	0x3c1c2b4f	0.00953181
48	0xbaec8534	-0.0018045069
49	0x3ba0cefb	0.0049074865
50	0x3c1f11fd	0.009708879
51	0xbb47fbff	-0.0030515192
52	0x3b16a29a	0.0022985102
53	0xbb4bd08c	-0.0031099645
54	0xbba5e906	-0.005063179
55	0xbbc3d30c	-0.0059760865
56	0xba422e25	-0.0007407389
57	0xbbc140b2	-0.005897605
58	0x3b2bbcea	0.002620513
59	0xbb495605	-0.0030721438
60	0xbb20233b	-0.0024435061
61	0xbbd9d4ca	-0.006647681
62	0xbc39214b	-0.011299442
63	0x3b8a565c	0.0042217206
64	0x3b859479	0.004076537
65	0xbaab0723	-0.0013048392
66	0x3c678502	0.014130833
67	0xbc03f441	-0.00805384
68	0x3b3ef210	0.002913598
69	0xbbb16ce7	-0.0054145935
70	0xbc8bd451	-0.017069014
71	0xbc8e0480	-0.01733613
72	0xbae64b68	-0.001757008
73	0x3b048c6f	0.0020225307
74	0xbb446695	-0.002996837
75	0xbbfdb11c	-0.0077420603
76	0x3c231c37	0.009955457
77	0xb92331a7	-0.00015563388
78	0xbca26e54	-0.019828
79	0xbb89e39f	-0.0042080428
80	0xbc467bfe	-0.012114523
81	0xba60d625	-0.0008576832
82	0x3bcdf640	0.006285459
83	0x3b054a12	0.0020338339
84	0x3ac14e52	0.0014748073
85	0x3bad8216	0.0052950485
86	0x3c2689bf	0.010164677
87	0x3ac5f360	0.0015102439
88	0xbbc307b3	-0.0059518456
89	0xbb60eba4	-0.003432014
90	0x3b6aac23	0.0035808168
91	0x3bee59f2	0.007273906
92	0x3bdc01a9	0.006714065
93	0xb81ea3ca	-3.7822676e-05
94	0xbbe33b04	-0.0069345254
95	0x3bea0765	0.007141995
96	0xb9e5574f	-0.00043743334
97	0x3c2c1577	0.0105031645
98	0x3c0c5768	0.008565761
99	0x3ba34aa0	0.004983261
100	0xbbb772c0	-0.005598396
101	0x3bceb387	0.0063080224
102	0x3b8c64b5	0.004284466
103	0xbc46b519	-0.012128138
104	0x3bca055b	0.006165189
105	0x39822446	0.00024822558
106	0x3bae2226	0.0053141294
107	0xbaaeb09b	-0.0013327779
108	0xbafe00e7	-0.0019378931
109	0x3c0e0331	0.008667753
110	0x3b64b27f	0.003489643
111	0x3cb597de	0.022167142
112	0xbb3fa991	-0.0029245357
113	0xbb98a456	-0.0046582622
114	0x3bbd03ff	0.0057682986
115	0x394cc7dc	0.0001952941
116	0x3b89bac9	0.0042031747
117	0x3985107b	0.00025380016
118	0xbbb650d5	-0.005563835
119	0x3abc7e9a	0.0014380992
120	0xbaa5d10e	-0.0012650804
121	0xbb1ba86c	-0.002375151
122	0x3bdd9bb8	0.006762948
123	0x3c56939d	0.013096717
124	0x3bf5dd49	0.007503186
125	0x3ba5eaf8	0.005063411
126	0xbba1af70	-0.004934244
127	0x3b0c44ce	0.0021403315

conv2.lin.weight f4 [128, 128]
0	0xbc3a3055	-0.011364062
1	0x3e07e465	0.1327072
2	0xbd1b644e	-0.037937455
3	0xbcef057c	-0.02917742
4	0xbcbcd6fc	-0.023051731
5	0x3b722253	0.0036946728
6	0xbe0c1d4b	-0.1368305
7	0xbd896c13	-0.06710067
8	0x3d07bfa4	0.033141747
9	0xbe111dea	-0.14171568
10	0xbe0ae894	-0.13565284
11	0x3d97569b	0.073895656
12	0x3d8b3cd9	0.06798715
13	0xbdc48166	-0.09594993
14	0x3dd10804	0.10206607
15	0x3db6a483	0.08918097
16	0xbdfe094b	-0.12404116
17	0x3e1085eb	0.14113586
18	0x3df3951d	0.118936755
19	0xbda8c71f	-0.08241104
20	0xbdf36ad0	-0.11885607
21	0xbd1e6a35	-0.038675506
22	0x3e136231	0.14392926
23	0x3cb2c778	0.02182363
24	0x3d00b5f6	0.03142353
25	0x3d92aa1c	0.07161352
26	0xbc77e162	-0.015129419
27	0xbe1bf73b	-0.1523103
28	0x3c1a660c	0.009423744
29	0xbde429e3	-0.11140802
30	0xbb8b557f	-0.0042521353
31	0xbc3bc1b5	-0.011459758
32	0x3dff700b	0.124725424
33	0xbdc86eec	-0.09786782
34	0xbe131c4b	-0.14366262
35	0x3ddcf65d	0.107891776
36	0xbdcd15e8	-0.10013944
37	0xbd21964f	-0.039449986
38	0x3db624c9	0.08893735
39	0x3d3b3f62	0.045714743
40	0x3c2d027b	0.010559673
41	0xbdb7990d	-0.08964739
42	0xbe069d3a	-0.13145915
43	0x3deaf9fc	0.11473462
44	0x3df51a7f	0.11967944
45	0x3dcfced8	0.10146874
46	0x3e138312	0.14405468
47	0xbda3e445	-0.08002523
48	0x3e0359ad	0.12827177
49	0x3d37558f	0.04475933
50	0xbdf189f4	-0.117938906
51	0xbdac3af4	-0.08409682
52	0x3e0bfd5d	0.13670869
53	0xbe395fd3	-0.1810296
54	0x3dc13c81	0.09435368
55	0x3c67d7b6	0.014150551
56	0xbd39f4c6	-0.04539945
57	0x3d25fe83	0.040525924
58	0xbd5e59b0	-0.05428475
59	0xbdb2d537	-0.08732074
60	0x3d4d51fa	0.050127007
61	0x3cbe7496	0.023248952
62	0x3e09dffe	0.13464352
63	0x3b403b1e	0.0029332112
64	0xbde900b2	-0.11377086
65	0xbd97c4f9	-0.074106164
66	0xbcb3ba7e	-0.021939512
67	0x3d635a6f	0.055506166
68	0xba12e7f9	-0.00056040246
69	0x3b808f9a	0.0039233686
70	0x3d3f4481	0.04669619
71	0xbd47ab7e	-0.048747532
72	0x3d89d0b2	0.067292586
73	0x3de8e1b3	0.11371174
74	0x3e348cf8	0.176319
75	0xbdea7e52	-0.11449875
76	0x3ded3adc	0.11583492
77	0xbdfa6454	-0.12226167
78	0xbe0cc07d	-0.13745303
79	0xbdddca40	-0.10829592
80	0xbdf7fe6b	-0.12109073
81	0x3c66796c	0.014067035
82	0x3cadf96c	0.021237098
83	0xbe4006ec	-0.1875264
84	0x3e0b020e	0.13575003
85	0x3db55737	0.088545255
86	0xbc52f6ca	-0.012876222
87	0xbdd4dd36	-0.10393755
88	0xbca7de91	-0.02049187
89	0x3e35e68e	0.17763731
90	0xbdc75677	-0.09733289
91	0x3d1c8aba	0.038218237
92	0xbe1aa8b7	-0.15103422
93	0xbe1e2b61	-0.15446235
94	0x3e0ac288	0.1355077
95	0x3e3505b2	0.17677954
96	0xbdf1c81b	-0.11805745
97	0xbe0a0c62	-0.13481286
98	0x3d2848fb	0.041085225
99	0xbe16aed6	-0.14715132
100	0xbd53112c	-0.05153005
101	0xbe285785	-0.16439636
102	0xbd670699	-0.056402776
103	0xbc035c38	-0.008017592
104	0x3daea6fe	0.08527945
105	0x3b3ff12b	0.0029288034
106	0x3ddde8c0	0.10835409
107	0xbdc265a0	-0.0949204
108	0x3cff9ef9	0.031203734
109	0xbd7d7628	-0.06188026
110	0xbdc51ed7	-0.09625023
111	0xbde7d995	-0.11320797
112	0xbdfeacd9	-0.12435312
113	0xbd2ac255	-0.041689236
114	0xbd043c5c	-0.032284126
115	0x3d83248f	0.064034574
116	0x3de1cf2a	0.110258415
117	0xbe0cf222	-0.13764241
118	0x3db229b4	0.086993605
119	0xbd8925b4	-0.066966444
120	0xbe08da2e	-0.13364479
121	0xbe1ef19c	-0.15521854
122	0x3cced3dd	0.025247509
123	0x3de96f20	0.113981485
124	0xbe064ec6	-0.13115987
125	0x3d2095e4	0.039205447
126	0xbcf4025f	-0.029786287
127	0x3d96b818	0.07359332
128	0x3d8f4553	0.069956444
129	0x3e3318a3	0.17489867
130	0x3ca7246c	0.02040311
131	0xbdf21297	-0.11819952
132	0xbd9f6e5a	-0.0778472
133	0xbceb513d	-0.02872526
134	0x3cd3dd67	0.025862409
135	0x3d5c76ab	0.053824108
136	0x3dad724e	0.084690675
137	0x3dd33ed5	0.10314719
138	0xbde91348	-0.11380631
139	0xbd44bf4f	-0.04803401
140	0x3e29e7c3	0.16592316
141	0x3e2b4886	0.16726884
142	0xbd853100	-0.06503487
143	0x3da2e883	0.07954504
144	0x3cfc3542	0.030787114
145	0x3d9bc455	0.07605807
146	0xbca1d4ea	-0.019754846
147	0x3ceabdb0	0.028654903
148	0x3d94eada	0.07271357
149	0xbd265ae7	-0.040614035
150	0x3cc166e2	0.023608629
151	0x3d28d8fe	0.041222565
152	0x3cccb60b	0.024989149
153	0xbc31cdd1	-0.010852293
154	0x3d00adba	0.03141568
155	0xbe0ff881	-0.1405964
156	0xbcd50b08	-0.026006237
157	0x3c9558cd	0.01823082
158	0xbce84ef3	-0.028357958
159	0x3e2b2d33	0.16716461
160	0x3a29a476	0.0006471345
161	0x3bec914d	0.0072194696
162	0xbb3d3862	-0.0028872718
163	0xbd8728e6	-0.06599598
164	0xbdde63de	-0.10858892
165	0x3d36fb8b	0.044673484
166	0xbe0d6744	-0.13808924
167	0xbe40b6ee	-0.18819782
168	0xbd2bc31f	-0.04193413
169	0x3e026b78	0.12736309
170	0x3c8d1bd3	0.017225182
171	0xbd9951a5	-0.074862756
172	0xbcbc8b41	-0.02301562
173	0xbd7d84d3	-0.06189425
174	0xbdf12a21	-0.117756136
175	0x3d9127d5	0.070876755
176	0xbd050f58	-0.032485336
177	0x3cb2c60a	0.021822948
178	0xbda461f9	-0.08026499
179	0xbe13f3c1	-0.14448453
180	0x3c94c8b2	0.018162105
181	0x3df3b17a	0.11899085
182	0xbb4ddf2e	-0.0031413543
183	0xbd734ca0	-0.059399247
184	0xbe11e20e	-0.1424639
185	0x3e339be5	0.17539938
186	0x3d929e89	0.071591444
187	0xbd48f8c0	-0.04906535
188	0xbdf3b17a	-0.11899085
189	0x3ce1efbf	0.02758014
190	0xbd975d57	-0.0739085
191	0x3d28b48d	0.04118781
192	0x3d72ab9a	0.059245683
193	0x3da865ba	0.08222528
194	0x3e2f7643	0.17134957
195	0xbe059278	-0.13044155
196	0x3d383be1	0.04497898
197	0x3e0c3094	0.13690406
198	0x3d841599	0.06449432
199	0x3e0b277b	0.1358928
200	0x3e095d11	0.13414408
201	0xbbad3fef	-0.0052871625
202	0x3df0cce7	0.11757832
203	0xbe188cc7	-0.14897452
204	0x3c9fe4ea	0.019518334
205	0x3e373ce2	0.17894319
206	0x3d867bc0	0.06566572
207	0x3cad81dd	0.021180088
208	0x3dd03772	0.10166825
209	0xbd06f081	-0.032944206
210	0x3c6dc75c	0.014512863
211	0x3e02f67f	0.12789343
212	0x3dc4fdb9	0.09618706
213	0x3dd117b7	0.10209601
214	0xbd7447e0	-0.059638858
215	0x3da9ce5f	0.08291315
216	0x3e07d324	0.13264138
217	0xbe069f95	-0.13146813
218	0x3e1e0f70	0.15435576
219	0x3dbe2fe9	0.09286482
220	0xbca483eb	-0.020082435
221	0xbe13e162	-0.14441445
222	0xbde3d543	-0.11124661
223	0x3d28ea9a	0.04123936
224	0x3d4786ad	0.04871242
225	0x3ca6dbaf	0.020368425
226	0xbdc93306	-0.09824185
227	0x3c9ba023	0.018997258
228	0xbdec0d80	-0.115260124
229	0xbdae3f02	-0.085081115
230	0x3e18a863	0.14907984
231	0xbdecfc99	-0.11571617
232	0xbc74e265	-0.014946555
233	0xbe024f4c	-0.12725562
234	0x3e1e7731	0.15475155
235	0x3dc755a9	0.09733135
236	0xbca8684b	-0.020557543
237	0x3d083af3	0.033259343
238	0x3d9f3054	0.0777289
239	0xbe0e4cd9	-0.13896503
240	0x3dcca072	0.0999154
241	0x3de4cdba	0.11172052
242	0x3ccfc023	0.025360173
243	0x3e45a480	0.19301033
244	0xbd7d0397	-0.061771
245	0xbd4f24f5	-0.050572354
246	0x3d4b5ba8	0.049647957
247	0xbdd63370	-0.1045903
248	0xbd8008fa	-0.06251712
249	0x3d77c6c0	0.060492277
250	0xbda13df7	-0.07873147
251	0x3cb9c548	0.022677079
252	0x3d2ea75f	0.042640086
253	0x3d453dfd	0.04815482
254	0x3cd47187	0.02593304
255	0x3dc2b3bb	0.09506937
