pretrained_gnns/PubMed_EdgePredGPPT_GCN_1.pth (torch, 325024 bytes, 4 tensors)

conv1.bias f4 [128]
000000 5f 28 93 3d 44 bf 68 3d 9b 51 b6 bc e3 ad 6f 3d
       0.071854346 0.05682303 -0.02225571 0.05851544
000010 27 76 9b 3d bd 07 86 3d 48 d9 c5 3d 64 a0 4d 3c
       0.07590895 0.06544445 0.09660584 0.012550447
000020 74 92 cf 3d 12 e3 81 3d a5 13 27 bc 40 54 07 bd
       0.101353556 0.06342138 -0.010197555 -0.03303933
000030 ce 5c 9b bd ee 19 9d 3d 0e 20 c2 3d 0b c5 40 3d
       -0.075860605 0.07670961 0.0947877 0.047062915
000040 22 f5 0d bd 14 55 5b bd e4 dd 57 3d c4 0a 81 bd
       -0.034657605 -0.053547934 0.052701846 -0.063008815
000050 56 1b b6 3d 96 bf 43 3d 91 44 8f 3d 84 78 8b 3d
       0.08891933 0.047790132 0.069955 0.06810096
000060 97 d1 85 3d 6a 41 90 3d 40 c1 58 bd ef dc 53 3d
       0.06534117 0.07043727 -0.052918673 0.05172437
000070 e9 f9 49 3d 45 ac 91 3d 35 0f 48 3d a9 45 ab ba
       0.0493106 0.07112936 0.048842628 -0.0013067025
000080 e2 09 88 bd 27 b6 79 3d 57 34 a6 3d 51 8c 7f 3d
       -0.0664251 0.06096473 0.08115452 0.062389676
000090 6c 58 3d 3d 76 2a 9e 3d 4d 08 9c 3d 7a cd 92 bb
       0.046226904 0.077229425 0.07618771 -0.004480061
0000a0 bf 5f b9 3d 29 74 bd bc 28 17 69 3d 28 75 86 bd
       0.09051465 -0.023126679 0.05690685 -0.065653145
0000b0 19 a4 83 3d 01 74 48 bd f4 ef e8 3c 0c 66 8e 3d
       0.064277835 -0.048938755 0.028434731 0.06953058
0000c0 da b6 bf 3d b2 7f da 3d a5 3d 18 bd 2f 1f 8b 3d
       0.09361048 0.10668887 -0.037168164 0.06793057
0000d0 de b0 be 3d 7d 83 5e 3d 7c 62 13 bd cf c6 5f bd
       0.093110785 0.054324616 -0.035982594 -0.054632958
0000e0 84 e8 fd 3b 1a f1 0e 3d 21 01 04 bd c4 f8 6f 3d
       0.0077486653 0.0348979 -0.03222764 0.05858685
0000f0 ea 7d d7 bc 9f cf ad 3d 76 e8 43 3c e9 9a e2 3c
       -0.026305158 0.08486866 0.0119572785 0.027661758
000100 ff c8 90 3d 51 36 8b 3d 13 2b 95 bc fe 53 bd 3d
       0.07069587 0.067974694 -0.018209016 0.09244536
000110 58 7e 6d 3d 66 25 83 3d 7e cc c6 3d 51 fe a2 3d
       0.05798182 0.064036176 0.097069725 0.07958663
000120 43 bb 12 bd 54 1f b3 3d 83 ba 1c 3d 60 6b c4 bc
       -0.035823118 0.0874621 0.03826381 -0.023976982
000130 30 12 71 3d 1a 8c 97 3d dc c8 ad bc 08 75 e9 3c
       0.058855236 0.07399769 -0.021213941 0.028498188
000140 9a dd 24 3d 3c 79 f5 3c 48 3f c6 3d b3 a9 ac 3d
       0.0402504 0.029965036 0.09680039 0.08430805
000150 0e 37 66 3d 26 2e 9f 3c 4c 76 9e bd e7 f6 8b 3d
       0.056204848 0.019431185 -0.07737407 0.06834202
000160 b1 d0 76 bd fd 7a 4b 3d 7a ab 8b 3d ad 83 b8 3d
       -0.060257617 0.049677838 0.06819816 0.0900949
000170 56 21 9c 3d a5 16 af 3d 9a 0d c2 3d 8b a7 a2 3d
       0.07623546 0.08549241 0.094752505 0.079421125
000180 29 d4 c0 3d 76 dc 65 3a 66 82 94 3d a7 d2 71 3d
       0.09415466 0.0008768508 0.07251434 0.059038784
000190 d1 ae bf 3d d2 b9 0d 3d d5 bc a5 bd 0b 15 d5 3b
       0.093595155 0.03460104 -0.080926575 0.0065027527
0001a0 6b 63 8f bd 7b ad 98 3c 86 17 b8 3d c5 8f 42 3d
       -0.07001384 0.01863741 0.08988862 0.04750039
0001b0 59 c6 a2 3d d2 39 87 3d 92 ef 36 bd 5d a9 3a 3d
       0.07947988 0.06602825 -0.044662066 0.045571674
0001c0 cc 79 85 3d d8 cb b1 3d 62 a4 c9 3d d6 3b bc bc
       0.065173715 0.08681458 0.09845807 -0.02297775
0001d0 93 a2 19 bd 1c f6 85 3d 7e 04 76 3c 4b 69 95 bd
       -0.03750856 0.06541082 0.015015719 -0.07295474
0001e0 b9 b8 7d 3d 38 80 63 3d 3c 7b 28 bd 19 a3 ff 3c
       0.061943743 0.0555422 -0.04113315 0.0312057
0001f0 55 ea 33 bd f3 e7 bc 3d 27 91 7e 3d 03 88 96 3d
       -0.04392465 0.09223928 0.062150147 0.07350161

conv1.lin.weight f4 [128, 500]
000000 86 54 09 bd a8 82 0b 3d 11 9a 9e 39 c3 f9 6e bd
       -0.033527873 0.03406015 0.00030250897 -0.05834366
000010 56 92 6a 3d 94 67 66 3c 45 2a 9c bd 75 1d 19 bd
       0.057268463 0.014062781 -0.0762525 -0.037381608
000020 ad f7 bd bc 53 a4 fb bc cc 66 9e bd 28 0a 1d bd
       -0.02318939 -0.030718004 -0.07734451 -0.038339764
000030 14 6b ac bd 88 9b 24 bd 51 75 e5 bd a4 2a af 3c
       -0.08418861 -0.04018739 -0.11204017 0.021382637
000040 ef 06 eb bd 91 d8 82 bd fe c2 af 3d d2 c9 c0 3d
       -0.11475932 -0.06388963 0.08582114 0.09413494
000050 90 e6 83 3d a4 e3 a6 3d 8f 66 07 3e cf f5 a7 bd
       0.06440461 0.08148888 0.13222717 -0.08201181
000060 ce 63 8c 3d cb 36 27 3d 88 9d e9 bb b3 32 8a 3d
       0.06854974 0.04082374 -0.007129375 0.06747951
000070 94 3d 03 3d fb 07 17 3d b1 c6 0f be 06 4f 9f 3d
       0.032041147 0.036872845 -0.14040639 0.077787444
000080 1c 11 1c bd 84 c3 1b bd e7 ff 9b bc ca 46 ef 3c
       -0.038102254 -0.038028255 -0.019042922 0.02920856
000090 e3 98 46 3d 16 7e 27 bd d3 51 d8 3d f5 5b 55 bd
       0.048485648 -0.04089173 0.10562482 -0.05208965
0000a0 0b 6f ca bd 1e 2b 2b 3d 6a 5f d1 3d f4 84 8a 3d
       -0.09884461 0.041789167 0.10223277 0.0676364
0000b0 8e eb 25 3c f2 a5 7a bd 3d 97 fb bc 67 22 8f 3d
       0.010126961 -0.061193414 -0.030711764 0.069889836
0000c0 29 15 51 3d f7 dd 54 3b 8b 3d 08 3d 44 dc 26 be
       0.05104557 0.0032480934 0.033261817 -0.16294962
0000d0 c7 1e 1c bc 2f 66 b2 bc 73 25 6c bd ea f7 ed bb
       -0.009528822 -0.02177724 -0.0576529 -0.0072622197
0000e0 a8 fe 5c 3d c3 e0 c7 3d e2 90 5a 3d e3 93 24 bd
       0.053953797 0.09759667 0.053360827 -0.0401801
0000f0 28 c1 0f bc b8 c9 99 3c 98 a6 94 3d c8 97 90 bc
       -0.008774079 0.018772945 0.07258338 -0.0176505
000100 63 7d 9b 3d e8 8e 81 bd 4f 8b 08 3d 99 47 e6 bc
       0.07592275 -0.06326085 0.03333598 -0.028110312
000110 fa c7 a3 3d 9d 87 21 3d 6f 3a 03 3d 17 f0 68 3d
       0.07997127 0.03943597 0.03203815 0.056869593
000120 4d 46 01 be 21 ed fa 3b 2b 1a e8 bc 5d 54 7d bd
       -0.12624474 0.0076576625 -0.02833279 -0.061848033
000130 87 e5 d8 3c 3f 98 53 bd 27 5b 2d bc ad 29 81 bd
       0.026476635 -0.051658865 -0.010580814 -0.06306777
000140 b0 89 52 bd 21 07 84 bc eb 30 eb 3d bf 51 51 bd
       -0.05140084 -0.01611668 0.1148394 -0.05110335
000150 cf 5a 96 3d d0 88 94 bd ad 2d 9c bd 68 59 1f 3d
       0.07341539 -0.072526574 -0.076258995 0.038903624
000160 67 92 9a 3d fb 84 aa 3d 14 df 60 3d 18 29 73 bd
       0.07547455 0.08326145 0.054900244 -0.059365362
000170 64 fb 1a 3d 95 7a d3 bb c8 03 41 bc 46 64 f0 3c
       0.0378374 -0.006453822 -0.011780687 0.02934469
000180 4b ea 81 bd 42 8f a1 bb 3d 98 de bd 57 27 38 bd
       -0.06343516 -0.0049304077 -0.10868881 -0.044959392
000190 f8 b4 30 bc b2 bf 19 bd c6 f5 d0 3d 52 ca 78 bd
       -0.010785334 -0.03753633 0.102031276 -0.060739823
0001a0 e5 ef a8 bd b3 f9 df bd 07 e0 f7 ba 22 1b 0b be
       -0.08248881 -0.10936298 -0.001891137 -0.13584569
0001b0 50 5d 27 bc ce 7b 36 3d 5b 08 e4 3d 22 35 b0 bd
       -0.0102151185 0.044551663 0.11134406 -0.08603884
0001c0 8d 30 c5 3c 15 05 d6 bc 18 c8 a1 bb b3 f7 2b bd
       0.024071002 -0.02612547 -0.004937183 -0.04198427
0001d0 c2 41 b7 3d 7a 34 4f bd db 9c d5 3c b2 69 8f 3d
       0.08948089 -0.050587155 0.026075771 0.07002582
0001e0 c7 ee b7 3d 67 d8 96 3c 1f 1b 9d bc 23 eb 37 3d
       0.0898109 0.018413736 -0.019177971 0.04490198
0001f0 64 70 2a bd a1 4f 2c bd 45 f6 f6 3c 46 fd 74 3d
       -0.04161109 -0.042068128 0.030146727 0.059811853
000200 51 1d 1c 3d f4 e6 ce 3a 61 3a 56 bd 83 7d 98 bb
       0.038113896 0.0015785382 -0.05230177 -0.004653634
000210 ae 03 b7 3b 84 d0 80 3c 94 ea 13 3d 3c 85 27 bd
       0.0055851554 0.015724428 0.036112383 -0.040898547
000220 f1 a0 17 bd cf 8d f9 3d 93 9b 4c bd 76 15 b5 bd
       -0.03701872 0.12185251 -0.049953055 -0.08841984
000230 76 ce c4 bd ee d1 8c 3c e3 6c 91 3c a7 c2 7e 3d
       -0.09609692 0.017189946 0.017752117 0.062197354
000240 af 4c ac 3d 50 84 43 3c 3f 6b 2e 3c 56 22 be bb
       0.08413064 0.011933401 0.010645687 -0.005802433
000250 f9 ef 06 3e bf 50 5e bd 74 7f cc bb a3 42 93 bc
       0.1317748 -0.054276224 -0.0062407795 -0.01797611
000260 a4 5a f3 3d d7 db 97 3d 5c 87 1b 3e 01 c5 81 3d
       0.11882523 0.07414978 0.15188354 0.06336404
000270 29 5f b7 bd ff 0f 4e 3d 8d f3 b3 bd 41 c3 1b 3d
       -0.08953697 0.050308224 -0.08786688 0.038028006
000280 67 85 71 3d 4f 02 62 3b 4f 6f 86 bd 60 20 1d 3b
       0.058965113 0.003448624 -0.06564199 0.0023975596
000290 e5 6b df bd 31 43 51 bd a1 db 45 3c 2f 89 8a 3c
       -0.10909251 -0.05108947 0.012076289 0.016911117
0002a0 df 0e c1 bc b6 97 bf bc 0f 64 68 bd e2 1f 63 3d
       -0.023566661 -0.023387771 -0.05673605 0.055450328
0002b0 8e 1d c8 3d d8 9b b7 3d aa 65 b6 3d bb 1c 59 bd
       0.09771262 0.08965272 0.0890611 -0.053005915
0002c0 da 17 08 3d a8 ee a2 3d c3 ca 3c be 1e 0c 99 3d
       0.03322587 0.07955676 -0.18436722 0.07473014
0002d0 a3 e6 6d 3d a6 cd 44 bc cb 82 e6 bd 92 a3 28 bd
       0.05808128 -0.012011921 -0.112554155 -0.041171618
0002e0 b7 47 e9 3d db 4e b8 3d 9e 31 80 bd a6 68 27 3d
       0.11390632 0.089994155 -0.06259464 0.040871285
0002f0 65 7e dd 3d 28 94 a1 bc 82 e6 24 bb fc 70 b5 bd
       0.108151235 -0.019723967 -0.0025161807 -0.08859441
000300 68 8f 32 3d 86 03 e6 3c f9 f1 f4 b9 5a 3f 7b 3d
       0.043593794 0.028077852 -0.0004671959 0.061339714
000310 10 f4 3c bd 4b 65 ab 3d 56 93 2b 3d d3 eb 4e bd
       -0.046131194 0.083689295 0.041888557 -0.05051787
000320 30 6c 34 3d 31 57 b9 3d 79 83 2b 3d 24 04 b6 bc
       0.04404849 0.090498336 0.04187343 -0.022218771
000330 e9 68 82 b9 0f 18 5f 3c 70 8b 21 3d 9a c6 3c 3c
       -0.00024873696 0.013616576 0.03943962 0.01152196
000340 4b 4f dc 3c 1a 66 01 bd 1e 52 00 3e da 45 41 bc
       0.026893279 -0.031591512 0.12531325 -0.011796439
000350 87 3b 2b 3d c8 2e 63 bc 6b 58 1e 3d ae f9 52 3e
       0.041804817 -0.013866134 0.03865854 0.20603058
000360 12 95 1d bc f1 76 0e 3d dc dc 31 bd eb 4a ed bd
       -0.009618061 0.0347814 -0.04342352 -0.11586555
000370 a7 97 80 3d 8f 77 40 3d bc 95 8b 3d ae c3 0a bc
       0.062789254 0.04698902 0.06815669 -0.008469505
000380 ef d0 eb 3d b9 b1 da bc 1d c4 b8 3c d1 8c cd 3d
       0.1151446 -0.026696073 0.022554452 0.10036624
000390 d9 42 04 be 66 a9 a6 3d 29 8e 98 bd 36 39 fc bc
       -0.12916125 0.08137779 -0.0744899 -0.030788999
0003a0 69 d8 fc bc bf 15 d8 bc f3 df 7c 3d ac ab 3c 3c
       -0.030864911 -0.026377557 0.061737012 0.011515539
0003b0 89 dd 4d bd 5f b6 62 3d 1e 2f ee bc b6 60 26 bd
       -0.0502601 0.055349704 -0.029075202 -0.040619574
0003c0 1c ea c1 bd 9d 7d 9d 3d 0f 39 c0 bd 30 dc ac bd
       -0.09468481 0.076899745 -0.09385883 -0.08440435
0003d0 ea d1 55 bd 8f 7d d8 3d 37 1e a5 bd 47 4a 01 3d
       -0.052202143 0.105708234 -0.08062404 0.031564977
0003e0 75 5c 48 bd 3b a2 77 bd ea 6b e4 3c 67 0d 4d bd
       -0.0489163 -0.06045745 0.027883489 -0.05006161
0003f0 8b d8 a6 3d 28 ad 8c 3d 50 93 e6 3d 09 c0 8e bd
       0.08146771 0.068689644 0.112585664 -0.069702215

conv2.bias f4 [128]
000000 d8 8f bb 3d 3a 1a b7 bd d8 0c b0 3d f6 1e a5 bd
       0.091582954 -0.08940549 0.085962 -0.08062546
000010 bc 59 b8 bd 87 be cb bd ab ea c6 bd 6c 63 58 bd
       -0.090014905 -0.099484496 -0.09712728 -0.05282919
000020 3a a9 0b 3e 4a 04 d5 bd a2 db bd bd 87 20 bd 3d
       0.13638774 -0.10401209 -0.09270407 0.0923472
000030 42 8a b7 bd ee de fb bd 58 58 d3 bd ad 7d e9 bd
       -0.089619175 -0.1229838 -0.103195846 -0.11400924
000040 34 42 b6 bd 43 99 c4 bd 8d e8 bf 3d 8d 8f dc bd
       -0.08899346 -0.09599545 0.093705274 -0.10769568
000050 d9 f5 a5 3d f0 66 a9 bd 36 cd a5 3d 83 f0 d8 3d
       0.08103532 -0.08271587 0.080957815 0.10592749
000060 68 08 b1 3d 1e 31 c7 3d 23 1c 9b 3d d9 1d c8 3d
       0.086441815 0.09726165 0.07573726 0.09771318
000070 08 84 cf bd 21 cd b1 bd 35 60 fb 3d 77 09 92 bd
       -0.10132605 -0.08681703 0.122742094 -0.071307115
000080 df 26 c9 bd 35 b4 a2 3c d3 c6 81 3d fd 8b 91 3c
       -0.09821867 0.01986132 0.06336751 0.017766947
000090 62 3b 00 be 9b 1d d4 3d d6 0f c2 3d 72 ac b0 3d
       -0.12522653 0.10357209 0.09475677 0.08626641
0000a0 74 fd d6 bd a4 9a d8 3d 9a 5d 92 3d cd 33 d4 3d
       -0.10497561 0.1057637 0.07146759 0.10361443
0000b0 f5 26 9a 3d 66 d9 59 3d c6 2d bc 3d e4 b7 c1 bd
       0.07526962 0.053185843 0.09188418 -0.094589025
0000c0 3f 6a ae bd a8 2e d2 3d 45 75 b8 3d 9e 63 f1 3d
       -0.085163586 0.10262805 0.090067424 0.117865786
0000d0 73 89 f5 3d a2 10 b0 3d 50 40 c0 3d cd 90 a5 3d
       0.11989107 0.085969225 0.09387267 0.08084259
0000e0 42 ab af 3d ff be c0 bd a9 56 fb 3d f4 5c eb 3d
       0.08577587 -0.094114296 0.122723885 0.11492339
0000f0 48 7d 98 3d 62 43 91 3d 0c ad dc bd a5 51 44 3c
       0.074457705 0.070929304 -0.107751936 0.011982356
000100 ea bf e3 bd 80 ce b4 3d d2 1c dc 3d 50 68 bb 3d
       -0.11120589 0.08828449 0.107476845 0.091507554
000110 a0 2c bc bd 14 3a d9 bd a4 60 aa 3d 4a fa e4 bd
       -0.09188199 -0.10606781 0.08319214 -0.11180551
000120 11 a5 2c bb 0f 72 f9 3d 15 51 b5 bd b6 dc e1 3c
       -0.0026343504 0.12179958 -0.08853356 0.027571063
000130 7e 66 c6 3d da 72 af bd 95 6c c7 bd 83 cc bc 3d
       0.096875176 -0.08566828 -0.09737507 0.09218695
000140 8d 23 a7 3d d0 7c b4 3d f2 70 c7 bd 20 16 de bd
       0.08161078 0.088128686 -0.097383395 -0.10844064
000150 ee 1c ca 3d 94 89 b4 3d 03 d8 ad 3d 8d e7 8b 3d
       0.09868799 0.088153034 0.084884666 0.06831274
000160 00 57 a4 3d 92 b6 b7 bd f3 28 b3 3d 79 de 92 3d
       0.080244064 -0.089703694 0.08748045 0.071713395
000170 b6 11 8c bd 9f 1b b4 bd 8d 33 bb 3d 92 40 a4 3d
       -0.068393156 -0.08794331 0.09140692 0.08020128
000180 b4 b0 9f bd a3 36 73 3d 3e 92 ae 3d c9 96 b3 bd
       -0.07797375 0.059378278 0.08523987 -0.08768994
000190 df 8d c3 3d 70 88 af 3d c9 ad 97 bd a1 fa c5 bd
       0.09548544 0.08570945 -0.07406194 -0.09666944
0001a0 cb e6 e1 bd f6 ba db bd e5 4c f9 3d 70 dc ad bd
       -0.110303484 -0.10729019 0.121728696 -0.08489311
0001b0 1b 1e b1 bd a5 f6 bf 3d f8 d7 ab bd c5 ed 14 3e
       -0.0864832 0.093732156 -0.08390802 0.14543827
0001c0 eb 6c ea bd da b2 cb bd 45 ff 9a 3d 71 b8 93 3d
       -0.11446556 -0.099462226 0.0756822 0.07212914
0001d0 bd 7a bb 3d f1 93 b4 3d 13 6e e6 bd 5a 88 cc bd
       0.0915427 0.0881728 -0.11251464 -0.099869445
0001e0 97 f9 c5 3d a6 e8 ef bd c0 47 f3 3d 3d 07 eb 3d
       0.09666746 -0.11714296 0.118789196 0.1147599
0001f0 de f6 e5 3d 6b 79 91 3d f2 16 a6 3d 96 48 ef bd
       0.11228727 0.07103237 0.08109845 -0.116837665

conv2.lin.weight f4 [128, 128]
000000 75 99 ae 3c 83 4f 1f 3e 4f 07 9d bd 2c da f0 bc
       0.021313408 0.15557675 -0.0766741 -0.029400907
000010 7b 5e d6 bb 29 d3 9f bb 18 74 bc bd 9b 66 bf bd
       -0.0065420247 -0.004877467 -0.092018306 -0.09345742
000020 da e0 a3 bc a6 75 22 be 8f b8 d6 bd e9 90 b8 3e
       -0.020004679 -0.15865192 -0.104844205 0.36048058
000030 e6 c6 6a 3e e3 a7 b2 bd 60 ee bf 3d fc f0 5f 3d
       0.22927436 -0.08723428 0.09371638 0.05467318
000040 91 a4 0a 3e 17 e0 c3 3e 4a 8e db 3d a8 d5 d3 3d
       0.1353934 0.38256904 0.10720499 0.10343486
000050 89 54 0a be 34 cc 2a bd 34 dc 01 3e 57 49 59 3d
       -0.1350881 -0.04169865 0.12681657 0.053048458
000060 e2 3a 98 3d 63 45 93 3d 7d 2e 17 3e 9c ec d8 bd
       0.07433106 0.07190969 0.14763828 -0.10592005
000070 73 fc f4 3c 4e af ce bd 13 d3 45 3c b6 cd d2 bc
       0.029905533 -0.100920305 0.01207425 -0.025732856
000080 03 65 86 3e 1e 52 9e bd 0f 5d ae be c6 7f 0c 3e
       0.2624894 -0.07730506 -0.34055373 0.13720617
000090 d5 77 90 bd ca eb 13 3b d7 6e d6 3d 8c e6 df bc
       -0.07054106 0.002257096 0.1047036 -0.027331613
0000a0 69 e0 77 3c 33 14 c4 bd f9 3e dc bd 8e 22 81 3e
       0.015129187 -0.09574165 -0.107541986 0.25221676
0000b0 5e 2f f5 3d ea 0d 9f 3e 92 39 0f 3e 53 b1 ed bc
       0.11971925 0.31065303 0.13986805 -0.029015219
0000c0 48 a5 07 3e 44 07 b8 3d 7e 1b a3 3e 26 00 2b bd
       0.13246644 0.08985761 0.31856912 -0.04174819
0000d0 f8 8b e3 3d dd 86 15 be 6c b1 87 3e 8b 24 7a 3e
       0.11110681 -0.14602228 0.2650255 0.24428003
0000e0 da 27 e0 bd 0a d3 46 3d 80 fc b0 bd 3d 35 a5 bd
       -0.10945101 0.048541106 -0.086419106 -0.08066795
0000f0 8b 45 e7 3e 4a 25 b8 3c 87 9f 8f 3d a8 77 5f 3c
       0.45170245 0.022478718 0.07012849 0.013639368
000100 e7 ce db bd f5 8a 8f bd c3 3c d1 3c 03 13 d1 3d
       -0.10732823 -0.07008926 0.025541669 0.10208704
000110 a6 ae 57 3c ca e4 8e 3c 51 e4 72 3d cc e8 b1 3b
       0.013164198 0.01744308 0.05929977 0.005429363
000120 02 26 47 3e 63 26 0b 3e 85 cc 1a 3e 9e 82 85 3e
       0.19448093 0.13588862 0.1511708 0.26076216
000130 e0 b7 d5 3d 6e e4 00 be 14 14 e6 bd d4 a2 01 be
       0.10435462 -0.12587139 -0.11234298 -0.1265977
000140 a1 21 c9 bd 82 5d e4 3c db 38 cb bb c3 e9 13 be
       -0.09820867 0.02787662 -0.006201846 -0.14444642
000150 cd c2 e0 3d 43 25 28 3c ff 92 a1 3d 64 43 9b bd
       0.10974655 0.01026279 0.078893654 -0.07581213
000160 ca ac 56 3e 0d f5 10 3e 39 c4 de bd a7 44 42 3d
       0.20964351 0.1415598 -0.1087727 0.047428753
000170 c7 58 fc bd 8a d1 08 be 1e c4 ee 3d 85 cc 06 3e
       -0.123216204 -0.13361183 0.116585 0.13163956
000180 12 e5 eb bd 88 ea 28 be 85 34 b6 3d ab 36 02 be
       -0.11518301 -0.16495717 0.08896736 -0.12716167
000190 08 f8 15 bd 7c 22 bb bd de 6d a5 3d 0d e7 21 ba
       -0.036613494 -0.09137437 0.08077596 -0.0006176092
0001a0 9d 32 65 3e d7 7f 20 bc 8c 74 b4 3d 5d c2 68 bd
       0.22382589 -0.009796104 0.08811292 -0.056825984
0001b0 97 73 97 3d 78 a3 aa bd 2a f5 80 3e 43 15 d1 bd
       0.07395094 -0.083319604 0.25187045 -0.102091335
0001c0 08 3b b2 bd 40 f9 1d bd 95 c7 39 bd 45 75 9a 3d
       -0.087026656 -0.03856778 -0.045356352 0.07541899
0001d0 31 e0 ae 3e a2 7a 07 be cc 6b 14 3d 0d ee 76 3b
       0.3415542 -0.13230374 0.036235616 0.003767851
0001e0 dd e7 9f bd f8 a2 01 be af b2 9b 3e eb 48 e8 3d
       -0.07807896 -0.12659824 0.30409762 0.11342033
0001f0 e5 0b 02 3e 9b 57 29 3d bb 2d 62 bd f7 2a 4c 3d
       0.1269985 0.041343313 -0.055219393 0.049845662
000200 8c 3e 82 3d ab 69 21 3e 04 a4 97 3d b4 16 af bd
       0.06359586 0.15762965 0.074043304 -0.08549252
000210 68 ad c0 bd b8 48 09 3c 27 ee 70 3c e1 d1 5a 3e
       -0.094080746 0.008379154 0.014705217 0.21369125
000220 f4 82 b4 3d 67 2f 03 3e 3b aa 38 3c 3a 20 46 be
       0.0881404 0.12811051 0.011271055 -0.19348231
000230 7a 96 5e 3b f1 fd 0a 3e 13 44 7d bd 44 5c cf 3d
       0.0033964203 0.13573433 -0.0618325 0.1012502
000240 67 4b fe bd ef f1 00 be e7 6c 4c bb 61 c0 c2 bd
       -0.124167256 -0.1259229 -0.003119284 -0.095093496
000250 57 ea 08 3e 3a df b4 3c c4 43 a8 3c 46 62 b9 3c
       0.13370644 0.022079099 0.020540126 0.022629868
000260 2a 4d dd 3c de cf 09 bd 27 9d 04 be a6 a8 f3 bd
       0.027014334 -0.033645503 -0.12950574 -0.118974015
000270 ae ec c6 3c 8f 10 4f bb 36 23 f4 3b f6 21 27 3e
       0.02428278 -0.0031595563 0.0074504865 0.16321549
000280 b2 62 e7 bd dc a2 e3 3c 80 7a 4c 3e 04 c7 bd bd
       -0.112981215 0.027787618 0.19968605 -0.09266475
000290 a0 80 b5 bd ef 74 20 3d af bb d1 bd f5 bd ab 3d
       -0.08862424 0.039174017 -0.10240876 0.08385841
0002a0 c8 09 65 bc a7 a4 64 3e a1 92 3b 3d d5 19 6b be
       -0.013979383 0.22328435 0.045794133 -0.22959073
0002b0 12 42 39 3d f2 68 65 be 4d bd 9e bd c2 1a 40 3d
       0.045229025 -0.22403315 -0.0775095 0.04690052
0002c0 d5 42 29 bd ec 21 46 3c 57 ff cc be c4 1c aa bd
       -0.0413235 0.012093049 -0.4003856 -0.08306268
0002d0 c3 bc f8 3c 57 3d d8 3d b9 e1 63 bd 5c 65 62 be
       0.030363446 0.10558575 -0.055635188 -0.22108978
0002e0 fc 73 4c 3d 5c b3 2f 3e 33 08 f0 3d 29 24 0b bd
       0.0499153 0.17158264 0.11720314 -0.033970032
0002f0 b4 75 c8 be 8b 73 ee 3c 26 66 c7 3d dd a4 4c 3d
       -0.391523 0.02910783 0.0973628 0.049961913
000300 85 08 f0 3d 36 68 be 3d 28 95 3b 3e ca 79 0f be
       0.11720375 0.092972204 0.18318617 -0.14011303
000310 a9 05 92 3d bd a5 24 3e 4c 98 ac 3d bc 02 32 3e
       0.07129986 0.16078849 0.08427486 0.17383856
000320 18 5c 8f 3d b2 2e 2a bc 35 80 22 3e c7 03 d7 be
       0.06999987 -0.01038711 0.1586922 -0.4199507
000330 fc 3f 32 3d 32 ae 29 3e 68 4e 19 3e 62 87 b0 3c
       0.04351805 0.16570356 0.14971316 0.02154893
000340 8b b8 fb 3d 82 99 91 b9 17 df dc 3b 74 79 e5 3d
       0.12291058 -0.00027770927 0.0067404616 0.11204806
000350 38 c1 c8 3d f9 a0 42 3e 20 3b 28 be 55 e6 71 3d
       0.098024786 0.19006719 -0.16428804 0.059057552
000360 bc 14 05 bd 2a 23 00 be cd 6f 30 3e c2 52 d0 3d
       -0.032490477 -0.12513414 0.17230149 0.10172035
000370 71 ff 44 bc 05 e5 d8 bd d3 d1 f6 bd f4 cd cf 3d
       -0.012023793 -0.10590557 -0.120517395 0.10146704
000380 6e ca 79 3d 0f 27 79 3e de 12 d1 bd f1 e0 09 3d
       0.060984068 0.24331306 -0.10208677 0.033661786
000390 b6 6e de bd 26 5f 97 bd 07 32 12 bc 4b 6f 9f bd
       -0.1086096 -0.07391195 -0.00892306 -0.07784899
0003a0 39 2b 3b be 7a 89 a8 bd 80 3f 25 3e 85 bb fc 3d
       -0.18278207 -0.082293466 0.16137505 0.12340454
0003b0 bb 63 11 bc 2d b7 a8 3d 9e 7b ce bd ef 9e c3 bd
       -0.008873875 0.08238063 -0.10082172 -0.095517986
0003c0 a9 80 ad 3d 93 a7 e3 3d d5 11 f6 3c 76 79 49 3e
       0.084718056 0.111159466 0.0300378 0.1967524
0003d0 e6 2b 63 be 70 ad 9b bd f0 c0 90 3d cc 14 1e bd
       -0.22184715 -0.0760144 0.0706805 -0.038594052
0003e0 6e 73 56 bd 86 d4 8b 3d 0b 0f 45 be 25 fd 55 3d
       -0.052356176 0.06827645 -0.1924402 0.05224337
0003f0 82 61 df bd c5 a9 83 3d 06 eb 4d 3d ae 41 c2 3d
       -0.1090727 0.06428865 0.050272964 0.09485184
