pretrained_gnns/PubMed_EdgePredGraphPrompt_GCN_1.pth (torch, 325080 bytes, 4 tensors)

conv1.bias f4 [128]
00000000: c0a6 07bd 3045 36bd 999d 40bd b269 21bd
00000010: 99bc aebc b6e1 10bc 2ea9 c5bc 1542 51bc
00000020: 2b65 dfbc db74 a9bc 7046 04bd 9a00 d2bc
00000030: 2477 81bc bfa7 09bd 652b 03bd 8c29 1cbd
00000040: 1ca0 c4bc 7d19 25bd 696b 0bbd 55b7 c3bc
00000050: 18b0 32bd f658 07bd 254b 23bc d4df f8bc
00000060: 12cd 3cbd 27b3 28bd 91bf 89bc e7de e2bc
00000070: edfa ebbc f6f1 03bd 0479 53bd 8e01 1bbd
00000080: 721f 01bd e686 18bd 13cd cebc 409e fabc
00000090: cd9a d7bc 7c13 1dbd d1ac 06bd 8dc3 0ebd
000000a0: 5784 f7bc 161e bcbc beb6 03bd c4a1 77bc
000000b0: bac5 31bd 6a44 49bd bb28 13bd 6ccf e9bc
000000c0: b251 ccbc 0fb0 1ebd 3525 32bd 5bb7 08bd
000000d0: 8724 19bd 6637 4ebd a675 e3bc 6c90 06bd
000000e0: 8886 d8bc e4a0 28bd 837c 11bd 3d9b 3dbd
000000f0: 24cd 0cbd 5727 0abd 77f9 0fbd 95da 1fbd
00000100: 1544 e7bc 62da f9bc 1c87 38bd 1636 cebc
00000110: d808 42bd 50ae b2bc 9d92 0cbd e9cb 2fbd
00000120: 0b4e bfbc ca18 49bd 7e7c 8bbc a02a d4bc
00000130: de40 acbc 4aab 03bd bfa6 bfbc 1f0b d0bc
00000140: 628c 57bd 1007 04bd 23b7 46bd 7a77 dabc
00000150: 7bed 16bd 942f cbbc 4798 0ebd b51d ecbc
00000160: 89b5 76bc 12fa 1dbd b745 8cbc 20f9 33bd
00000170: db7b efbc c2e3 b4bc 4b1b 18bd dc27 43bd
00000180: 3f71 29bd 6f20 17bd ba33 0cbd 5320 15bd
00000190: e60d c5bc 6c6b 42bd 3ed7 dbbc 03ef 42bd
000001a0: 20b3 d1bc e4e4 fdbc a3d1 bdbc c2bf 33bd
000001b0: 57bd 08bd e981 cbbc 7edf d5bc 540a 1abd
000001c0: d7b0 22bd e4e1 0ebd 9149 e1bc 2d97 20bd
000001d0: 814b 6bbc 0029 1ebd d57a 32bd e889 2abd
000001e0: 8c17 f7bc 4197 7dbc 9cff 0abd 79c6 c2bc
000001f0: 5e64 45bd 6580 36bd 2fbc 4cbd 3f2d 02bd
-0.03311801 -0.044499576 -0.047025297 -0.03940744 -0.021330165 -0.008842876 -0.024128523 -0.012772103
-0.02726992 -0.020685604 -0.032293737 -0.025635052 -0.015803881 -0.03360724 -0.032023806 -0.03812556
-0.024002127 -0.04030751 -0.03403798 -0.02389113 -0.043624967 -0.033043824 -0.009966646 -0.030380167
-0.046094008 -0.041186478 -0.016814979 -0.027694179 -0.028806174 -0.032213174 -0.05162908 -0.03784328
-0.03152413 -0.037238024 -0.025244271 -0.030593038 -0.026318932 -0.03834866 -0.032879654 -0.03485446
-0.030214472 -0.022963565 -0.0321567 -0.0151142515 -0.043401457 -0.04913751 -0.035927515 -0.02854129
-0.0249413 -0.03874212 -0.043492515 -0.033377986 -0.03738835 -0.0503458 -0.02776606 -0.032852575
-0.026431337 -0.041169062 -0.035519134 -0.046290625 -0.034375325 -0.033728924 -0.035150018 -0.039026815
-0.028230706 -0.03049964 -0.045050725 -0.025172275 -0.047371715 -0.021811634 -0.03431951 -0.042919073
-0.023352643 -0.049095906 -0.017027136 -0.025899231 -0.021027025 -0.032145776 -0.02339494 -0.025395928
-0.052624114 -0.032233298 -0.048514497 -0.026668299 -0.036847573 -0.02480296 -0.03481319 -0.02882276
-0.01505793 -0.038568564 -0.017123086 -0.043938756 -0.029233864 -0.02208126 -0.037135404 -0.047645435
-0.041367766 -0.036896165 -0.034229018 -0.03640778 -0.024054479 -0.047465727 -0.026836034 -0.04759122
-0.025598109 -0.030992933 -0.023171252 -0.043884046 -0.033383694 -0.02484222 -0.026107546 -0.037607506
-0.03971943 -0.034883395 -0.0275009 -0.039206672 -0.014361263 -0.03861332 -0.043574173 -0.041635424
-0.030162595 -0.015477956 -0.033935174 -0.02377628 -0.04819142 -0.04455604 -0.049984153 -0.03178143

conv1.lin.weight f4 [128, 500]
00000000: ef7b 68be 52d5 223e f73c 0e3d 59d0 f5bd
00000010: f479 e1bb 273c 68be e09a 023c c2a2 57bd
00000020: 5119 85bd 52d4 a8be 9bd3 ac3d 9841 45be
00000030: aac6 45be de13 333e a9f3 163d e11c 68bc
00000040: 1051 99be ad7c b7bd 879a 3f3d e283 423e
00000050: 0546 443e 06cf 183e 321a 093e 1d93 263d
00000060: a108 dd3d 4987 5ebe 7f47 eb3d 585a fa3d
00000070: c164 e9bd ed49 963e 75a2 a6bd 8520 843d
00000080: cd48 60be 8e1d 963e 3e39 b3bd 71a8 473d
00000090: e191 e13d 44aa 91be 5259 f9bc 5d11 d73c
000000a0: 761b ffbd c05f 65bd 804d 69bd 0a17 bd3c
000000b0: 52fa 58bd e590 033d b13f 033e daf9 093e
000000c0: 92e5 99bd 07dd a03c 9dec 39be 38a6 013d
000000d0: b2be b1bd 6ac6 2d3e 230b 27bd 50e5 fd39
000000e0: d3e7 2dbe fda3 b3bc ed88 52bd bffd febd
000000f0: 624c 823d 7e25 cc3d f0b1 a4bd c4ce a8bd
00000100: f5f1 833e c683 593e 5215 173e ff24 dbbc
00000110: f2a1 e63a f1b1 cd3d 4e6e 513e da40 353d
00000120: 7f7e 703c 11c4 2d3d a8ca 09bd d502 d0bb
00000130: eb2e ae3d e572 3e3c 50d1 72bd 17c7 3abe
00000140: 424a d63d 6169 813d 6967 e33c afcb 79bd
00000150: 8f14 84bd f255 973d fbd2 fabd 6874 8fbe
00000160: ad64 18be 6896 733e c785 723e 404a 133d
00000170: 296d 7ebe 7a55 0fbd cb12 ab3d 7868 1cbe
00000180: 7b5b 62bd 6d22 04be bf0c 1bbe 04a3 f8be
00000190: ad89 bfbd 3e2d 40bd 1b2b b33e 080f 9abd
000001a0: 4b5e 3fbe e4ed b9bd f7cd 923e 724a 3cbd
000001b0: 4f8d 8bbe 6648 7f3d d4d5 56bd 8391 d13c
000001c0: 525e 16be 795d 20bd 917c 60be 3c5e a4bd
000001d0: 16cf 8e3e cc73 16be f88a 1bbe 961c e4bd
000001e0: 67cc cfbb b6e0 0e3e 4d38 b5bd 06a5 2b3e
000001f0: cc53 0ebe 2d26 cb3d e200 5f3d 2611 e23c
00000200: 75f3 273d 1ec1 3bbd a1a5 f1bd d68e 7e3e
00000210: 33cc 133d 216a 433e 1381 483e da9a 333d
00000220: e552 1cbd 2ae8 b43c 4a45 80bd ca92 bb3d
00000230: d448 53be a9ec fb3d ee8b 12be 5c0d 5d3e
00000240: 717a e7bd 2c1d 8e3d 550c 403e 749f 4f3d
00000250: d591 ca3d 408d 05be 0dfd 6fbe a68a 1cbc
00000260: c8d1 6d3c 55b6 243c 0860 043e 414b ed3d
00000270: fe2e 283e b870 023e df6a 0f3c d002 7d3d
00000280: b422 a73d 843b 6bbd 0931 53bd 559c 7f3e
00000290: 144a b3bd 0398 b6bc dc9c 34bd 12e6 893e
000002a0: 8b20 113e 02d2 873d d240 bcbe 8300 0abe
000002b0: f43a 83be b8b3 b3bd efcb 2b3e dc91 d33d
000002c0: f490 22bd d853 4d3d 5d25 c4be 6718 373e
000002d0: dc23 53bd a0d7 9e3d 4902 8fbd 64dc 29be
000002e0: 7366 c03c 4726 873e 8750 213e 89d3 783d
000002f0: 25cf 60bc 710d 943c e75b 58bd de7c b5bd
00000300: e8c1 073e d9e2 f43d 07ce 29bb 4a6b 0f3e
00000310: 8c4a 4ebd bb38 0dbe d375 a43c 9295 a53d
00000320: 87d4 303e 76ef 683d 496b d33d a3b4 093d
00000330: d63d 9e3d 3359 053e 1db0 853d 0417 a53d
00000340: b050 1f3e 7c0e 8fbd 3d03 483e 9c8f 55be
00000350: 5090 4e3d bbd5 823d fb69 413d 30ee 223e
00000360: 336b 15be a52d 40be dbd4 15be 2638 02bf
00000370: 8c42 0e3e 8fc7 1c3e 79e7 af3d 6bf2 b5be
00000380: e2d5 343e 8a69 f2bd b196 3b3e d98f 0abc
00000390: eb44 c53d 0e4c 11be 255b 0ebd a3a2 71bd
000003a0: 6f77 893d 4d9a ba3d fd6e a7bd a67a 24be
000003b0: 8e8d 67bd 5b79 293e 161b b4bc 31d4 61be
000003c0: 375a 34be ddba 92be 2e84 3dbe 81f4 9ebd
000003d0: 4343 8dbd cd40 623c a08a 4abd a066 52bd
000003e0: 807f 4ebe f086 e1bd ef49 473e 320d 4ebe
000003f0: 3b2f 653c a466 db3c 78ce 6a3e aa00 1fbe
-0.22703527 0.15901688 0.03472611 -0.1200263 -0.006880993 -0.22679196 0.007971495 -0.052645452
-0.06498969 -0.32974488 0.08438798 -0.19263303 -0.19314066 0.17488047 0.036853466 -0.0141670415
-0.29944658 -0.08959327 0.046778228 0.18995622 0.19167335 0.14922723 0.13388899 0.040667642
0.107926615 -0.21731295 0.11488246 0.12224263 -0.113961704 0.29353276 -0.08136455 0.06451515
-0.21902771 0.29319423 -0.087511525 0.048744623 0.11014152 -0.28450215 -0.030438099 0.026253397
-0.1245641 -0.055999517 -0.056958675 0.023082275 -0.0529731 0.032120604 0.12817265 0.13474217
-0.0751449 0.019636644 -0.18156667 0.03165266 -0.0867895 0.1697022 -0.040782105 0.00048426772
-0.16982965 -0.021928782 -0.051400114 -0.12450742 0.06362225 0.099680886 -0.080417514 -0.082425624
0.25770536 0.21241674 0.14754227 -0.02675104 0.0017595871 0.10043705 0.20452234 0.0442513
0.0146785965 0.04242331 -0.033640534 -0.006347994 0.08505043 0.011624073 -0.059281647 -0.18240009
0.10463382 0.063189276 0.02775927 -0.060985263 -0.06449234 0.0738944 -0.122472726 -0.28018498
-0.14882155 0.23787844 0.23683845 0.035959482 -0.24846329 -0.034993626 0.08353194 -0.15274227
-0.055263024 -0.12903757 -0.15141581 -0.4856187 -0.093524314 -0.046918146 0.34993824 -0.07522398
-0.18688314 -0.09078577 0.28672764 -0.045969434 -0.27256247 0.062324904 -0.052450016 0.02558208
-0.14684418 -0.039151642 -0.21922518 -0.08025786 0.2789237 -0.1469261 -0.15189731 -0.11138265
-0.0063415053 0.13952908 -0.08848629 0.1676217 -0.13899153 0.09919391 0.0544442 0.027596068
0.041003663 -0.045838468 -0.11799169 0.24859175 0.03608341 0.19083454 0.19580488 0.04384885
-0.038164992 0.02208336 -0.06263216 0.09158857 -0.2063325 0.12300999 -0.14311191 0.21587127
-0.11302651 0.06939158 0.18754704 0.050689176 0.098910965 -0.13042164 -0.23436375 -0.009554541
0.014515348 0.010053237 0.12927258 0.11586619 0.16424176 0.12738311 0.008753507 0.06177026
0.08160916 -0.057429805 -0.051560435 0.2496198 -0.08754364 -0.022289282 -0.044094905 0.26933342
0.1417257 0.06631853 -0.36768204 -0.13476758 -0.25630915 -0.08774513 0.16777013 0.10330555
-0.03968902 0.050128788 -0.38309756 0.17880403 -0.05154787 0.07755971 -0.06982858 -0.16587979
0.023486352 0.2639639 0.15753375 0.06074861 -0.013721262 0.018072816 -0.05282202 -0.08861707
0.13257563 0.1195733 -0.0025910155 0.14005771 -0.050364062 -0.13791172 0.020075714 0.08085169
0.17268573 0.056868993 0.103231974 0.033619534 0.07726638 0.13022308 0.065277316 0.080610305
0.15558124 -0.069851846 0.19532485 -0.20855564 0.050430596 0.06388422 0.04722021 0.15911174
-0.14591675 -0.18767412 -0.14631979 -0.50866926 0.13892573 0.153105 0.08589072 -0.35536513
0.17659715 -0.11836536 0.18319203 -0.0084571475 0.09632286 -0.14189169 -0.03475489 -0.058992993
0.06712233 0.09111462 -0.08175466 -0.16062412 -0.05653148 0.165502 -0.021985572 -0.22053601
-0.17612539 -0.2865819 -0.18507454 -0.07761479 -0.06897595 0.013809395 -0.04944861 -0.051367402
-0.20165825 -0.110120654 0.19461797 -0.20122221 0.013988311 0.026782341 0.22930324 -0.15527597

conv2.bias f4 [128]
00000000: d736 223d 6482 7e3a cd29 b73c 791a fabb
00000010: 82e4 a13b a00a 4b3a f943 15bb 8092 b0bc
00000020: a1aa 98bc a796 35bd 08fe 6d3c c787 b93c
00000030: 2300 9f3c 9abc 1cbd fc60 fbbc b7d6 3dbc
00000040: 3731 8abc 8d2f 7fbc 95d0 73bc 6040 cd3c
00000050: fe74 793c 713c 0d3a e008 b13c ec13 cc3c
00000060: 7893 e03c ca12 2c3b 9c6b 8abc e81b ad3b
00000070: 2693 013c 8688 d13c 223d 443c 4dcf e93b
00000080: b33d 1c3c 5a10 953c 9100 dd3a 1196 bc3c
00000090: 5840 ecba 0be6 bdbc 7127 77bb e4a9 ffbc
000000a0: bdd4 dc3c 22a3 bf3a 8a01 dd3c f17b cf3b
000000b0: d541 053d 523c 903b 4c5d 43bc 9f81 87bb
000000c0: f162 103c 2cf8 0e3c d34d 323c 2354 f4bc
000000d0: 14c1 73ba 76b9 223c ebff 8dbc f5e7 ad3b
000000e0: f85d 563c 962c 72bc 6ea2 88bc b360 fc3c
000000f0: f169 5bbc b9ad 3a3b d4cc 473c 83f0 53bc
00000100: 825f cebb b883 5e3c a440 d1bc 6dc3 543c
00000110: 7102 89bc 2e65 bdbb ab3c 293c 78b4 d1bc
00000120: 6c41 84bc 7548 41bc 221e 8cbd 6824 aebc
00000130: 961d 9d3c 7d53 22bc fb48 b1bc c9bd 903c
00000140: 356f 343c e1fc 853c 6a90 acbc af0d 0f3d
00000150: 552b 05bb d8ed 023d 8fa7 b4ba 8854 883c
00000160: f415 48bc 8d40 6f3b 5f47 10bc e23d b93c
00000170: 5291 ef3c 0ef1 9cbc d423 00bd 6935 443c
00000180: 994d 4ebc 2b8f b5bc 9ea2 f6bb c5d5 1e3c
00000190: a24d b5bc 8938 afbb ad8a 1f3c 5d26 023c
000001a0: f5c2 c1bc c6e4 09bb 22c4 013d d4a5 f8bc
000001b0: 6722 76bc 0a73 f3bc 01f5 dabc 1b37 853c
000001c0: 8c42 9fbc da88 86bc 224d 1abc cbc3 e93c
000001d0: 03a4 5f3c a2ad bc3b d937 92bc cd3b cebc
000001e0: b756 763b ba7d 323c 0a1f 5dbc 682e 3c3d
000001f0: 3ec2 97bc 0b82 a8ba fbec 543b 25a5 98bb
0.03960308 0.0009708761 0.0223588 -0.0076325503 0.0049405703 0.00077454187 -0.002277611 -0.021554232
-0.01863605 -0.044333126 0.014525898 0.022647751 0.019409245 -0.038265802 -0.030685894 -0.011586837
-0.01686917 -0.015575302 -0.014881273 0.02505511 0.015225647 0.00053877296 0.021610677 0.024911843
0.027414069 0.0026256316 -0.016897015 0.0052828677 0.007908618 0.025577795 0.011977466 0.007135308
0.009536195 0.018196274 0.0016861131 0.023020776 -0.0018024547 -0.023180982 -0.0037712718 -0.03120894
0.02695691 0.0014620761 0.026978273 0.0063319136 0.032533485 0.004401722 -0.011924099 -0.004135325
0.008812652 0.008726161 0.010882813 -0.029825276 -0.0009298485 0.009931913 -0.017333945 0.0053071924
0.013083927 -0.014781138 -0.016679015 0.030807829 -0.013391958 0.0028484894 0.012194831 -0.01293576
-0.0062980065 0.013581209 -0.025543518 0.012986046 -0.016724797 -0.005779884 0.010329406 -0.02559875
-0.016144477 -0.01179706 -0.06841685 -0.021257594 0.019179147 -0.0099076005 -0.021641245 0.017668622
0.011012842 0.016355934 -0.021064956 0.03492516 -0.0020320017 0.031965107 -0.0013782847 0.01664187
-0.012212265 0.003650698 -0.008806079 0.022612516 0.029244099 -0.019157913 -0.03128417 0.011975625
-0.012591743 -0.022162994 -0.0075267097 0.009694521 -0.022131745 -0.0053473157 0.009737653 0.007943717
-0.023652533 -0.00210409 0.031681187 -0.03035251 -0.015022851 -0.02971794 -0.026728155 0.016261628
-0.019440912 -0.016422678 -0.009417804 0.028535744 0.013649943 0.0057580033 -0.017848896 -0.025175
0.0037588307 0.010894233 -0.01349617 0.045942694 -0.01852524 -0.0012856139 0.0032489884 -0.0046583586

conv2.lin.weight f4 [128, 128]
00000000: a8cc f2bd a7ff 5d3e c062 15bd 4453 273e
00000010: a77b 0b3e e013 c8bd 4163 8abe 5391 0cbd
00000020: c2fe fe3b 885e 37be 87c3 68be 9a0b 603e
00000030: c128 b93d 46e7 1fbe 72a2 52bc 95fb 553e
00000040: 2e99 91be f496 463e 08e2 353e 4ae8 d93d
00000050: 796f 35be b1de a2bd c5e7 843e ce52 b73e
00000060: 53ee 593d 921d 2f3d 4211 59be 230e 74be
00000070: fd48 8b3c 0df5 58be 1973 57bd 1071 e3bb
00000080: 3993 353e 1ec5 d3bd 80ae b2be c384 013d
00000090: 2881 88be 3e2f b3bb ff3b 253e 6c8e b03d
000000a0: d052 eabd 0657 89be 15a3 66be 6f55 c13e
000000b0: 11a0 bb3d 1e3c d6bd 2a9b 593e d93e db3b
000000c0: f544 b73d 2f3f 103c 95c0 08be 8890 75be
000000d0: fa2b 9e3e 534e 91be 3783 703e 108d 9dbd
000000e0: 6f70 103e b22f c13d 8a59 f3bd 0d01 b3bd
000000f0: 0f6f 083e 814d b4bc 1aef 4abd 8679 58be
00000100: 50a2 8fbe 1883 b0bd 7d73 a0bd f619 d43d
00000110: aeb2 2bbe a663 d6bc 3d68 473d 7dfa 3fbe
00000120: 0210 633d 3695 1a3e 6c0b 673e 45bd 1abe
00000130: f223 a73d 1bf5 cbbe fa98 33be c80b 35be
00000140: 9319 c6bd a630 11bd 1022 4ebe 2220 75be
00000150: 99b4 8bbc 75dd 00bd 8b82 adbc de68 92be
00000160: c816 58bd cb0f 583e 4345 acbb e80f 0f3e
00000170: ad3f 1abe 0c62 77be 110a 933d f5ca fc3d
00000180: 2951 e6bd 88a1 afbd 5a4a 133e 38e9 0cbe
00000190: 2960 193e 03e5 ccbe 8b8c 69be a0e6 293e
000001a0: 647a 323e 4228 d8bd fe6e 273e 3e2d d5bd
000001b0: d51b d63d 9ec2 42bd bce8 77bd 7f96 22be
000001c0: b9fd 0ebe 5c06 58bd ecfb 00be bbbd 4a3e
000001d0: c814 543e 1b34 5abe 6dca 563e 3218 873d
000001e0: b112 09bc 8ef4 19be 3f75 eabd f1ee 773e
000001f0: ef1f 3cbe bbbd cd3d ca13 84bd 3113 8fbd
00000200: 5f6e 373e 7b9e 8a3e 4a36 d2bb 352c 33be
00000210: 7408 b6be 1330 79bd 0730 093a 21b9 08be
00000220: e497 09bc d0d4 083e a421 94bd 3a66 34be
00000230: e5aa 5d3e 3b38 193e f94d 9f3d ca5a c0bd
00000240: 4c15 d73d e8bc 213d cb0e 9abd 9999 12be
00000250: 17e6 e73d d6a8 fbbd a643 c63d 462a dfbd
00000260: cb14 b13d d262 a23d cda1 5dbc 74a0 b9bd
00000270: 6d22 e0bd d785 b73d db82 50be 5639 3f3e
00000280: 32d4 cabd c74b e63d 64fc 17bc 7070 e73c
00000290: 8447 46be fbe6 413d 255a 8dbe 07bc 81be
000002a0: b113 073b 6f00 893d aec7 073d e602 8ebe
000002b0: 64f6 8b3b 533e 313d 955c 28be f2a9 993c
000002c0: 9691 07be 17bb 7b3c 1068 7bbd 5aac f3bd
000002d0: 0ca3 1ebe a73f 7e3d 6278 79bd a660 91bc
000002e0: a317 c3be aac5 9d3e f4fa 6a3e 8afc fcbd
000002f0: c765 b9bd 1c80 933d a93b 55be 83e2 453e
00000300: 31b1 ad3d 6428 b53d a431 bd3e 5674 c3be
00000310: 4a39 03bd 5259 b53d b7d1 9abd 3c29 e33d
00000320: 6ac9 4e3e e7bf 3cbd 5d7d f83d d446 31be
00000330: 8b6d 73b9 42f6 ae3e a406 8fbb a2bb a83d
00000340: 3bae a03e 8758 f33c 665c ccbc d9a0 813e
00000350: d61f e93c ebef b63e 022a 99bd 8ce8 783e
00000360: 5d22 2b3e 0b84 84be 5cb3 8e3d eea8 9c3b
00000370: 0522 02be 0164 46be d372 75be 5211 b43c
00000380: b9cc 2d3e aad1 56be 21d6 b2be 3be4 173e
00000390: d471 89be bbaa f3bc 971a 3f3e cae9 45be
000003a0: a963 18be c77b 1fbe 612a 453e 9ea4 c33d
000003b0: e547 b2bd a514 7c3d 3130 253e e2c4 51be
000003c0: 991a 5a3e d749 883e 7938 68bb 6ab8 5f3e
000003d0: 5283 58be 5102 853d 5d16 e3bd cd06 99be
000003e0: 5796 0dbd 53c7 ef3d 7a40 1abe 9c6c ffbd
000003f0: 9f79 ed3d 0ac9 1cbc 7a3c cb3d b843 7e3e
-0.11855441 0.21679555 -0.03647113 0.16340357 0.13621388 -0.09769416 -0.2702885 -0.03431828
0.0077818343 -0.17907155 -0.22730838 0.21879426 0.09040976 -0.15615568 -0.012856113 0.20896752
-0.2843718 0.19393522 0.17762005 0.10640009 -0.17718305 -0.07952631 0.25958076 0.35805362
0.0532058 0.04275281 -0.2119799 -0.23833518 0.017002577 -0.2118723 -0.0526 -0.0069409683
0.17731942 -0.103403315 -0.34898758 0.031620752 -0.26661038 -0.005468278 0.16136168 0.08620915
-0.114415765 -0.26824206 -0.22523148 0.37760493 0.091613896 -0.10460685 0.21250597 0.0066908416
0.089486994 0.008804127 -0.13354714 -0.23980916 0.30892926 -0.2838007 0.23487554 -0.07692921
0.1410539 0.09432925 -0.118823126 -0.08740435 0.13323615 -0.022009613 -0.04954443 -0.21140108
-0.28053522 -0.08618754 -0.07834528 0.10356514 -0.1676738 -0.026170563 0.048683394 -0.18747897
0.055435188 0.15095982 0.22562951 -0.15111263 0.08161153 -0.39835438 -0.17538825 -0.17680275
-0.09672847 -0.035446785 -0.20130181 -0.23938039 -0.01705389 -0.031461198 -0.021180412 -0.28595632
-0.0527561 0.21099775 -0.00525728 0.13970912 -0.15063353 -0.24158496 0.071796544 0.123433985
-0.11245949 -0.085757315 0.14383832 -0.13760841 0.14978088 -0.40018472 -0.22807519 0.16591883
0.17429501 -0.105545536 0.16350934 -0.1040902 0.10454527 -0.047548883 -0.060524687 -0.15877722
-0.13963975 -0.05274044 -0.125961 0.19798939 0.20711052 -0.21308939 0.20975657 0.06596412
-0.008366273 -0.15034696 -0.11448144 0.24212243 -0.18371557 0.10045954 -0.06449087 -0.06986082
0.17913197 0.27074036 -0.006415163 -0.17497332 -0.35553324 -0.060836863 0.0005233292 -0.13351871
-0.00839803 0.13362432 -0.07232979 -0.17617121 0.21647222 0.14962856 0.07778544 -0.09392317
0.10502109 0.039486796 -0.07522353 -0.14316405 0.11323183 -0.12288062 0.09680872 -0.10896735
0.08646544 0.07929005 -0.013527346 -0.09063807 -0.10944066 0.08961075 -0.20362417 0.18674216
-0.09903754 0.11244922 -0.009276483 0.028251857 -0.19363219 0.04733942 -0.27607837 -0.25338766
0.0020611102 0.06689536 0.033149414 -0.27736586 0.0042713154 0.043272328 -0.16441567 0.018757794
-0.1323913 0.01536443 -0.06137854 -0.11898108 -0.15491885 0.062072422 -0.06090582 -0.01774628
-0.3810397 0.30814868 0.22947294 -0.123528555 -0.090526156 0.07202169 -0.2082354 0.19324689
0.08481062 0.088455945 0.36951935 -0.38174695 -0.032037057 0.08854927 -0.07559531 0.11091849
0.20194021 -0.04608145 0.12133286 -0.17312175 -0.00023215094 0.34172255 -0.0043648053 0.08238913
0.31382927 0.029705299 -0.024946403 0.2531803 0.028457563 0.35729918 -0.074787155 0.2430746
0.16712327 -0.2588199 0.06967804 0.00478088 -0.1270829 -0.19374086 -0.23969583 0.021980915
0.16972627 -0.20978418 -0.34928992 0.14833157 -0.26844656 -0.029744497 0.18662487 -0.19327465
-0.14881767 -0.15574561 0.19254448 0.095528826 -0.08705119 0.061543126 0.16131665 -0.20485261
0.21299209 0.26618835 -0.003543405 0.21847692 -0.21143845 0.064945824 -0.1108825 -0.29888
-0.034567203 0.1170794 -0.15063658 -0.124718875 0.11595463 -0.009569416 0.09923644 0.2483052
